results/Test1/Fetch/checkpoint.pt (torch, 148971 bytes, 12 tensors)

network_body._body_endoder.seq_layers.0.weight f4 [128, 6]
0	0x3e1339f7	0.1437758
1	0xbed94c01	-0.424408
2	0xbf3d7e41	-0.74020773
3	0xbe8be304	-0.27321637
4	0x3e80718b	0.25086626
5	0xbdeab339	-0.11459965
6	0x3d891876	0.06694119
7	0x3ec2919f	0.38001725
8	0xbce3644e	-0.02775779
9	0x3f066595	0.5249875
10	0x3e5d355f	0.2160239
11	0xbdc44601	-0.09583665
12	0xbe089ae9	-0.13340344
13	0x3f822fc5	1.0170828
14	0xbdc235f5	-0.09482948
15	0xbe96ea11	-0.29475453
16	0xbe9a85f5	-0.30180326
17	0xbe398a45	-0.18119152
18	0x3db18050	0.08667052
19	0xbe6bb0ca	-0.23016658
20	0x3b5da04d	0.003381747
21	0xbf35357c	-0.70784736
22	0x3cb30439	0.0218526
23	0x3e825162	0.25452715
24	0x3e12f88f	0.1435263
25	0x3eea21f0	0.45729017
26	0x3f2946d9	0.6612373
27	0x3f5aecb4	0.8551743
28	0xbf2e1a47	-0.68008846
29	0xbe90d09d	-0.2828416
30	0x3f131ebd	0.5746878
31	0x3f0ef295	0.558389
32	0x3e5f0a95	0.2178138
33	0xbe9af5a5	-0.30265537
34	0xbd8ae1c9	-0.06781346
35	0xbecbf74c	-0.3983711
36	0xbb130567	-0.002243364
37	0xbe2d6393	-0.16932516
38	0x3d274ee7	0.04084673
39	0xbf0c69e2	-0.54849064
40	0x3ead0b8a	0.33797866
41	0xbd79d6dc	-0.06099592
42	0xbc554a12	-0.013018148
43	0xbf53dc27	-0.827578
44	0x3e69ba2e	0.22824928
45	0x3ea92e82	0.33043295
46	0x3f4d4553	0.80183905
47	0xbe7f428d	-0.24927731
48	0x3e589394	0.21150047
49	0x3d62402d	0.055236984
50	0x3f280e2f	0.6564664
51	0x3e1b8231	0.15186383
52	0x3e9562a4	0.2917682
53	0x3e5869bb	0.21134083
54	0xbeb6f214	-0.35731566
55	0x3ddc0640	0.107433796
56	0xbdc6a69f	-0.09699749
57	0x3f41a821	0.7564717
58	0xbf11abc8	-0.5690274
59	0x3edc969f	0.43083665
60	0xbe871b25	-0.26387897
61	0xbee3dfbe	-0.4450664
62	0xbccf4faa	-0.025306541
63	0x3edb31f4	0.4281155
64	0x3ed08a36	0.40730447
65	0x3e01c297	0.12671886
66	0xbef919f1	-0.48652604
67	0x3eb72858	0.35772967
68	0x3ed0131d	0.40639582
69	0x3e747f25	0.23876627
70	0x3d8d8619	0.06910343
71	0x3e81ebab	0.25375113
72	0xbe45d1bb	-0.19318287
73	0x3b49335f	0.0030700786
74	0x3f00b402	0.5027467
75	0x3eb53718	0.35393596
76	0xbf285847	-0.657597
77	0xbf696064	-0.91162705
78	0x3c4ac44a	0.0123759005
79	0x3defc881	0.11708165
80	0x3bda3d18	0.006660115
81	0xbf259c99	-0.64692074
82	0xbe2b66cc	-0.16738433
83	0x3f2f1166	0.6838592
84	0xbd2db4d9	-0.042408798
85	0xbe4fcf1a	-0.20293847
86	0xbe95faa4	-0.29292786
87	0xbebafd75	-0.36521497
88	0xbf27ccf3	-0.655471
89	0x3da8a56c	0.08234677
90	0x3f3f316f	0.74684805
91	0xbdc43370	-0.095801234
92	0xbe7d7f59	-0.2475561
93	0xbcf54d11	-0.029943975
94	0xbdba17b0	-0.09086549
95	0xbebcd505	-0.3688127
96	0x3f037fec	0.5136707
97	0x3e9103da	0.2832325
98	0xbec2e670	-0.38066435
99	0xbd065d92	-0.03280408
100	0xbdfe694a	-0.12422426
101	0xbe497499	-0.19673385
102	0xbefdda62	-0.49580675
103	0xbe20d013	-0.15704374
104	0xbe447b2f	-0.19187616
105	0xbec9b4e6	-0.39395827
106	0x3f4f6eec	0.8102863
107	0x3ee752fd	0.45180503
108	0xbec4c132	-0.38428646
109	0xbeaa4319	-0.33254316
110	0xbebc3817	-0.36761543
111	0xbe1628ab	-0.14663951
112	0x3f0eb79f	0.55748934
113	0x3e9e3268	0.30897832
114	0xbd9e7fc6	-0.077392146
115	0x3c0db50d	0.008649123
116	0xbf0ede51	-0.5580798
117	0x3f1ed19d	0.62038594
118	0x3ee4f1ac	0.4471563
119	0xbc349feb	-0.011024456
120	0xbe809eb8	-0.25121093
121	0x3e87db6c	0.26534593
122	0x3caaee3e	0.020865556
123	0xbd987498	-0.074441135
124	0xbe272df9	-0.16326131
125	0x3f5bb7dc	0.8582742
126	0xbd406292	-0.046969004
127	0xbf3dd27f	-0.74149317
128	0xbf304128	-0.6884942
129	0x3e9a4887	0.3013346
130	0xbef0c7b9	-0.47027376
131	0xbea54c94	-0.32284987
132	0xbf570b3f	-0.84001535
133	0x3e88949b	0.26675877
134	0x3e973161	0.2952986
135	0x3e60fe01	0.21971895
136	0xbf372001	-0.7153321
137	0x3e9ccb8e	0.3062405
138	0xbf03f38c	-0.515435
139	0x3ee749e7	0.4517357
140	0x3e8363fc	0.2566222
141	0x3d0788f9	0.03308961
142	0x3f35da6b	0.71036404
143	0x3f0abe73	0.5419685
144	0xbf538c67	-0.8263611
145	0x3ec67ed3	0.38768634
146	0xbd903246	-0.07040839
147	0xbf5847d2	-0.8448459
148	0x3f26cec5	0.65159255
149	0x3eafd28e	0.34340328
150	0x3f07b02d	0.530032
151	0x3e401746	0.18758878
152	0xbe55fc4a	-0.20897022
153	0xbe25e0df	-0.16199063
154	0xbf33fc20	-0.7030659
155	0x3f21016e	0.62892807
156	0x3e33a046	0.17541608
157	0x3f0be237	0.5464205
158	0xbe737248	-0.23774064
159	0xbec06ba9	-0.37582138
160	0xbe1a5939	-0.15073098
161	0x3ecc08a4	0.39850342
162	0xbed50cb6	-0.4161126
163	0xbf23a169	-0.6391817
164	0x3e4fdc92	0.20298985
165	0xbe867a7d	-0.26265326
166	0x3f31d141	0.6945992
167	0x3eb737f0	0.35784864
168	0xbf375dd8	-0.7162757
169	0x3c79d585	0.015248661
170	0x3ed31744	0.41228688
171	0xbd1f96a0	-0.038962007
172	0xbdf68e7e	-0.12038897
173	0x3f0b6267	0.54447025
174	0x3dca7839	0.09886212
175	0x3e11511f	0.14191101
176	0xbef0ff3e	-0.47069734
177	0xbe715b51	-0.2356999
178	0xbf43ae1d	-0.7643755
179	0x3e62c851	0.22146727
180	0x3d38fac2	0.045161016
181	0xbe4d7f1e	-0.20068023
182	0x3e92ce79	0.2867315
183	0xbed3899a	-0.4131592
184	0xbe0e0f1c	-0.13872951
185	0xbe784f84	-0.24249083
186	0xbefe9ea7	-0.49730417
187	0xbe04ca40	-0.12967777
188	0xbf2bc39a	-0.6709534
189	0xbe3410d0	-0.17584538
190	0x3ef8b51b	0.48575673
191	0x3eca66ea	0.39531642
192	0x3ed243cd	0.41067353
193	0x3b328ec7	0.0027245746
194	0x3d730903	0.059334766
195	0xbf18dd30	-0.59712505
196	0x3e965f8a	0.29369766
197	0xbe8ae88e	-0.2713055
198	0xbe61b43b	-0.22041409
199	0x3e22d31d	0.15900846
200	0xbdc60926	-0.09669714
201	0x3ef0d6f4	0.47038996
202	0x3f106db1	0.56417376
203	0xbf09d9c1	-0.5384789
204	0x3c5b569b	0.013387348
205	0x3d1f14cf	0.038838204
206	0xbe8eb20c	-0.27870214
207	0xbe210c77	-0.15727411
208	0xbf20cf18	-0.62816
209	0xbdb08222	-0.08618571
210	0xbec8e0f5	-0.3923413
211	0x3edbdb50	0.4294076
212	0xbd8a3448	-0.06748253
213	0xbd923a19	-0.071399875
214	0xbdd74075	-0.10510341
215	0x3e1f8a6e	0.1558015
216	0xbd927832	-0.07151832
217	0x3e612bdf	0.21989392
218	0x3e34e670	0.1766603
219	0x3e817204	0.252823
220	0xbea75956	-0.32685345
221	0x3d91b417	0.071144275
222	0xbe92bde9	-0.28660515
223	0xbb5c290f	-0.0033593809
224	0xbec7b99b	-0.39008793
225	0x3d41e739	0.04733965
226	0x3e87c60a	0.2651828
227	0x3d756e50	0.059919655
228	0x3c8d7e9e	0.01727229
229	0x3e49dd98	0.19713438
230	0x3ead3335	0.3382813
231	0xbed93f1e	-0.42430967
232	0xbf1e193c	-0.61757255
233	0xbf39acff	-0.72529596
234	0xbd5d07e7	-0.053962614
235	0xbeaa25ee	-0.33232063
236	0xbef2539f	-0.47329423
237	0x3d2d84b7	0.042362895
238	0x3f4541cf	0.7705354
239	0xbe1bf1f8	-0.15229023
240	0x3ee05d25	0.43821064
241	0xbee69529	-0.45035675
242	0x3e9a89ed	0.30183354
243	0xbe9d9128	-0.30774808
244	0xbed645da	-0.41850168
245	0x3d33ea83	0.04392482
246	0xbee23098	-0.441777
247	0xbf0cdfd7	-0.5502905
248	0x3ec8db5e	0.39229864
249	0x3cfe8660	0.031069934
250	0x3d158ba3	0.03651012
251	0xbea29542	-0.317545
252	0x3e7c7cfa	0.2465705
253	0xbcf233b8	-0.029565677
254	0xbebfc6cf	-0.37456366
255	0x3ea1e5bc	0.31620586

network_body._body_endoder.seq_layers.0.bias f4 [128]
0	0x00000000	0.0
1	0x00000000	0.0
2	0x00000000	0.0
3	0x00000000	0.0
4	0x00000000	0.0
5	0x00000000	0.0
6	0x00000000	0.0
7	0x00000000	0.0
8	0x00000000	0.0
9	0x00000000	0.0
10	0x00000000	0.0
11	0x00000000	0.0
12	0x00000000	0.0
13	0x00000000	0.0
14	0x00000000	0.0
15	0x00000000	0.0
16	0x00000000	0.0
17	0x00000000	0.0
18	0x00000000	0.0
19	0x00000000	0.0
20	0x00000000	0.0
21	0x00000000	0.0
22	0x00000000	0.0
23	0x00000000	0.0
24	0x00000000	0.0
25	0x00000000	0.0
26	0x00000000	0.0
27	0x00000000	0.0
28	0x00000000	0.0
29	0x00000000	0.0
30	0x00000000	0.0
31	0x00000000	0.0
32	0x00000000	0.0
33	0x00000000	0.0
34	0x00000000	0.0
35	0x00000000	0.0
36	0x00000000	0.0
37	0x00000000	0.0
38	0x00000000	0.0
39	0x00000000	0.0
40	0x00000000	0.0
41	0x00000000	0.0
42	0x00000000	0.0
43	0x00000000	0.0
44	0x00000000	0.0
45	0x00000000	0.0
46	0x00000000	0.0
47	0x00000000	0.0
48	0x00000000	0.0
49	0x00000000	0.0
50	0x00000000	0.0
51	0x00000000	0.0
52	0x00000000	0.0
53	0x00000000	0.0
54	0x00000000	0.0
55	0x00000000	0.0
56	0x00000000	0.0
57	0x00000000	0.0
58	0x00000000	0.0
59	0x00000000	0.0
60	0x00000000	0.0
61	0x00000000	0.0
62	0x00000000	0.0
63	0x00000000	0.0
64	0x00000000	0.0
65	0x00000000	0.0
66	0x00000000	0.0
67	0x00000000	0.0
68	0x00000000	0.0
69	0x00000000	0.0
70	0x00000000	0.0
71	0x00000000	0.0
72	0x00000000	0.0
73	0x00000000	0.0
74	0x00000000	0.0
75	0x00000000	0.0
76	0x00000000	0.0
77	0x00000000	0.0
78	0x00000000	0.0
79	0x00000000	0.0
80	0x00000000	0.0
81	0x00000000	0.0
82	0x00000000	0.0
83	0x00000000	0.0
84	0x00000000	0.0
85	0x00000000	0.0
86	0x00000000	0.0
87	0x00000000	0.0
88	0x00000000	0.0
89	0x00000000	0.0
90	0x00000000	0.0
91	0x00000000	0.0
92	0x00000000	0.0
93	0x00000000	0.0
94	0x00000000	0.0
95	0x00000000	0.0
96	0x00000000	0.0
97	0x00000000	0.0
98	0x00000000	0.0
99	0x00000000	0.0
100	0x00000000	0.0
101	0x00000000	0.0
102	0x00000000	0.0
103	0x00000000	0.0
104	0x00000000	0.0
105	0x00000000	0.0
106	0x00000000	0.0
107	0x00000000	0.0
108	0x00000000	0.0
109	0x00000000	0.0
110	0x00000000	0.0
111	0x00000000	0.0
112	0x00000000	0.0
113	0x00000000	0.0
114	0x00000000	0.0
115	0x00000000	0.0
116	0x00000000	0.0
117	0x00000000	0.0
118	0x00000000	0.0
119	0x00000000	0.0
120	0x00000000	0.0
121	0x00000000	0.0
122	0x00000000	0.0
123	0x00000000	0.0
124	0x00000000	0.0
125	0x00000000	0.0
126	0x00000000	0.0
127	0x00000000	0.0

network_body._body_endoder.seq_layers.2.weight f4 [128, 128]
0	0xbc9615e3	-0.018320983
1	0xbe1b9efc	-0.15197366
2	0xbe5dae36	-0.21648487
3	0xbd8322a6	-0.06403093
4	0xbd3c8c6c	-0.046032354
5	0x3de483af	0.11157929
6	0xbe079972	-0.13242128
7	0xbc4c45c0	-0.012467802
8	0x3d4b1ded	0.049589086
9	0xbe8db48a	-0.27676803
10	0xbe1a136c	-0.15046471
11	0x3adff2d3	0.0017085917
12	0xbe1483b3	-0.14503364
13	0x3dc20fe3	0.094756864
14	0xbc0c5136	-0.008564284
15	0xbd9679f8	-0.073474824
16	0x3d7190cc	0.05897598
17	0xbca26002	-0.01982117
18	0x3da98b71	0.082785495
19	0x3cfe1d34	0.031019785
20	0x3cc648cf	0.02420464
21	0x3d07706e	0.033066206
22	0xbdae494f	-0.08510076
23	0xbd98a293	-0.074528836
24	0xbc11286a	-0.008859733
25	0x3cdf6011	0.027267488
26	0xbcdbb474	-0.026819445
27	0x3d419a9f	0.0472666
28	0x3d6f5041	0.058426145
29	0xbe19e84c	-0.1503002
30	0xbe509f3c	-0.20373243
31	0xbd488ae8	-0.048960596
32	0x3db4cce1	0.0882814
33	0x3e3a9684	0.1822148
34	0xbddcfadf	-0.10790037
35	0x3d34351f	0.043995973
36	0xbd2bf1de	-0.04197871
37	0xbdf3654b	-0.118845545
38	0xbd3f552d	-0.04671209
39	0xbd1ea351	-0.03872997
40	0x3d0e0d74	0.0346808
41	0x3ca7f37e	0.020501848
42	0xbd8a04c6	-0.06739192
43	0x3dfe5052	0.12417664
44	0x3d848da2	0.06472327
45	0x3bb1f083	0.0054302826
46	0xbd599e5a	-0.05312953
47	0x3ddf2f7a	0.10897727
48	0xbd15d0cd	-0.03657608
49	0x3e078786	0.13235292
50	0x3d8b3135	0.06796495
51	0x3dd8ad11	0.10579885
52	0x3ca8fb5c	0.02062767
53	0x3ce0b813	0.027431523
54	0x3db1bcc8	0.08678585
55	0xbda3459f	-0.079722635
56	0x3dc73a5b	0.09727927
57	0x3d87ea6d	0.0663651
58	0xbd730df8	-0.059339494
59	0x3d5938af	0.053032573
60	0xbe001325	-0.12507303
61	0xbd7c9d39	-0.061673377
62	0xbd845d4c	-0.064631075
63	0xbc83c01c	-0.016082816
64	0x3e22d94d	0.15903206
65	0x3bc088e2	0.0058756927
66	0x3cd84b9c	0.02640324
67	0x3cafe216	0.02147011
68	0x3ccfc90f	0.025364427
69	0x3cfdf99b	0.03100281
70	0xbc981067	-0.018562509
71	0x3e0bdff1	0.13659646
72	0xbe1afba5	-0.15135057
73	0x3d233541	0.03984571
74	0x3d539c9c	0.051663026
75	0xbc2dabbc	-0.010600027
76	0xbd83b586	-0.06431107
77	0xbd42ff97	-0.04760703
78	0x3d41f7af	0.04735535
79	0xbe01e572	-0.12685183
80	0x3d2c8c30	0.04212588
81	0xbcb169fd	-0.021656984
82	0x3db30fdd	0.0874326
83	0xbd4e6fd0	-0.0503996
84	0x3cf2b2eb	0.02962633
85	0x3dbfd2c6	0.09366374
86	0x3c74ae6b	0.014934163
87	0xbe5b0157	-0.2138723
88	0xbda13df0	-0.07873142
89	0xbe58e4d3	-0.2118104
90	0xbe2880f8	-0.16455448
91	0x3c8d5e0b	0.017256757
92	0xbcb2ab0b	-0.021810075
93	0xbe2875d6	-0.16451201
94	0xbcb33754	-0.021876968
95	0xbcb53bdb	-0.022123268
96	0x3b7474d7	0.0037301087
97	0xbda07ef9	-0.07836718
98	0xbdf4d797	-0.11955183
99	0xbd9f1b0a	-0.07768829
100	0x3dd31355	0.10306422
101	0x3d61c58f	0.055120047
102	0x3da054d4	0.0782868
103	0xbddfe4ec	-0.10932335
104	0x3c96433c	0.018342607
105	0xbe349a4e	-0.17636988
106	0x3d267894	0.040642336
107	0xbdd86cd8	-0.10567635
108	0x3dcb665f	0.09931635
109	0xbdb13038	-0.08651775
110	0x3d655f80	0.05599928
111	0x3e29e72e	0.16592094
112	0xbc80725d	-0.015679533
113	0xbdb4c50b	-0.088266455
114	0xbd5b1432	-0.053486057
115	0xbc2883e0	-0.010285348
116	0xbd667507	-0.05626395
117	0x3d296af4	0.041361764
118	0xbb91d01c	-0.0044498574
119	0xbd3e5991	-0.046472136
120	0xbe1cf214	-0.1532672
121	0x3e072f30	0.13201594
122	0xbb129924	-0.002236911
123	0x3da0c8b1	0.07850779
124	0xbcc80289	-0.024415271
125	0xbc102831	-0.008798645
126	0x3a147c11	0.0005664239
127	0x3d237a69	0.03991166
128	0x3c280fdd	0.010257688
129	0x3d9fa6a2	0.077954546
130	0x3cec1e66	0.028823089
131	0xbe15ae77	-0.14617334
132	0x3b9a612d	0.0047112913
133	0xbe2e9eeb	-0.1705281
134	0x3b12c2f0	0.0022394024
135	0x3d43c1d0	0.047792256
136	0x3d9d8ba6	0.076926515
137	0x3dae2466	0.08503036
138	0xbc30589c	-0.010763314
139	0x3ad74d6d	0.0016426273
140	0xbd96c9cc	-0.073627084
141	0xbdbfeff4	-0.09371939
142	0xbe377910	-0.17917275
143	0x3d2d0658	0.042242378
144	0xbe008f97	-0.12554775
145	0x3de9ea66	0.11421661
146	0xb75be258	-1.3106117e-05
147	0xbe2508f8	-0.16116703
148	0xbc49e113	-0.012321728
149	0xbd1ec207	-0.038759258
150	0x3d2df652	0.042471237
151	0x3e4565ec	0.19277161
152	0x3c16dc6c	0.009207826
153	0x3dc71cfc	0.09722325
154	0xbd9fed57	-0.07808941
155	0xbcf4803b	-0.029846301
156	0x3e123f1b	0.14281885
157	0xbdf41831	-0.11918677
158	0x3bbc3aa7	0.0057442966
159	0x3df6eda1	0.12057043
160	0x3da82578	0.082102716
161	0x3ce7053d	0.02820074
162	0xbd6d8e94	-0.0579973
163	0x3da72898	0.081620395
164	0xbdba92c6	-0.09110026
165	0xbe42fd00	-0.19041824
166	0x3cbca517	0.02302794
167	0xbddf0e5e	-0.10891412
168	0xbd93e58a	-0.072215155
169	0x3ca8e79d	0.020618254
170	0x3d05d697	0.032675352
171	0xbe274b89	-0.16337408
172	0xbe0f7467	-0.14009248
173	0x3da42e6a	0.08016665
174	0xbdf7da34	-0.12102166
175	0xbd96bb77	-0.07359975
176	0x3c4e43e3	0.012589428
177	0xbe09f8f2	-0.13473871
178	0x3d53397a	0.051568486
179	0x3d42843d	0.047489394
180	0x3dd1125a	0.102085784
181	0x3da12030	0.078674674
182	0xbdb27295	-0.08713261
183	0xbcae4c60	-0.021276653
184	0x3d4be195	0.04977568
185	0xbe050e8a	-0.12993827
186	0xbdf7d166	-0.121004865
187	0xbe1d76e8	-0.1537739
188	0x3e08fd50	0.13377881
189	0xbca35c9a	-0.019941617
190	0x3df5d342	0.12003185
191	0xbd869ade	-0.06572507
192	0xbc8ea116	-0.017410796
193	0xbc593c2f	-0.013258978
194	0xbe477897	-0.19479595
195	0xbe65fd31	-0.22459866
196	0xbd058186	-0.032594226
197	0x3c6db71a	0.014508987
198	0xbc0b99a2	-0.008520516
199	0x3db0cbfb	0.08632656
200	0xbdb1de0a	-0.08684929
201	0x3d267b00	0.040644646
202	0xbd88203b	-0.066467725
203	0x3da396e5	0.07987765
204	0xbbdd7a97	-0.0067589986
205	0xbda31a2d	-0.07963977
206	0x3b77df6a	0.0037822374
207	0xbda1362d	-0.07871661
208	0x3d0e3568	0.0347189
209	0xbce6a6e0	-0.028155744
210	0xbca26fe4	-0.019828744
211	0xbe1451fe	-0.14484403
212	0x3d577f18	0.05261144
213	0x3d62abb1	0.05533952
214	0xbcfd604a	-0.030929703
215	0x3cb92861	0.022602262
216	0xbc355b3d	-0.011069116
217	0x3dcae940	0.0990777
218	0x3d799dd2	0.060941525
219	0x3e1bcc32	0.15214613
220	0xbb864d90	-0.0040986016
221	0xbc854924	-0.016270228
222	0xbdc67f70	-0.096922755
223	0xbcd0243e	-0.025407907
224	0x3c4b89b7	0.0124229705
225	0xbdd9e088	-0.10638529
226	0xbca7ef01	-0.020499708
227	0x3e02189a	0.12704697
228	0xbdef79e3	-0.1169317
229	0xbe24d126	-0.16095409
230	0x3df87a2a	0.12132676
231	0x3dc09173	0.09402742
232	0xbe10d1bd	-0.14142509
233	0xbda43bc4	-0.08019212
234	0xbdea5e7c	-0.11443803
235	0xbcf6b07b	-0.03011345
236	0xbc6424a3	-0.0139247505
237	0xbde5e545	-0.1122537
238	0x3ca2f4b4	0.019892074
239	0x3dce5247	0.10074287
240	0x3dc920de	0.09820722
241	0xbe4a7acc	-0.19773406
242	0xbe1a3de7	-0.15062676
243	0xbc96d97d	-0.018414253
244	0x3ab91d8e	0.0014123188
245	0xbd5cd11c	-0.05391036
246	0xbd6ff83a	-0.058586337
247	0xbd8ab97d	-0.0677366
248	0x3d9683eb	0.0734938
249	0xbde2e363	-0.11078527
250	0xbd8f92f8	-0.07010454
251	0x3cdfc6a4	0.027316399
252	0x3e039135	0.12848361
253	0xbc2ad578	-0.0104268715
254	0xbcb65185	-0.022255668
255	0x3ce1b0b9	0.027550088

network_body._body_endoder.seq_layers.2.bias f4 [128]
0	0x00000000	0.0
1	0x00000000	0.0
2	0x00000000	0.0
3	0x00000000	0.0
4	0x00000000	0.0
5	0x00000000	0.0
6	0x00000000	0.0
7	0x00000000	0.0
8	0x00000000	0.0
9	0x00000000	0.0
10	0x00000000	0.0
11	0x00000000	0.0
12	0x00000000	0.0
13	0x00000000	0.0
14	0x00000000	0.0
15	0x00000000	0.0
16	0x00000000	0.0
17	0x00000000	0.0
18	0x00000000	0.0
19	0x00000000	0.0
20	0x00000000	0.0
21	0x00000000	0.0
22	0x00000000	0.0
23	0x00000000	0.0
24	0x00000000	0.0
25	0x00000000	0.0
26	0x00000000	0.0
27	0x00000000	0.0
28	0x00000000	0.0
29	0x00000000	0.0
30	0x00000000	0.0
31	0x00000000	0.0
32	0x00000000	0.0
33	0x00000000	0.0
34	0x00000000	0.0
35	0x00000000	0.0
36	0x00000000	0.0
37	0x00000000	0.0
38	0x00000000	0.0
39	0x00000000	0.0
40	0x00000000	0.0
41	0x00000000	0.0
42	0x00000000	0.0
43	0x00000000	0.0
44	0x00000000	0.0
45	0x00000000	0.0
46	0x00000000	0.0
47	0x00000000	0.0
48	0x00000000	0.0
49	0x00000000	0.0
50	0x00000000	0.0
51	0x00000000	0.0
52	0x00000000	0.0
53	0x00000000	0.0
54	0x00000000	0.0
55	0x00000000	0.0
56	0x00000000	0.0
57	0x00000000	0.0
58	0x00000000	0.0
59	0x00000000	0.0
60	0x00000000	0.0
61	0x00000000	0.0
62	0x00000000	0.0
63	0x00000000	0.0
64	0x00000000	0.0
65	0x00000000	0.0
66	0x00000000	0.0
67	0x00000000	0.0
68	0x00000000	0.0
69	0x00000000	0.0
70	0x00000000	0.0
71	0x00000000	0.0
72	0x00000000	0.0
73	0x00000000	0.0
74	0x00000000	0.0
75	0x00000000	0.0
76	0x00000000	0.0
77	0x00000000	0.0
78	0x00000000	0.0
79	0x00000000	0.0
80	0x00000000	0.0
81	0x00000000	0.0
82	0x00000000	0.0
83	0x00000000	0.0
84	0x00000000	0.0
85	0x00000000	0.0
86	0x00000000	0.0
87	0x00000000	0.0
88	0x00000000	0.0
89	0x00000000	0.0
90	0x00000000	0.0
91	0x00000000	0.0
92	0x00000000	0.0
93	0x00000000	0.0
94	0x00000000	0.0
95	0x00000000	0.0
96	0x00000000	0.0
97	0x00000000	0.0
98	0x00000000	0.0
99	0x00000000	0.0
100	0x00000000	0.0
101	0x00000000	0.0
102	0x00000000	0.0
103	0x00000000	0.0
104	0x00000000	0.0
105	0x00000000	0.0
106	0x00000000	0.0
107	0x00000000	0.0
108	0x00000000	0.0
109	0x00000000	0.0
110	0x00000000	0.0
111	0x00000000	0.0
112	0x00000000	0.0
113	0x00000000	0.0
114	0x00000000	0.0
115	0x00000000	0.0
116	0x00000000	0.0
117	0x00000000	0.0
118	0x00000000	0.0
119	0x00000000	0.0
120	0x00000000	0.0
121	0x00000000	0.0
122	0x00000000	0.0
123	0x00000000	0.0
124	0x00000000	0.0
125	0x00000000	0.0
126	0x00000000	0.0
127	0x00000000	0.0

action_model._continuous_distribution.log_sigma f4 [1, 2]
0	0x00000000	0.0
1	0x00000000	0.0

action_model._continuous_distribution.mu.weight f4 [2, 128]
0	0xbd65aab5	-0.056071002
1	0x3b0ca2c9	0.0021459332
2	0xbc89e697	-0.016833587
3	0xbc1a840a	-0.009430895
4	0x3c9da7b9	0.019245015
5	0xbc78af85	-0.015178566
6	0x3c5cc82b	0.013475458
7	0xbcae0e22	-0.021246973
8	0x3cc69b7f	0.024244068
9	0xbcb2989a	-0.021801282
10	0x3c8df35d	0.017327959
11	0x3ae0ee13	0.0017160795
12	0x3d2668d5	0.04062732
13	0x3c356033	0.011070299
14	0xbb80008b	-0.0039063147
15	0xbc47d542	-0.012196841
16	0x3c1e01a1	0.009643943
17	0xbb875c1d	-0.004130854
18	0x3c27341d	0.010205296
19	0x3c8dc152	0.017304096
20	0xbc89f983	-0.01684261
21	0x3c6ee498	0.014580868
22	0x39a7a877	0.00031978238
23	0x3c2c3e9a	0.010512972
24	0xbcc83ad3	-0.024442112
25	0x3bbfa86e	0.005848936
26	0x3ba45315	0.005014787
27	0x3bafba67	0.005362797
28	0x3b50e773	0.0031876236
29	0xbc378ea7	-0.011203445
30	0x3be08867	0.006852198
31	0x3d01c2f9	0.03168008
32	0x3c7f2b68	0.015574314
33	0x3d2297d7	0.039695587
34	0x3ca8f38a	0.020623941
35	0xbc228f07	-0.009921796
36	0x3c51146d	0.012761218
37	0x3c273393	0.010205167
38	0xbbb349b3	-0.005471432
39	0xbcb74443	-0.022371417
40	0x3d0656e3	0.032797705
41	0x3be17158	0.0068799667
42	0x3b9fb8c9	0.004874323
43	0x3bcae036	0.006191279
44	0xbb3f8e29	-0.0029229021
45	0xba36b979	-0.00069703866
46	0x3cedc07a	0.029022444
47	0x3bf49e62	0.0074651698
48	0x3c964b02	0.018346313
49	0xbcc151b1	-0.023598524
50	0xbb920345	-0.004455956
51	0x3cf4e3f5	0.029893855
52	0x3b5c8357	0.003364762
53	0x3b9dc753	0.004815021
54	0x3bab828e	0.005234069
55	0x3cd043d0	0.02542296
56	0xbaf5440f	-0.00187123
57	0x3ccf0f2a	0.025275785
58	0x3b87e94a	0.0041476833
59	0x3a67781f	0.000882985
60	0xb9590f95	-0.00020700537
61	0xbc27ae13	-0.010234374
62	0x3c4167f2	0.011804568
63	0xbbb8fbef	-0.005645267
64	0xbcb72b57	-0.022359533
65	0xbceedf25	-0.029159138
66	0xbccff327	-0.025384499
67	0x3bf0164a	0.007326876
68	0xbcb79c7a	-0.022413481
69	0xbc24a1bf	-0.010048329
70	0xbb7f41db	-0.0038949165
71	0x3c847ed6	0.016173761
72	0xba2bcb13	-0.0006553393
73	0xbc7282a5	-0.014801656
74	0xbcc02d8a	-0.023459215
75	0xbbe15cf7	-0.0068775374
76	0xb8b11807	-8.444493e-05
77	0xbb60c03d	-0.003429427
78	0xba580d3f	-0.000824172
79	0x3ba91167	0.005159545
80	0x3c9b5623	0.018961972
81	0xbbbb4d2c	-0.0057159867
82	0xbc9e5294	-0.019326486
83	0xbc794772	-0.015214788
84	0xba2401ff	-0.0006256401
85	0x3cce7dd2	0.02520648
86	0xbbde2ff8	-0.0067806207
87	0x3cd02bd7	0.02541153
88	0xbc027aac	-0.007963818
89	0x3ce0148f	0.027353553
90	0x3c335206	0.010944849
91	0xbc35d6fd	-0.0110986205
92	0x3d279fbd	0.040923823
93	0x3d0e21d7	0.03470024
94	0x3b16d39a	0.0023014308
95	0x3d146321	0.03622735
96	0x3c4a50d0	0.012348369
97	0xbb973237	-0.0046141404
98	0xbc9e7498	-0.019342706
99	0xbc32643d	-0.0108881565
100	0x3d251500	0.04030323
101	0x3b8f56dd	0.0043743686
102	0x3c672892	0.014108794
103	0x3cdcf677	0.026972992
104	0xbc0044cb	-0.0078289015
105	0x3cb4d4af	0.022074072
106	0x3b8a8b63	0.004228042
107	0x3c74777b	0.0149210645
108	0xbb56af45	-0.0032758277
109	0x3c5b15fa	0.013371939
110	0xb9f888af	-0.00047404083
111	0xbcb19b10	-0.021680385
112	0xbc3a878b	-0.011384855
113	0xbbcd6a48	-0.006268773
114	0x3cfa1a08	0.03052999
115	0x3835e4b3	4.3366756e-05
116	0x3cab273f	0.020892737
117	0xbb842eab	-0.0040338836
118	0x3baa4093	0.005195686
119	0xbb79088d	-0.0037999481
120	0xb96c5602	-0.00022538754
121	0xbb54c01a	-0.0032463134
122	0x3bd22cbb	0.0064140237
123	0x3c1117e1	0.008855791
124	0x3b9de809	0.0048189205
125	0x3d188553	0.037236523
126	0x3a1ff47b	0.0006101799
127	0x3d60e7ef	0.05490869
128	0x3c14b78a	0.009076962
129	0xb9f0c20d	-0.00045920946
130	0xbbd03b2a	-0.006354709
131	0x3c23c8b3	0.009996581
132	0x3cad8167	0.021179868
133	0x3ba60504	0.005066516
134	0xbd0bf353	-0.0341676
135	0x3ca3d6f3	0.019999957
136	0xbb68454b	-0.0035441692
137	0x3c23f1cb	0.010006378
138	0x3c7b0715	0.015321513
139	0x3d1e8acf	0.038706597
140	0x3b2be634	0.002622974
141	0x3bf31ed7	0.007419448
142	0x3c60105a	0.0136757735
143	0xbb6a0255	-0.0035706956
144	0xbb666600	-0.0035156012
145	0x3c042b17	0.008066914
146	0xbbbfb83f	-0.0058508213
147	0x3c927aaf	0.017880766
148	0xbbc7d97e	-0.006098925
149	0xbb442f53	-0.0029935434
150	0x3c111b7e	0.008856652
151	0xbd1479e7	-0.036249068
152	0x3c8a7d0a	0.016905326
153	0x3c84cf9c	0.016212277
154	0xbc391bad	-0.011298102
155	0xbbf2b1c3	-0.0074064448
156	0xbb8d108c	-0.004304951
157	0x3ba03098	0.0048886053
158	0xbc358d40	-0.01108104
159	0x3d256df9	0.04038808
160	0x3bd262a3	0.00642045
161	0xba3a1dc6	-0.00070997735
162	0x3c0bb7cc	0.008527707
163	0x3b5d1f6d	0.0033740655
164	0xbba09509	-0.004900579
165	0xbcd09a62	-0.02546424
166	0x3c98b33b	0.018640151
167	0xbc13656c	-0.008996349
168	0x3c7d7f47	0.01547224
169	0xb86454c7	-5.443839e-05
170	0xbb57e305	-0.003294171
171	0x3d09dc78	0.03365752
172	0x3d271900	0.040795326
173	0x3c1f65e8	0.009728886
174	0xbd1f1d19	-0.03884611
175	0x3cdb3ce7	0.026762439
176	0x3cac6d1b	0.02104812
177	0xbb957664	-0.0045612324
178	0xbc6b5f92	-0.014366047
179	0xbb4d5365	-0.0031330225
180	0x3c9c335b	0.019067457
181	0xbb83a19f	-0.0040170695
182	0x3cf9a04a	0.03047194
183	0xbcea5168	-0.02860327
184	0xbc8090a9	-0.01569398
185	0x3c49a987	0.012308485
186	0x3cae782d	0.021297539
187	0xbc80fe5d	-0.01574629
188	0x3c2979ff	0.010344028
189	0xbd003c3f	-0.031307455
190	0xbc21c4bc	-0.009873565
191	0x3c6e8c1d	0.014559773
192	0x3cd06a30	0.02544126
193	0xbbb5ac56	-0.0055442257
194	0xbbf7da28	-0.007563848
195	0x3cbfe3dc	0.023424082
196	0x3b0e06eb	0.0021671604
197	0x3c0c14fc	0.008549925
198	0xbba6762b	-0.0050800047
199	0x3c00f09c	0.007869866
200	0x3c487896	0.012235781
201	0xbaec36a8	-0.001802166
202	0xbb77aec2	-0.0037793373
203	0x3c79b75f	0.015241473
204	0x3a20c25c	0.00061324774
205	0x3c9df453	0.019281542
206	0xb9a98b42	-0.00032337947
207	0x3cfed048	0.031105176
208	0xbcb18a3b	-0.021672359
209	0x3c88c6b7	0.016696317
210	0xbbeb9552	-0.007189431
211	0xbc0d2237	-0.0086141145
212	0x3c7c22fa	0.015389198
213	0x3d0ea36a	0.034823813
214	0xbbd1a748	-0.0063981153
215	0x3c7cff3d	0.015441713
216	0x3c0dc725	0.008653437
217	0x3c9233d0	0.017846972
218	0x3c65d8ef	0.014028772
219	0x3cdabdfd	0.026701922
220	0x3bdd4a78	0.006753262
221	0x3b4581d7	0.0030137205
222	0xbc4168e5	-0.011804794
223	0xba49043f	-0.0007668174
224	0xbc2e57cf	-0.010641052
225	0x3cdda0a3	0.027054137
226	0x3c95ce0f	0.018286733
227	0x3c1b98a7	0.009496844
228	0x3b830b80	0.0039991736
229	0x3c5866a3	0.013208064
230	0xbc86f6ea	-0.01647516
231	0x3b51cde3	0.0032013587
232	0xbc911bbe	-0.017713424
233	0xbd1422cd	-0.036166
234	0xbb42ea16	-0.0029741577
235	0xbba1f249	-0.0049422127
236	0xbcb72503	-0.022356516
237	0x3ac039e8	0.0014665695
238	0xbcfb420a	-0.030671138
239	0xbd0c25d3	-0.03421576
240	0xbc2dc781	-0.0106066475
241	0xbcfa773a	-0.03057443
242	0x3a2c3cc7	0.0006570336
243	0x3c5e9e80	0.013587594
244	0xbc7438f2	-0.014906155
245	0x3c0d1bf7	0.008612624
246	0x398766a7	0.00025825688
247	0xbc9640ae	-0.018341389
248	0x3c30ddd8	0.010795079
249	0xbbeccd62	-0.007226632
250	0xbb17a79b	-0.0023140672
251	0xbd277b2b	-0.040888947
252	0x3c740dfb	0.014895911
253	0xbc89c09a	-0.016815472
254	0xbbabcbbd	-0.0052427934
255	0x3bcc91d1	0.0062429686

action_model._continuous_distribution.mu.bias f4 [2]
0	0x00000000	0.0
1	0x00000000	0.0

network_body._body_endoder.seq_layers.0.weight f4 [128, 6]
0	0x3e2243f1	0.1584623
1	0xbebd15f8	-0.36930823
2	0xbf5d0b0e	-0.86344993
3	0x3eacd7af	0.33758304
4	0x3cf6c906	0.030125152
5	0xbe66eb79	-0.22550763
6	0xbef6b415	-0.48184267
7	0x3f1c063c	0.6094701
8	0x3f306821	0.6890889
9	0xbe753d01	-0.23949052
10	0x3e7288d7	0.23685013
11	0xbf053bb2	-0.5204421
12	0x3f1d219c	0.6137941
13	0xbecd3acc	-0.4008392
14	0x3f206e75	0.62668544
15	0xbf42cd61	-0.76094633
16	0xbeb2dec1	-0.34935573
17	0x3ec9052e	0.39261764
18	0xbc3faa7f	-0.011698364
19	0xbe098c07	-0.13432322
20	0x3f42876f	0.75987905
21	0xbf286eae	-0.65793884
22	0xbf02fa6e	-0.51163375
23	0xbf2bd6be	-0.67124546
24	0xbe273388	-0.16328251
25	0xbdd512c9	-0.104039736
26	0x3eb26fae	0.3485083
27	0x3fa8957b	1.3170618
28	0x3e58be23	0.21166281
29	0x3f101645	0.5628398
30	0xbe78735f	-0.2426276
31	0xbeac7138	-0.3368013
32	0x3df22d07	0.118249945
33	0x3f07e25d	0.5307978
34	0x3e7ed8de	0.24887416
35	0x3f51accb	0.81904286
36	0x3f394cb4	0.72382665
37	0xbf315d4a	-0.6928297
38	0x3f08dc30	0.5346098
39	0x3e005035	0.12530597
40	0xbe091116	-0.13385424
41	0xbe4883a8	-0.19581473
42	0x3e8be8e0	0.27326107
43	0xbe87ffa7	-0.26562235
44	0x3dc99e38	0.09844631
45	0x3f1b81a3	0.60744685
46	0xbf139518	-0.57649374
47	0xbd938d44	-0.07204679
48	0x3ef6112c	0.48059976
49	0xbe3c3090	-0.183779
50	0xbd321f21	-0.043486718
51	0x3e0e4153	0.13892107
52	0x3d52d869	0.051475916
53	0x3d931610	0.071819425
54	0xbe65b5b5	-0.22432597
55	0xbec62a8f	-0.38704345
56	0xbefcddaa	-0.49387866
57	0x3f240a2e	0.6407803
58	0x3ecdcf3e	0.40197176
59	0xbeafc12c	-0.34327066
60	0x3f4b2d85	0.7936633
61	0x3f67e75c	0.905874
62	0x3e112201	0.14173128
63	0x3eb6f21e	0.35731596
64	0x3dadd959	0.084887214
65	0xbd2d2137	-0.042268004
66	0x3d9639a8	0.07335216
67	0xbeb3c0e3	-0.35108098
68	0x3c7fb1c1	0.015606345
69	0x3ef9f5fe	0.4882049
70	0xbe3296fc	-0.17440408
71	0x3e4a7e47	0.19774733
72	0x3ee42300	0.44557953
73	0x3ed1b739	0.409601
74	0xbeff70ef	-0.4989085
75	0x3f1f5e15	0.6225293
76	0xbe6630af	-0.22479509
77	0xbd554f86	-0.052077793
78	0x3dcbd845	0.099533595
79	0xbf048b80	-0.5177536
80	0xbe1d6d2c	-0.15373677
81	0x3d95cda1	0.07314611
82	0x3d9f57c9	0.077804156
83	0xbebc24bb	-0.36746773
84	0x3d28c00d	0.04119878
85	0xbef9b097	-0.4876754
86	0xbe2fa109	-0.17151274
87	0xbe625fb4	-0.2210682
88	0x3dd2fadd	0.103017546
89	0x3dbc2f9b	0.091887675
90	0x3d811d10	0.06304371
91	0xbe81f212	-0.25379997
92	0xbecfb113	-0.40564784
93	0xbfa3a89c	-1.278583
94	0x3e69e491	0.22841097
95	0x3dd2a666	0.10285644
96	0x3d314106	0.0432749
97	0xbebadfcc	-0.36498868
98	0xbe7e5932	-0.24838713
99	0x3ed5bce2	0.4174567
100	0xbeb26bd9	-0.34847906
101	0xbe99940e	-0.2999577
102	0xbed93996	-0.42426747
103	0x3ec21d75	0.379131
104	0xbd99c223	-0.07507732
105	0x3f6d4f66	0.9269928
106	0xbf2ab16a	-0.6667696
107	0xbe25f99a	-0.16208497
108	0xbed5967f	-0.41716382
109	0xbd9d6df0	-0.076869845
110	0xbe979c7f	-0.29611585
111	0x3da3cf03	0.07998469
112	0x3cd417f2	0.025890324
113	0xbec5097e	-0.38483804
114	0x3f7eb103	0.9948885
115	0x3cd8fcd7	0.026487751
116	0x3d21b2e4	0.039477244
117	0x3e9341f4	0.28761256
118	0x39740083	0.00023269844
119	0xbf231057	-0.6369681
120	0x3d8d2cf9	0.068933435
121	0x3ee2e58d	0.44315758
122	0xbf0880e2	-0.5332166
123	0x3ea5351b	0.3226708
124	0x3eb78886	0.35846347
125	0x3f03cc7b	0.5148389
126	0x3f7ae85e	0.98010814
127	0xbe78786a	-0.24264684
128	0xbe05a24f	-0.13050197
129	0xbf032b26	-0.51237714
130	0x3d8ade3f	0.06780671
131	0xbe7ed805	-0.24887092
132	0x3ecfcc04	0.4058534
133	0xbcc792fa	-0.024362076
134	0xbf510ac8	-0.81657076
135	0xbe1892ae	-0.14899704
136	0x3f0ed72a	0.55797064
137	0xbf3bc679	-0.7334972
138	0x3d037bc6	0.03210046
139	0x3debbf3a	0.11511083
140	0x3dd20553	0.10254922
141	0x3a91d7e5	0.0011126964
142	0xbd3b074b	-0.045661252
143	0xbea87e9b	-0.32909092
144	0x3d031bc6	0.03200891
145	0xbf32c861	-0.69837004
146	0x3e80c49d	0.25150004
147	0x3eb7fd8c	0.35935628
148	0x3f1c40c6	0.61036336
149	0xbf443ef6	-0.7665857
150	0x3e45ce35	0.19316943
151	0xbe92e0d1	-0.28687146
152	0x3edbc64e	0.42924732
153	0x3d9470b9	0.07248063
154	0x3e8f3bca	0.27975303
155	0x3e7276df	0.23678158
156	0xbf87784b	-1.0583586
157	0x3f364328	0.7119622
158	0xbeb6ecee	-0.35727638
159	0x3e9bcc42	0.30429274
160	0xbe0d4f4f	-0.13799785
161	0x3f7ef560	0.9959316
162	0xbe9ae726	-0.30254477
163	0x3e47135a	0.19440976
164	0xbd41a25a	-0.04727397
165	0xbd4f7119	-0.050644968
166	0x3d8c1d79	0.06841559
167	0xbe69e976	-0.22842965
168	0xbd00bc4c	-0.031429574
169	0x3e1d4d4d	0.15361519
170	0xbb2467cf	-0.0025086289
171	0x3d9cd0a2	0.07656981
172	0x3e76141a	0.24031106
173	0xbe732e7c	-0.23748201
174	0x3f472519	0.7779098
175	0x3ecffe11	0.40623525
176	0xbe98da35	-0.2985398
177	0xbe38b7af	-0.1803882
178	0xbd5cdadd	-0.05391966
179	0x3f80da1a	1.0066559
180	0xbe36ecd8	-0.17863786
181	0x3f2f0544	0.6836741
182	0x3f0ee45e	0.5581721
183	0xbe9d85c1	-0.3076611
184	0x3ef38173	0.475597
185	0xbf81352b	-1.009435
186	0x3d849a8c	0.0647479
187	0x3f1b5cb8	0.6068835
188	0x3ea7b191	0.3275266
189	0x3df66f7c	0.12032983
190	0x3ec2ca18	0.3804481
191	0xbe883266	-0.2660095
192	0xbf1f12b8	-0.6213794
193	0x3f86b579	1.0524131
194	0x3e6b2e1b	0.22966807
195	0xbe568905	-0.20950706
196	0x3eebe4e5	0.4607307
197	0xbe23c84e	-0.15994379
198	0xbe917527	-0.28409693
199	0xbece051f	-0.40238282
200	0x3e154e71	0.14580704
201	0xbee2fbf1	-0.4433284
202	0x3eea4625	0.4575664
203	0xbf52774f	-0.822133
204	0xbe1851f4	-0.14875013
205	0x3e1c7a2b	0.15280978
206	0xbe608ef6	-0.21929535
207	0xbe8d4daf	-0.2759833
208	0x3dfa54c5	0.122232
209	0x3d2b6bf6	0.041851006
210	0xbf1be86a	-0.6090151
211	0xbf2ee1ae	-0.6831311
212	0xbe33ad90	-0.17546678
213	0x3de0f0f9	0.10983462
214	0xbda993f7	-0.08280175
215	0xbf5c207e	-0.8598708
216	0x3a1a7a7e	0.00058928865
217	0x3e147015	0.14495881
218	0xbec5b154	-0.38611853
219	0x3f32195c	0.69569945
220	0xbb4549f4	-0.0030103894
221	0x3e3daa4f	0.18521999
222	0x3f00e0fe	0.5034331
223	0xbe33e58d	-0.17568035
224	0x3e8c1370	0.2735858
225	0xbdc1c9fe	-0.09462355
226	0xbdc44180	-0.09582806
227	0xbf12df1c	-0.5737169
228	0x3dc33fd1	0.095336564
229	0xbe08b8ea	-0.13351789
230	0x3f712c09	0.9420782
231	0x3de25bf5	0.11052696
232	0x3d4c8e03	0.04994012
233	0x3f414632	0.75497735
234	0xbea0da97	-0.3141677
235	0x3e3d9817	0.18515049
236	0xbe1d58c4	-0.15365893
237	0x3f24af38	0.6432986
238	0xbd2b973c	-0.041892275
239	0xbe646371	-0.22303559
240	0xbf75230b	-0.95756596
241	0x3ea3ce26	0.31993216
242	0xbe9a4526	-0.3013088
243	0x3da1bfa5	0.078978814
244	0x3ea7896d	0.32722035
245	0x3e69b3fc	0.22822565
246	0xbd166a75	-0.03672262
247	0xbd0aabed	-0.033855367
248	0x3d06f55a	0.03294883
249	0x3eb0deb3	0.34544906
250	0x3e7c83a8	0.24659598
251	0xbe941198	-0.28919673
252	0xbe4fa25e	-0.20276782
253	0x3d2373b2	0.039905258
254	0x3c7c9734	0.015416909
255	0xbe99d062	-0.30041796

network_body._body_endoder.seq_layers.0.bias f4 [128]
0	0x00000000	0.0
1	0x00000000	0.0
2	0x00000000	0.0
3	0x00000000	0.0
4	0x00000000	0.0
5	0x00000000	0.0
6	0x00000000	0.0
7	0x00000000	0.0
8	0x00000000	0.0
9	0x00000000	0.0
10	0x00000000	0.0
11	0x00000000	0.0
12	0x00000000	0.0
13	0x00000000	0.0
14	0x00000000	0.0
15	0x00000000	0.0
16	0x00000000	0.0
17	0x00000000	0.0
18	0x00000000	0.0
19	0x00000000	0.0
20	0x00000000	0.0
21	0x00000000	0.0
22	0x00000000	0.0
23	0x00000000	0.0
24	0x00000000	0.0
25	0x00000000	0.0
26	0x00000000	0.0
27	0x00000000	0.0
28	0x00000000	0.0
29	0x00000000	0.0
30	0x00000000	0.0
31	0x00000000	0.0
32	0x00000000	0.0
33	0x00000000	0.0
34	0x00000000	0.0
35	0x00000000	0.0
36	0x00000000	0.0
37	0x00000000	0.0
38	0x00000000	0.0
39	0x00000000	0.0
40	0x00000000	0.0
41	0x00000000	0.0
42	0x00000000	0.0
43	0x00000000	0.0
44	0x00000000	0.0
45	0x00000000	0.0
46	0x00000000	0.0
47	0x00000000	0.0
48	0x00000000	0.0
49	0x00000000	0.0
50	0x00000000	0.0
51	0x00000000	0.0
52	0x00000000	0.0
53	0x00000000	0.0
54	0x00000000	0.0
55	0x00000000	0.0
56	0x00000000	0.0
57	0x00000000	0.0
58	0x00000000	0.0
59	0x00000000	0.0
60	0x00000000	0.0
61	0x00000000	0.0
62	0x00000000	0.0
63	0x00000000	0.0
64	0x00000000	0.0
65	0x00000000	0.0
66	0x00000000	0.0
67	0x00000000	0.0
68	0x00000000	0.0
69	0x00000000	0.0
70	0x00000000	0.0
71	0x00000000	0.0
72	0x00000000	0.0
73	0x00000000	0.0
74	0x00000000	0.0
75	0x00000000	0.0
76	0x00000000	0.0
77	0x00000000	0.0
78	0x00000000	0.0
79	0x00000000	0.0
80	0x00000000	0.0
81	0x00000000	0.0
82	0x00000000	0.0
83	0x00000000	0.0
84	0x00000000	0.0
85	0x00000000	0.0
86	0x00000000	0.0
87	0x00000000	0.0
88	0x00000000	0.0
89	0x00000000	0.0
90	0x00000000	0.0
91	0x00000000	0.0
92	0x00000000	0.0
93	0x00000000	0.0
94	0x00000000	0.0
95	0x00000000	0.0
96	0x00000000	0.0
97	0x00000000	0.0
98	0x00000000	0.0
99	0x00000000	0.0
100	0x00000000	0.0
101	0x00000000	0.0
102	0x00000000	0.0
103	0x00000000	0.0
104	0x00000000	0.0
105	0x00000000	0.0
106	0x00000000	0.0
107	0x00000000	0.0
108	0x00000000	0.0
109	0x00000000	0.0
110	0x00000000	0.0
111	0x00000000	0.0
112	0x00000000	0.0
113	0x00000000	0.0
114	0x00000000	0.0
115	0x00000000	0.0
116	0x00000000	0.0
117	0x00000000	0.0
118	0x00000000	0.0
119	0x00000000	0.0
120	0x00000000	0.0
121	0x00000000	0.0
122	0x00000000	0.0
123	0x00000000	0.0
124	0x00000000	0.0
125	0x00000000	0.0
126	0x00000000	0.0
127	0x00000000	0.0

network_body._body_endoder.seq_layers.2.weight f4 [128, 128]
0	0xbd4873d4	-0.048938587
1	0xbd9daa66	-0.076985165
2	0x3c4965d7	0.012292347
3	0x3de5dd74	0.112238795
4	0x3d1e30d2	0.038620777
5	0x3deeab39	0.11653752
6	0x3db5f7b9	0.0888514
7	0x3d54d243	0.051958334
8	0x3cf8e059	0.030380415
9	0x3d55f467	0.052235033
10	0xbd171ce8	-0.0368928
11	0xbc9bc0a2	-0.019012753
12	0x3de040d0	0.10949862
13	0xbe1a5eae	-0.1507518
14	0xbd66c328	-0.05633846
15	0xbd84a0f9	-0.064760156
16	0xbd895da2	-0.06707312
17	0x3d0aecf9	0.0339174
18	0x3d091344	0.03346564
19	0xbe328cc3	-0.17436509
20	0xbce83536	-0.028345685
21	0x3c05d434	0.008168269
22	0x3cad3d7e	0.021147486
23	0x3dea07ee	0.11427294
24	0xbcf7f5fc	-0.030268662
25	0xbdc44b99	-0.095847316
26	0xbaed4b6c	-0.0018104143
27	0x3d940038	0.07226604
28	0xbdec38b6	-0.11534254
29	0xbc8cf310	-0.017205745
30	0x3e26b3c3	0.16279511
31	0x3cd42d09	0.02590038
32	0xbd36f5a4	-0.044667855
33	0x3c6e3dbb	0.014541085
34	0x3e235726	0.15951213
35	0xbe1c8e02	-0.15288547
36	0x3dcb04df	0.099130385
37	0xbcccdc50	-0.025007397
38	0xbc49f3ec	-0.012326222
39	0xbd9b6f84	-0.07589629
40	0xbd80c325	-0.06287221
41	0x3e13cbec	0.14433259
42	0xbd0a4a14	-0.033762053
43	0xb950b3ea	-0.00019903449
44	0x3c68ad04	0.014201406
45	0xbe0545df	-0.13014935
46	0x3da2c6c5	0.079480685
47	0xbd21a100	-0.039460182
48	0xbd96c4a4	-0.07361725
49	0x3e2f0b1c	0.17094082
50	0x3da2dc60	0.079521894
51	0xbd16b6ac	-0.036795303
52	0xbcd8bbe1	-0.026456775
53	0x3da3c8f6	0.07997315
54	0x3d89f2e0	0.06735778
55	0x3c1c00bb	0.0095216585
56	0x3d4b48d2	0.049629994
57	0x3db80f2a	0.08987267
58	0xbcbf71e1	-0.023369731
59	0x3d0ec489	0.0348554
60	0x3da15696	0.07877843
61	0xbd3146b0	-0.043280303
62	0xbc2aeb96	-0.010432145
63	0x3d37baeb	0.044855993
64	0xbcaa43db	-0.02078431
65	0xbd588540	-0.052861452
66	0x3e41d28a	0.1892797
67	0x3d7e4714	0.062079504
68	0xbb2d2ecb	-0.0026425596
69	0x3c392a30	0.011301562
70	0x3d1191aa	0.035539307
71	0x3cf312fb	0.029672137
72	0xbd648ae2	-0.05579651
73	0xbc3128c9	-0.010812947
74	0x3e59739f	0.21235512
75	0x3d45cb60	0.048289657
76	0x3e1c2494	0.15248328
77	0xbd6429b6	-0.05570384
78	0xbcc2968c	-0.023753427
79	0x3cf58042	0.029968385
80	0xbd4081e4	-0.046998873
81	0xbd8062fd	-0.062688805
82	0xbc177960	-0.009245247
83	0xbc00cadc	-0.007860865
84	0x3cad4893	0.02115277
85	0xbd33658c	-0.043798015
86	0xbcdbd049	-0.026832717
87	0xbdedb10c	-0.11606035
88	0xbe01e827	-0.12686215
89	0x3bd8e280	0.006618798
90	0x3d1fbbcc	0.038997456
91	0xbbe7c931	-0.0070735444
92	0x3c2fc9c0	0.010729253
93	0xbe844615	-0.25834718
94	0xbde3d662	-0.11124875
95	0xbc9e6c67	-0.0193388
96	0xbd8fdfcb	-0.07025107
97	0xbe106896	-0.14102396
98	0x3d91879f	0.07105946
99	0xbc187525	-0.009305273
100	0x3e21757b	0.15767471
101	0xbd87704e	-0.06613217
102	0xbd7d5c31	-0.0618555
103	0xbd9f180c	-0.077682585
104	0x3e0c1bd5	0.13682492
105	0xbdbba77e	-0.09162806
106	0x3e016d77	0.12639414
107	0xbdd345af	-0.103160255
108	0xbe612fdd	-0.21990915
109	0x3da8276d	0.08210645
110	0xbd8ee1bf	-0.069766514
111	0xbd02a539	-0.03189585
112	0xbd7fc859	-0.062446926
113	0x3a35f1c6	0.0006940629
114	0xbea25a46	-0.31709498
115	0xbe2a614e	-0.16638681
116	0x3d112418	0.035434812
117	0xbdb2bb67	-0.087271504
118	0x3d4c9888	0.049950153
119	0x3e1a697f	0.15079306
120	0x3d1a7939	0.037713263
121	0xbdd2dc26	-0.10295896
122	0x3ca870ee	0.020561662
123	0x3d5c8b02	0.053843506
124	0x3daa8efb	0.083280526
125	0xbd099a9d	-0.033594716
126	0x3d89d41c	0.0672991
127	0xbcb8bc49	-0.022550719
128	0x3b738e79	0.0037163778
129	0x3e1a1c90	0.15049958
130	0x3dbacc26	0.091209695
131	0xbd8e5c87	-0.06951242
132	0xbd9483fd	-0.07251737
133	0xbdab78c8	-0.083726466
134	0x3ce46d92	0.027884278
135	0x3e17bd96	0.14818415
136	0xbde7e888	-0.11323649
137	0xbde7f261	-0.11325527
138	0xba447747	-0.00074945803
139	0xbd292e34	-0.04130383
140	0x3cb01469	0.021494107
141	0xbcb22fb6	-0.021751266
142	0xbdeb204c	-0.114807695
143	0x3d825d67	0.06365471
144	0xbd446e8a	-0.04795698
145	0xbd669b5e	-0.056300513
146	0x3da3db55	0.08000819
147	0x3d49377c	0.04912518
148	0x3c613f50	0.013748005
149	0xbe24353d	-0.16035934
150	0xbd98623e	-0.07440613
151	0xbd9422d1	-0.07233203
152	0xbcc5b182	-0.024132494
153	0xbd1237dd	-0.035697807
154	0x3de3f80f	0.11131298
155	0xbdcdd1cd	-0.10049782
156	0xbe0027b7	-0.1251515
157	0xb9877895	-0.00025839047
158	0x3dda1f36	0.10650484
159	0xbc5d53c2	-0.013508739
160	0xbe063baf	-0.13108705
161	0x3dcdb49c	0.10044214
162	0x3dba07be	0.09083508
163	0x3dce2a68	0.10066682
164	0x3d1374b6	0.035999976
165	0x3db9a9ca	0.09065588
166	0x3c9ed171	0.019386979
167	0xbd143338	-0.03618166
168	0xbd821a2c	-0.06352648
169	0xbc231c47	-0.009955472
170	0xb996aa34	-0.0002873704
171	0xbd58f288	-0.05296567
172	0x3cabb8d6	0.02096216
173	0xbc897082	-0.01677728
174	0xbe0ec9c7	-0.1394416
175	0x3ccb4ba9	0.024816351
176	0xbd181b32	-0.03713531
177	0x3cf7ac60	0.030233562
178	0xbce20058	-0.027588055
179	0x3c8c8711	0.017154248
180	0xbd8187cd	-0.0632473
181	0x3dac0218	0.08398837
182	0x3c292b98	0.010325335
183	0x3e2bbc63	0.16771083
184	0x3e2078bf	0.15671061
185	0x3cb7a7de	0.022418913
186	0xbcc63044	-0.024192937
187	0x3dac5918	0.08415431
188	0xbc032046	-0.0080033
189	0x3e2aaabb	0.16666691
190	0xbb8cc0fe	-0.0042954674
191	0x3cff13d7	0.03113739
192	0x3da07a74	0.07835856
193	0x3dccca03	0.09999468
194	0xbd44df5b	-0.04806457
195	0xbd9a0cda	-0.075219825
196	0x3d8374cf	0.06418764
197	0xbe0bc4aa	-0.1364924
198	0x3d864020	0.065551996
199	0xbd372339	-0.044711325
200	0x3db96ebd	0.09054325
201	0x3de27f9c	0.11059496
202	0xbd6da235	-0.05801602
203	0xbdde108d	-0.108430006
204	0xbb92c9e8	-0.0044796355
205	0x3d78d3ef	0.06074899
206	0x3e1b01cf	0.15137409
207	0xbda05d81	-0.078303345
208	0x3d6477c3	0.055778276
209	0xbd0d0faf	-0.034438785
210	0x3b963d6f	0.00458496
211	0xbe071064	-0.13189846
212	0xbe13fe11	-0.14452387
213	0xbdcec19e	-0.10095523
214	0x3de33b59	0.11095304
215	0x3db460fb	0.0880756
216	0x3dfe86eb	0.12428077
217	0xbb23446a	-0.0024912604
218	0x3c0613ee	0.008183463
219	0xbe2a8342	-0.16651633
220	0xbcec5abd	-0.028851861
221	0xbd87a15e	-0.06622575
222	0xbd0cff0d	-0.034422923
223	0xbdd1110d	-0.1020833
224	0x3d86959a	0.06571503
225	0xbc81acb7	-0.015829427
226	0xbda45adb	-0.08025142
227	0xbdd17c53	-0.10228791
228	0xbd3dc01c	-0.046325788
229	0xbd622e8e	-0.05522018
230	0x3d2eba4a	0.042658128
231	0x3b6a564c	0.0035757003
232	0x3e06af32	0.13152769
233	0x3d9a68a3	0.07539489
234	0x3d34640c	0.044040725
235	0xbe04a070	-0.12951827
236	0x3d72606e	0.059173994
237	0xbc46bb8c	-0.012129676
238	0xbde0bde0	-0.10973716
239	0xbb940ab2	-0.0045178765
240	0xbb849cdf	-0.004047021
241	0xbbe8265b	-0.0070846505
242	0xbd9a3389	-0.07529361
243	0x3dd8b9be	0.105823025
244	0x3dc2594b	0.094896875
245	0x3cac026b	0.020997247
246	0x3e103433	0.14082412
247	0xbd20c71a	-0.039252378
248	0x3cb56f26	0.022147726
249	0xbca0b434	-0.019617178
250	0x3ddf1a39	0.108936734
251	0x3d608e82	0.054823406
252	0xbde66684	-0.11250022
253	0x3c8f7e1f	0.017516194
254	0xbd5619d6	-0.052270733
255	0x3d836be6	0.06417064

network_body._body_endoder.seq_layers.2.bias f4 [128]
0	0x00000000	0.0
1	0x00000000	0.0
2	0x00000000	0.0
3	0x00000000	0.0
4	0x00000000	0.0
5	0x00000000	0.0
6	0x00000000	0.0
7	0x00000000	0.0
8	0x00000000	0.0
9	0x00000000	0.0
10	0x00000000	0.0
11	0x00000000	0.0
12	0x00000000	0.0
13	0x00000000	0.0
14	0x00000000	0.0
15	0x00000000	0.0
16	0x00000000	0.0
17	0x00000000	0.0
18	0x00000000	0.0
19	0x00000000	0.0
20	0x00000000	0.0
21	0x00000000	0.0
22	0x00000000	0.0
23	0x00000000	0.0
24	0x00000000	0.0
25	0x00000000	0.0
26	0x00000000	0.0
27	0x00000000	0.0
28	0x00000000	0.0
29	0x00000000	0.0
30	0x00000000	0.0
31	0x00000000	0.0
32	0x00000000	0.0
33	0x00000000	0.0
34	0x00000000	0.0
35	0x00000000	0.0
36	0x00000000	0.0
37	0x00000000	0.0
38	0x00000000	0.0
39	0x00000000	0.0
40	0x00000000	0.0
41	0x00000000	0.0
42	0x00000000	0.0
43	0x00000000	0.0
44	0x00000000	0.0
45	0x00000000	0.0
46	0x00000000	0.0
47	0x00000000	0.0
48	0x00000000	0.0
49	0x00000000	0.0
50	0x00000000	0.0
51	0x00000000	0.0
52	0x00000000	0.0
53	0x00000000	0.0
54	0x00000000	0.0
55	0x00000000	0.0
56	0x00000000	0.0
57	0x00000000	0.0
58	0x00000000	0.0
59	0x00000000	0.0
60	0x00000000	0.0
61	0x00000000	0.0
62	0x00000000	0.0
63	0x00000000	0.0
64	0x00000000	0.0
65	0x00000000	0.0
66	0x00000000	0.0
67	0x00000000	0.0
68	0x00000000	0.0
69	0x00000000	0.0
70	0x00000000	0.0
71	0x00000000	0.0
72	0x00000000	0.0
73	0x00000000	0.0
74	0x00000000	0.0
75	0x00000000	0.0
76	0x00000000	0.0
77	0x00000000	0.0
78	0x00000000	0.0
79	0x00000000	0.0
80	0x00000000	0.0
81	0x00000000	0.0
82	0x00000000	0.0
83	0x00000000	0.0
84	0x00000000	0.0
85	0x00000000	0.0
86	0x00000000	0.0
87	0x00000000	0.0
88	0x00000000	0.0
89	0x00000000	0.0
90	0x00000000	0.0
91	0x00000000	0.0
92	0x00000000	0.0
93	0x00000000	0.0
94	0x00000000	0.0
95	0x00000000	0.0
96	0x00000000	0.0
97	0x00000000	0.0
98	0x00000000	0.0
99	0x00000000	0.0
100	0x00000000	0.0
101	0x00000000	0.0
102	0x00000000	0.0
103	0x00000000	0.0
104	0x00000000	0.0
105	0x00000000	0.0
106	0x00000000	0.0
107	0x00000000	0.0
108	0x00000000	0.0
109	0x00000000	0.0
110	0x00000000	0.0
111	0x00000000	0.0
112	0x00000000	0.0
113	0x00000000	0.0
114	0x00000000	0.0
115	0x00000000	0.0
116	0x00000000	0.0
117	0x00000000	0.0
118	0x00000000	0.0
119	0x00000000	0.0
120	0x00000000	0.0
121	0x00000000	0.0
122	0x00000000	0.0
123	0x00000000	0.0
124	0x00000000	0.0
125	0x00000000	0.0
126	0x00000000	0.0
127	0x00000000	0.0

value_heads.value_heads.extrinsic.weight f4 [1, 128]
0	0xbe0318e4	-0.12802464
1	0xbe59c8a5	-0.21267946
2	0x3b145740	0.0022635013
3	0xbe286b8c	-0.16447276
4	0x3d213aa0	0.03936255
5	0x3dda1ba8	0.10649806
6	0x3d5faf48	0.05461052
7	0x3cf01ac8	0.029309645
8	0x3d8fed14	0.07027641
9	0xbe241d82	-0.16026881
10	0x3e439ede	0.19103572
11	0xbddb5090	-0.107087255
12	0x3e11cc58	0.14238107
13	0xbdcc3875	-0.09971706
14	0xbe15ae94	-0.14617378
15	0x3e004662	0.12526849
16	0x3e2330bc	0.1593656
17	0x3e1db4b2	0.15400961
18	0xbe122d30	-0.1427505
19	0xbd52ddf4	-0.051481202
20	0x3e07d750	0.13265729
21	0xbbb3e8a0	-0.0054903775
22	0xbd71b49c	-0.059010133
23	0x3e17f926	0.14841136
24	0x3cc77b58	0.024350807
25	0xbc8e7858	-0.017391369
26	0x3e48d0d0	0.19610906
27	0x3d553d88	0.052060634
28	0xbdb9fe70	-0.09081733
29	0xbd9a56ac	-0.075360626
30	0x3daac9a0	0.08339238
31	0xbda21e5e	-0.07915948
32	0x3da83d58	0.082148254
33	0x3b2fb3c0	0.002681002
34	0xbe08ff1f	-0.13378571
35	0xbde8ea52	-0.11372818
36	0x3d8c3980	0.06846905
37	0x3e4eb220	0.20185137
38	0x3d9a6524	0.07538822
39	0x3e1c9428	0.15290892
40	0xbe30321b	-0.17206614
41	0xbe1c31e2	-0.15253404
42	0xbd767c94	-0.0601774
43	0x3c31b7c0	0.010847032
44	0xbd283b50	-0.04107219
45	0x3e31ddb2	0.17369726
46	0x3e1dd4e8	0.15413249
47	0xbe3eceac	-0.18633527
48	0x3e197032	0.14984205
49	0x3e2377ee	0.15963718
50	0xbe320834	-0.17385942
51	0x3e2bc510	0.16774392
52	0x3e4f96f6	0.20272431
53	0x3adb5500	0.0016733706
54	0xbd8df55e	-0.06931566
55	0x3e203c30	0.1564796
56	0x3e395e76	0.1810244
57	0xbce24bf8	-0.027624115
58	0xbceec228	-0.029145315
59	0x3d983ee0	0.074338675
60	0x3e12b9e2	0.14328721
61	0xbc502710	-0.012704626
62	0x3deff3f8	0.11716455
63	0x3e2298be	0.15878579
64	0xbdea9b8a	-0.11455448
65	0xbe1663ac	-0.1468646
66	0x3c5e5c30	0.013571784
67	0xbd3c7da0	-0.046018243
68	0xbc988478	-0.018617854
69	0xbd91d02c	-0.07119784
70	0x3e45e4fe	0.19325635
71	0xbe3c79c5	-0.18405826
72	0x3e578c3a	0.21049586
73	0xbcd58840	-0.026065946
74	0x3cf0ee08	0.029410377
75	0x3df332d4	0.11874929
76	0xbe299d44	-0.16563898
77	0xbe121ea0	-0.14269495
78	0x3e2d898e	0.16947004
79	0x3dfb566c	0.12272343
80	0xbdad62a0	-0.08466077
81	0xbe4a5bd6	-0.19761595
82	0x3dae9b84	0.08525756
83	0xbe0bf246	-0.13666639
84	0x3e069ed0	0.1314652
85	0xbe3c2f22	-0.18377355
86	0xbd48315c	-0.048875198
87	0x3e26c146	0.16284665
88	0x3d764328	0.06012264
89	0xbdbb348d	-0.09140883
90	0x3af03600	0.001832664
91	0x3de1dd48	0.11028534
92	0x3e19ab24	0.15006691
93	0x3d11de70	0.035612524
94	0x3e2a8a28	0.16654265
95	0xbd526854	-0.051369026
96	0xbc5d4ad0	-0.013506606
97	0xbd5e1c68	-0.05422631
98	0xbde15b66	-0.11003761
99	0x3e03fe38	0.12889946
100	0xbdacdfd4	-0.08441129
101	0x3c113a90	0.00886406
102	0x3d3d4860	0.0462116
103	0x3cdb43f8	0.026765808
104	0x3b751040	0.003739372
105	0xbe189266	-0.14899597
106	0xbd95cdd0	-0.07314646
107	0x3dd030d4	0.10165563
108	0x3e2fe512	0.17177227
109	0xbd607d60	-0.054807067
110	0xbe3fa74e	-0.18716165
111	0x3e490352	0.19630173
112	0x3e332044	0.17492777
113	0x3d9b08f4	0.07570067
114	0xbe4ed160	-0.20197058
115	0xbdb7cf4c	-0.089750856
116	0x3e2424da	0.16029683
117	0x3c3e5360	0.011616558
118	0x3d1dc778	0.038520306
119	0xbd37b590	-0.044850886
120	0x3d713498	0.058888048
121	0xbe0233aa	-0.12715021
122	0xbd55b100	-0.052170753
123	0xbe48696b	-0.19571464
124	0xbe1f18c3	-0.1553679
125	0x3d83dd64	0.06438711
126	0xbdc179ce	-0.094470605
127	0xbc888b90	-0.016668111
