results/Test1/Fetch/Fetch-4821.onnx (onnx, 74608 bytes, 6 tensors)

network_body._body_endoder.seq_layers.0.weight f4 [128, 6]
0.15235543 0.38614443 0.35073474 -0.35561293 -0.13730496 -0.6756983 -0.5283107 0.19438085
0.023018831 0.31102064 -0.749564 -0.0041293176 -0.06797717 -0.07545163 0.06884588 0.185565
0.47189918 0.5804446 0.18655467 0.042279918 0.55156296 -0.02627199 0.58862036 -0.30836704
0.15586053 -0.4433415 -0.34183615 0.13327235 0.9224963 0.26882946 0.36902538 -0.026030479
0.17800298 0.15222608 0.5851517 0.026718969 0.8827524 0.10187026 0.2738945 -0.064783074
-0.21291767 0.014358701 0.77195394 0.27583125 -0.021159375 0.31931847 0.11339373 -0.24600974
0.6046364 -0.274108 0.36384284 -0.30461302 1.0393169 0.75323087 0.055037677 -0.08701661
0.1561191 -0.6505902 0.4054437 0.1542124 -0.28527856 0.6446854 -0.12804867 0.13008028
-0.74118453 0.34174952 0.3693216 -0.18305223 0.6954399 -0.05218003 -0.091788225 -0.8634888
0.45374718 0.25385872 -0.36538184 -0.4644398 0.06306821 0.5709771 0.28966033 0.107187636
0.1266084 -0.17136273 0.00985281 -0.15259184 -0.9440987 0.28857645 -0.36081195 -0.33556104
-0.087694965 -0.24599227 0.124421164 0.46860003 0.31359527 -0.85693204 0.046620663 -0.120067865
0.3533088 -0.34922913 -0.27014154 0.97326386 -0.13059382 -0.58361906 0.5107337 0.12698242
0.40315965 0.58994186 0.2463992 0.1533969 -0.2545731 0.22171865 -0.08565094 0.60129696
0.2678887 0.2146737 0.22135079 0.24113467 0.050612073 -0.85724247 -0.4485418 -0.18475088
0.35647765 -0.9376094 0.6362128 -0.13138357 -0.6043355 0.84299785 -0.2599401 -0.71864915
0.40555352 -0.23301178 -1.1276108 -0.010797016 -0.05965451 -0.025649225 -0.61212254 0.075771965
0.2516664 -0.21552676 -0.236024 -0.49350157 0.12087751 0.36016998 -0.646654 0.42224208
-0.2895907 0.08274734 0.327444 -0.42519957 -0.70335895 -0.03304644 0.39653307 -0.78697133
0.31699416 0.072608694 0.38703874 -0.47954082 -0.5443446 0.5248003 -0.0623589 -0.30612984
0.0030995714 -0.14889508 0.14768282 -0.62453175 0.26643246 -0.23180136 -0.24836776 -0.016927958
0.5486835 -0.25521666 -0.15135206 -0.863936 0.1370983 -0.40655434 -0.113276266 -0.03542629
-1.2122042 0.07670543 -0.67358553 -0.14913249 0.23313484 0.0947372 -0.84169674 -0.44759864
0.5356246 -0.48772398 -0.6208886 -0.6048418 0.5849326 -0.1753486 0.30899724 0.17261101
-0.22009802 0.9584429 -0.386248 0.1913294 -0.32688928 0.69845825 0.09339569 0.18292367
-0.7519204 -0.44464484 0.0038287712 0.21844605 -0.51830566 -0.45556343 -0.25433877 -0.006461476
0.6772515 0.27503648 0.22699937 0.35165912 -0.10007839 0.72947454 -0.35620254 -0.08294305
0.29944932 -0.13961597 0.50737596 -0.22878797 -1.4195035 0.475683 -0.0115619125 0.45785096
0.4984073 0.075415015 0.1869033 -0.09313357 -0.7174298 0.3077459 0.32577056 -0.32543778
0.15166733 -0.19524784 -0.6603459 -0.2587042 -0.29952818 -0.13764474 -0.6369694 0.5341146
-0.5530806 -0.54278797 -0.28285003 -0.09910133 -0.29456028 -0.368851 -0.13547431 -0.56973106
0.02585673 0.0318757 0.34179395 0.26907304 0.925068 0.15777102 0.14260572 -0.11543995
00000000: 1003 1c3e b9b4 c53e 8193 b33e e612 b6be
00000010: ac99 0cbe 90fa 2cbf 5f3f 07bf c60b 473e
00000020: fd91 bc3c 193e 9f3e 6de3 3fbf 3a4f 87bb
00000030: 9d37 8bbd 6286 9abd 12ff 8c3d c004 3e3e
00000040: c59c f13e 0498 143f 3008 3f3e b52d 2d3d
00000050: 3b33 0d3f 5b38 d7bc d3af 163f 49e2 9dbe
00000060: e799 1f3e a8fd e2be 2605 afbe 8c78 083e
00000070: b828 6c3f 04a4 893e e5f0 bc3e df3d d5bc
00000080: 6a46 363e 27e1 1b3e 80cc 153f bde1 da3c
00000090: 10fc 613f 5ba1 d03d e63b 8c3e fdac 84bd
000000a0: 1707 5abe c240 6b3c c69e 453f c139 8d3e
000000b0: 6d56 adbc b67d a33e f93a e83d fae9 7bbe
000000c0: 73c9 1a3f e257 8cbe 9c49 ba3e 3df6 9bbe
000000d0: 5608 853f bdd3 403f 306f 613d c435 b2bd
000000e0: afdd 1f3e 148d 26bf 5196 cf3e dbe9 1d3e
000000f0: 0810 92be 1a0a 253f 311f 03be c433 053e
00000100: 45be 3dbf cbf9 ae3e b917 bd3e 0b72 3bbe
00000110: 5908 323f baba 55bd 77fb bbbd 9a0d 5dbf
00000120: 8d51 e83e c5f9 813e 5413 bbbe 0ecb edbe
00000130: e829 813d 8e2b 123f 5c4e 943e 3185 db3d
00000140: a2a5 013e b679 2fbe ae6d 213c 0941 1cbe
00000150: 74b0 71bf 4bc0 933e 58bc b8be a8ce abbe
00000160: 6b99 b3bd 66e5 7bbe 86d0 fe3d 58ec ef3e
00000170: 8f8f a03e e65f 5bbf 4ff5 3e3d 24e6 f5bd
00000180: e4e4 b43e 29ce b2be fe4f 8abe d227 793f
00000190: 63ba 05be 0f68 15bf 72bf 023f ae07 023e
000001a0: f16a ce3e 6e06 173f 1250 7c3e 1414 1d3e
000001b0: 6857 82be 370a 633e c369 afbd 99ee 193f
000001c0: b528 893e 6cd3 5b3e c8a9 623e 02ec 763e
000001d0: 9b4e 4f3d 3e74 5bbf 45a7 e5be 562f 3dbe
000001e0: 3d84 b63e 2b07 70bf d8de 223f 6a89 06be
000001f0: bbb5 1abf b5ce 573f de16 85be 64f9 37bf
00000200: b6a4 cf3e a49a 6ebe 8d55 90bf f8e5 30bc
00000210: 4a58 74bd 531e d2bc 10b4 1cbf 552e 9b3d
00000220: 6bda 803e 0cb3 5cbe 47b0 71be 3dac fcbe
00000230: a18e f73d 3368 b83e 1e8b 25bf 1d30 d83e
00000240: 3b45 94be 7077 a93d bda6 a73e c2b3 d9be
00000250: 550f 34bf b45b 07bd 6206 cb3e f476 49bf
00000260: 0f4d a23e deb3 943d f129 c63e 6086 f5be
00000270: 2b5a 0bbf 5059 063f 0c6c 7fbd 0dbd 9cbe
00000280: 2e22 4b3b f477 18be 2a3a 173e 50e1 1fbf
00000290: d669 883e 565d 6dbe 1e54 7ebe 80ac 8abc
000002a0: 8676 0c3f c2ab 82be 09fc 1abe e92a 5dbf
000002b0: 7f63 0c3e e427 d0be 63fd e7bd 281b 11bd
000002c0: 8229 9bbf bd17 9d3d 1a70 2cbf 30b6 18be
000002d0: e6ba 6e3e 9405 c23d 7079 57bf a62b e5be
000002e0: b21e 093f f5b6 f9be 8ef2 1ebf ead6 1abf
000002f0: 25be 153f 958e 33be e334 9e3e f1c0 303e
00000300: 6061 61be 845c 753f 4cc2 c5be dbeb 433e
00000310: 085e a7be 29ce 323f 3d46 bf3d 5850 3b3e
00000320: db7d 40bf 7da8 e3be 1fec 7a3b 52b0 5f3e
00000330: aeaf 04bf 9c3f e9be b138 82be caba d3bb
00000340: 5b60 2d3f 95d1 8c3e 8672 683e aa0c b43e
00000350: e6f5 ccbd d8be 3a3f 2e60 b6be 0cde a9bd
00000360: 6c51 993e 7df7 0ebe 64e3 013f 6547 6abe
00000370: 4ab2 b5bf b98c f33e 2d6e 3dbc 716b ea3e
00000380: 3e2f ff3e 3073 9a3d 9463 3f3e d0bc bebd
00000390: 7ba9 37bf df90 9d3e 66cb a63e c89f a6be
000003a0: ae4e 1b3e 0def 47be 6e0c 29bf e074 84be
000003b0: c25b 99be bef2 0cbe 6d10 23bf bcbb 083f
000003c0: b196 0dbf 27f4 0abf b8d1 90be a3f5 cabd
000003d0: 9bd0 96be 0ada bcbe c7b9 0abe e5d9 11bf
000003e0: 7ed1 d33c 1890 023d 9eff ae3e f1c3 893e
000003f0: 42d1 6c3f ba8e 213e 3c07 123e c86b ecbd

network_body._body_endoder.seq_layers.0.bias f4 [128]
0.0 0.0 0.0 0.0 0.0 0.0 0.0 0.0
0.0 0.0 0.0 0.0 0.0 0.0 0.0 0.0
0.0 0.0 0.0 0.0 0.0 0.0 0.0 0.0
0.0 0.0 0.0 0.0 0.0 0.0 0.0 0.0
0.0 0.0 0.0 0.0 0.0 0.0 0.0 0.0
0.0 0.0 0.0 0.0 0.0 0.0 0.0 0.0
0.0 0.0 0.0 0.0 0.0 0.0 0.0 0.0
0.0 0.0 0.0 0.0 0.0 0.0 0.0 0.0
0.0 0.0 0.0 0.0 0.0 0.0 0.0 0.0
0.0 0.0 0.0 0.0 0.0 0.0 0.0 0.0
0.0 0.0 0.0 0.0 0.0 0.0 0.0 0.0
0.0 0.0 0.0 0.0 0.0 0.0 0.0 0.0
0.0 0.0 0.0 0.0 0.0 0.0 0.0 0.0
0.0 0.0 0.0 0.0 0.0 0.0 0.0 0.0
0.0 0.0 0.0 0.0 0.0 0.0 0.0 0.0
0.0 0.0 0.0 0.0 0.0 0.0 0.0 0.0
00000000: 0000 0000 0000 0000 0000 0000 0000 0000
00000010: 0000 0000 0000 0000 0000 0000 0000 0000
00000020: 0000 0000 0000 0000 0000 0000 0000 0000
00000030: 0000 0000 0000 0000 0000 0000 0000 0000
00000040: 0000 0000 0000 0000 0000 0000 0000 0000
00000050: 0000 0000 0000 0000 0000 0000 0000 0000
00000060: 0000 0000 0000 0000 0000 0000 0000 0000
00000070: 0000 0000 0000 0000 0000 0000 0000 0000
00000080: 0000 0000 0000 0000 0000 0000 0000 0000
00000090: 0000 0000 0000 0000 0000 0000 0000 0000
000000a0: 0000 0000 0000 0000 0000 0000 0000 0000
000000b0: 0000 0000 0000 0000 0000 0000 0000 0000
000000c0: 0000 0000 0000 0000 0000 0000 0000 0000
000000d0: 0000 0000 0000 0000 0000 0000 0000 0000
000000e0: 0000 0000 0000 0000 0000 0000 0000 0000
000000f0: 0000 0000 0000 0000 0000 0000 0000 0000
00000100: 0000 0000 0000 0000 0000 0000 0000 0000
00000110: 0000 0000 0000 0000 0000 0000 0000 0000
00000120: 0000 0000 0000 0000 0000 0000 0000 0000
00000130: 0000 0000 0000 0000 0000 0000 0000 0000
00000140: 0000 0000 0000 0000 0000 0000 0000 0000
00000150: 0000 0000 0000 0000 0000 0000 0000 0000
00000160: 0000 0000 0000 0000 0000 0000 0000 0000
00000170: 0000 0000 0000 0000 0000 0000 0000 0000
00000180: 0000 0000 0000 0000 0000 0000 0000 0000
00000190: 0000 0000 0000 0000 0000 0000 0000 0000
000001a0: 0000 0000 0000 0000 0000 0000 0000 0000
000001b0: 0000 0000 0000 0000 0000 0000 0000 0000
000001c0: 0000 0000 0000 0000 0000 0000 0000 0000
000001d0: 0000 0000 0000 0000 0000 0000 0000 0000
000001e0: 0000 0000 0000 0000 0000 0000 0000 0000
000001f0: 0000 0000 0000 0000 0000 0000 0000 0000

network_body._body_endoder.seq_layers.2.weight f4 [128, 128]
0.088157035 -0.0042077955 0.022144992 -0.008954734 0.016842838 0.059915006 -0.11290132 -0.09144499
-0.063483305 0.018766597 -0.033162326 -0.006014024 -0.0015153382 0.029855363 0.02561404 -0.111186355
0.07504413 -0.0063530547 -0.1095331 0.04848678 -0.081056006 -0.06319666 -0.17520949 0.037339058
0.13632748 0.079297714 0.1027488 0.1760737 0.03950765 0.14838772 0.1525615 0.045627497
-0.071704514 -0.0060764314 0.15108351 -0.08145489 0.022758618 0.0027415468 0.07520182 0.010300661
-0.02451467 0.009787378 0.05771617 -0.029969346 -0.04224931 0.021715213 -0.007890376 0.035786126
0.033349637 -0.144786 0.08475521 0.0995605 -0.023178203 0.06765628 0.06572018 -0.16091529
-0.014099585 0.057640858 -0.008246522 -0.1286842 -0.026004437 -0.03175994 -0.02056625 0.04426322
-0.045273587 -0.008573727 0.03227419 0.09076503 0.14883262 -0.006271557 0.11666895 -0.09913084
0.019218441 0.06791285 0.056208063 -0.03875128 -0.10227724 0.11599764 0.0058284653 0.13565476
-0.05904301 0.01631079 0.080625854 -0.032580502 -0.012054418 0.13410586 -0.03181237 -0.042411588
0.011243302 -0.031550225 -0.013097062 0.08324612 -0.1731418 -0.07913064 -0.058982532 0.08205609
0.06700816 0.09057704 -0.087862164 -0.043431655 0.0068692258 -0.008030778 -0.13024962 -0.026890231
-0.110649556 0.16227663 0.11792673 -0.06306678 0.10949297 -0.0102638155 0.07949064 0.018286796
-0.13578081 0.053837735 -0.061932012 0.09648528 -0.051858123 -0.11460377 -0.17866941 -0.0891134
0.086901605 0.10815635 0.027274566 -0.031829663 -0.042081695 0.032209992 0.040292934 0.19459604
-0.057218947 0.14641827 -0.057399537 0.11708998 -0.01549578 0.1145043 0.012733463 0.09843208
-0.06607352 -0.010244793 0.037373677 -0.13586263 0.011371833 0.14769499 0.028668314 0.044358384
-0.12620828 -0.021297589 0.09423759 0.14711823 0.012823321 0.035850823 0.16737221 -0.058588523
0.08573525 -0.11083191 0.103957325 0.17799994 0.15870132 0.002851876 0.09733761 -0.0031141576
-0.119846426 0.056356303 0.032618262 -0.27403024 0.023596905 0.15364875 0.119190946 0.017097032
0.037437312 -0.062926926 -0.10647422 0.12889516 -0.044236477 0.012658825 -0.0527622 0.017530363
-0.11505129 -0.057201713 0.06518535 -0.0037928529 -0.14304085 -0.09740048 0.025472498 0.093722716
-0.013333271 0.07224858 0.0022086021 -0.10617929 -0.08933405 -0.048111252 0.018712414 -0.25666797
-0.06182131 -0.0523152 -0.30768064 0.0037717577 0.05298418 0.040784534 0.09713421 0.1857359
-0.034564216 0.14569665 -0.03445555 0.012572052 0.09287955 -0.032160614 0.059082706 -0.059691437
0.021229183 -0.0380139 0.25254244 0.11571997 0.023005353 -0.10237808 0.005335076 0.1469743
-0.053167317 -0.021939913 -0.06209449 -0.07278105 -0.049965415 -0.048110846 -0.04302164 -0.17380065
-0.003882651 -0.024850864 0.03916845 -0.14138308 0.07865518 0.080347724 0.05667341 0.07577571
-0.06648689 0.037795704 0.10914494 0.008310761 0.1754899 -0.008996633 -0.13579471 -0.08247277
0.17204702 -0.029682888 0.041468885 -0.13454817 -0.058024067 0.043491244 0.04094822 -0.15026236
0.13033815 0.05046808 -0.1473656 -0.09001019 0.09429434 -0.013824539 0.008581967 -0.0441477
00000000: ad8b b43d 8ce1 89bb 6a69 b53c e0b6 12bc
00000010: fef9 893c 7069 753d cf38 e7bd 8347 bbbd
00000020: 8903 82bd 68bc 993c 38d5 07bd 4a11 c5bb
00000030: 509e c6ba 3c93 f43c 89d4 d13c acb5 e3bd
00000040: bdb0 993d 492d d0bb e452 e0bd 139a 463d
00000050: b100 a6bd 406d 81bd 1e6a 33be d7f0 183d
00000060: 6e99 0b3e d766 a23d f66d d23d aa4c 343e
00000070: c6d2 213d f3f2 173e 1539 1c3e e6e3 3a3d
00000080: d1d9 92bd cd1c c7bb a3b5 1a3e d2d1 a6bd
00000090: 4870 ba3c 86ab 333b 6903 9a3d 1bc4 283c
000000a0: fdd2 c8bc 3d5b 203c ca67 6c3d 4682 f5bc
000000b0: 9d0d 2dbd 1ae4 b13c a346 01bc 7994 123d
000000c0: a199 083d c842 14be 2494 ad3d 60e6 cb3d
000000d0: 37e0 bdbc 608f 8a3d 4d98 863d fac6 24be
000000e0: f201 67bc d218 6c3d 6c1c 07bc cac5 03be
000000f0: 4207 d5bc b616 02bd 8d7a a8bc 5a4d 353d
00000100: cc70 39bd d178 0cbc f131 043d 04e3 b93d
00000110: 9467 183e a281 cdbb 21f0 ee3d 1c05 cbbd
00000120: fe6f 9d3c e415 8b3d 6d3a 663d aab9 1ebd
00000130: bb76 d1bd 2c90 ed3d b6fc be3b 15e9 0a3e
00000140: 15d7 71bd 359e 853c 2b1f a53d 2273 05bd
00000150: e57f 45bc 0c53 093e b04d 02bd c6b7 2dbd
00000160: d435 383c cf3a 01bd 0f95 56bc f17c aa3d
00000170: 164c 31be 3f0f a2bd ab97 71bd 060d a83d
00000180: 933b 893d 7580 b93d 14f1 b3bd 64e5 31bd
00000190: 3e17 e13b 8693 03bc 2860 05be e748 dcbc
000001a0: 3c9c e2bd d82b 263e 9283 f13d 2829 81bd
000001b0: da3d e03d 9029 28bc fdcb a23d 31ce 953c
000001c0: 200a 0bbe f584 5c3d 6cac 7dbd 139a c53d
000001d0: 2f69 54bd 62b5 eabd 1df5 36be 1681 b6bd
000001e0: 78f9 b13d 1481 dd3d e96e df3c d25f 02bd
000001f0: db5d 2cbd a0ee 033d 340a 253d 2f44 473e
00000200: 6a5e 6abd acee 153e c71b 6bbd dfcc ef3d
00000210: 03e2 7dbc 3b81 ea3d 04a0 503c c296 c93d
00000220: 8e51 87bd c7d9 27bc 2415 193d 931f 0bbe
00000230: ed50 3a3c 5b3d 173e d0d9 ea3c 23b1 353d
00000240: be3c 01be 4878 aebc a3ff c03d 29a6 163e
00000250: e818 523c 50d8 123d 9f63 2b3e 85fa 6fbd
00000260: f695 af3d d7fb e2bd 94e7 d43d 9e45 363e
00000270: 9982 223e 8ae6 3a3b f158 c73d e516 4cbb
00000280: 0b72 f5bd ded5 663d ba9a 053d b14d 8cbe
00000290: 4c4e c13c 1956 1d3e 621a f43d 130f 8c3c
000002a0: de57 193d d5df 80bd 280f dabd 18fd 033e
000002b0: 4f31 35bd f666 4f3c 2d1d 58bd d69b 8f3c
000002c0: 03a0 ebbd 584c 6abd e67f 853d 8391 78bb
000002d0: 4d79 12be e779 c7bd b3ab d03c b2f1 bf3d
000002e0: cb73 5abc 10f7 933d 32be 103b 8774 d9bd
000002f0: c5f4 b6bd 4e10 45bd c74a 993c fc69 83be
00000300: 5838 7dbd 7748 56bd 5188 9dbe 982f 773b
00000310: f105 593d af0d 273d 4dee c63d 8d31 3e3e
00000320: 3593 0dbd 8131 153e 4321 0dbd 02fb 4d3c
00000330: a237 be3d d9ba 03bd b500 723d 027f 74bd
00000340: d3e8 ad3c 77b4 1bbd 3e4d 813e 97fe ec3d
00000350: b975 bc3c 99ab d1bd dcd1 ae3b 6e80 163e
00000360: f9c5 59bd 55bb b3bc cb56 7ebd 3b0e 95bd
00000370: 89a8 4cbd e10f 45bd 7637 30bd ccf8 31be
00000380: 1374 7ebb 0a94 cbbc 196f 203d bac6 10be
00000390: f815 a13d 598d a43d 6122 683d 4c30 9b3d
000003a0: 472a 88bd abcf 1a3d 6287 df3d dc29 083c
000003b0: a0b3 333e 9d66 13bc c50d 0bbe 7ce7 a8bd
000003c0: 182d 303e 8729 f3bc 47db 293d ffc6 09be
000003d0: a5aa 6dbd e023 323d 52b9 273d 60de 19be
000003e0: 5d77 053e 9eb7 4e3d 02e7 16be 4357 b8bd
000003f0: 641d c13d 5280 62bc 619b 0c3c 38d4 34bd

action_model._continuous_distribution.log_sigma f4 [1, 2]
0.0 0.0
00000000: 0000 0000 0000 0000

action_model._continuous_distribution.mu.weight f4 [2, 128]
0.016669137 -0.010492379 0.024717635 -0.01854013 0.014507181 -0.016674412 -0.00741821 0.0005310409
0.015515149 -0.008586341 -0.0393365 0.008659036 0.016862318 0.031016186 0.024437623 0.020510666
-0.00195233 0.0038312878 0.012967986 0.019056736 -0.0043917447 -0.01757658 -0.021267762 -0.028906459
-0.016953683 0.0076834047 0.035725247 0.008081216 -0.00231257 -0.014259115 0.010715774 0.016271947
-0.036496688 -0.0040390175 -0.03267059 -0.018513994 -0.012503298 -0.03523705 0.008856054 0.008069564
0.019136278 -0.032527786 0.011678222 0.010435867 0.026027525 -0.022932647 0.02155225 0.02060528
0.00518469 0.017039869 -0.028738288 -0.012674808 -0.010171506 -0.021653844 -0.004260013 -0.013767897
-0.02322622 -0.0015298951 -0.00096635934 -0.016209465 0.023865063 0.014302619 0.022100082 0.009134662
-0.009847566 -0.011931213 -0.014190691 -0.014729365 0.01753275 0.022310017 0.023579163 0.017949712
-0.001277153 0.011756743 -0.0027499609 0.028453976 -0.02452298 0.0035358176 0.015628394 0.010029023
0.010203099 0.02863642 0.017013015 0.024802305 0.01817635 -0.018071035 -0.008401211 0.01406941
0.00818805 0.014507353 0.048624977 0.016170476 -0.01043443 0.018568397 0.0056106145 0.0058223153
-0.01320413 -0.016205411 -0.020944096 -0.0030350501 -0.009586011 -0.045483746 0.009882624 0.02206185
0.0019463057 -0.0012948586 0.023829868 0.017818352 0.025784602 0.026773412 0.032448933 0.022300199
-0.0022173978 0.014148002 -0.014324178 -0.0060355123 0.012262073 0.02512364 -0.0017435331 -0.0065101
-0.027450476 0.00830781 -0.012252599 -0.0147958845 -0.009627356 -0.0010572089 0.010319373 0.01602157
-0.0060879146 0.027019447 0.02745313 -0.005009224 0.021041472 -0.024104042 -0.006866724 -0.013602416
-0.012040795 0.00068455335 -0.015200063 -0.041197687 0.014502949 -0.011498899 -0.00077113684 -0.029813869
-0.0011224238 -0.0050531295 0.015623577 0.0053037195 -0.015114655 -0.004551747 -0.0042943284 0.01878991
0.016334228 -0.015010454 0.0048966673 0.015949579 0.021069886 0.01805715 -0.0191567 -0.0060728653
0.011925519 0.008741996 0.02416978 -0.0085898535 0.0066792504 0.025848377 -0.004885364 0.0120218145
-0.027754525 0.0025620505 -0.005295132 -0.013531985 0.0063994783 -0.0010903854 -0.00838999 -0.015693888
0.017339487 -0.056895185 -0.007625474 -0.05744211 0.020071456 -0.023639208 0.024043618 0.014614816
0.006900083 0.0040239203 -0.0057960716 -0.0057049408 0.0042273626 0.0027083976 0.029930947 0.05054692
0.0103696715 -0.00645729 -0.023938015 -0.024189336 0.011988695 -0.016166972 -0.011596796 0.031946983
-0.014671201 -0.0032610525 -0.0029902502 -0.016532622 0.0073317424 0.01533132 0.011871061 -0.01577104
0.029578954 -0.0040611434 -0.010792779 0.004857108 -0.01934647 -0.019262483 -0.012081591 0.024847314
0.024842821 -0.029317444 0.0113870585 -0.010280732 -0.029899765 -0.007571398 0.01763707 0.0075644404
0.020173261 0.0022411298 0.0024533046 0.009613899 0.0043019312 -0.0028978693 0.016150266 -0.026214931
0.022473773 -0.013115795 -0.016003488 0.007290274 0.024198039 -0.0070137167 0.040317647 0.0060617807
0.035223626 -0.0047366326 0.0072816922 -0.02722818 -0.0060505457 -0.0021953457 0.0038013868 0.0012860944
-0.010063274 -0.012194307 -0.0015471189 0.022459252 -0.015746439 -0.0071173334 0.027791485 -0.006890688
00000000: b78d 883c 3ae8 2bbc a37c ca3c 79e1 97bc
00000010: 87af 6d3c c798 88bc 7514 f3bb 8d35 0b3a
00000020: 4033 7e3c b9ad 0cbc 4f1f 21bd a1de 0d3c
00000030: d822 8a3c a815 fe3c 6931 c83c fc05 a83c
00000040: 53e5 ffba 5816 7b3b ad77 543c df1c 9c3c
00000050: a0e8 8fbb c3fc 8fbc bb39 aebc 3dcd ecbc
00000060: 73e2 8abc 12c5 fb3b a354 123d 1467 043c
00000070: 7d8e 17bb 109f 69bc 3791 2f3c bf4c 853c
00000080: 8d7d 15bd bc59 84bb 99d1 05bd a9aa 97bc
00000090: a2da 4cbc ba54 10bd fc18 113c 3436 043c
000000a0: afc3 9c3c db3b 05bd 0356 3f3c 33fb 2a3c
000000b0: ad37 d53c 3fdd bbbc 588e b03c 67cc a83c
000000c0: 55e4 a93b 3297 8b3c 8f6c ebbc ffa9 4fbc
000000d0: 63a6 26bc 6763 b1bc 9497 8bbb bf92 61bc
000000e0: ea44 bebc c386 c8ba 4753 7dba b6c9 84bc
000000f0: aa80 c33c 8855 6a3c 3b0b b53c 8da9 153c
00000100: af57 21bc 227b 43bc 1280 68bc 6f53 71bc
00000110: d7a0 8f3c 7fc3 b63c 1729 c13c 460b 933c
00000120: 2566 a7ba 5b9f 403c b038 34bb 5018 e93c
00000130: 6be4 c8bc 2db9 673b 1e07 803c c550 243c
00000140: e62a 273c ed96 ea3c e15e 8b3c 342e cb3c
00000150: 92e6 943c b509 94bc 3ca5 09bc 6283 663c
00000160: 2c27 063c 40b0 6d3c fc2a 473d f277 843c
00000170: 2cf5 2abc c01c 983c 3fd9 b73b 1fc9 be3b
00000180: 2356 58bc 36c1 84bc f492 abbc b1e7 46bb
00000190: a50e 1dbc 2a4d 3abd bbea 213c 0ebb b43c
000001a0: 2f1b ff3a 3fb8 a9ba db36 c33c cbf7 913c
000001b0: 3b3a d33c ea53 db3c 2ce9 043d e8ae b63c
000001c0: c351 11bb 05cd 673c f5af 6abc 8cc5 c5bb
000001d0: dde6 483c 18d0 cd3c 4387 e4ba ad52 d5bb
000001e0: d2df e0bc 7b1d 083c 20bf 48bc 706a 72bc
000001f0: 0fbc 1dbc 0b92 8aba 9612 293c ab3f 833c
00000200: 217d c7bb e357 dd3c 63e5 e03c 6b24 a4bb
00000210: 2a5f ac3c d775 c5bc 4202 e1bb abdc 5ebc
00000220: c146 45bc 9973 333a af09 79bc e8be 28bd
00000230: c79d 6d3c e165 3cbc 1e26 4aba 373c f4bc
00000240: 4b1e 93ba b994 a5bb 08fa 7f3c d3ca ad3b
00000250: 75a3 77bc d226 95bb 70b7 8cbb 4ced 993c
00000260: 5ccf 853c 68ee 75bc 3974 a03b b1a8 823c
00000270: c19a ac3c 97ec 933c 83ee 9cbc e3fe c6bb
00000280: 4163 433c 973a 0f3c b4ff c53c 75bc 0cbc
00000290: 9ddd da3b fabf d33c 6715 a0bb 25f7 443c
000002a0: 755d e3bc 13e8 273b c982 adbb 42b5 5dbc
000002b0: b7b2 d13b 43eb 8eba 2b76 09bc 7890 80bc
000002c0: 8a0b 8e3c ed0a 69bd 1ddf f9bb 6b48 6bbd
000002d0: e56c a43c 03a7 c1bc 1ff7 c43c fb72 6f3c
000002e0: 171a e23b 17db 833b f9ec bdbb 83f0 babb
000002f0: b085 8a3b 5f7f 313b bf31 f53c 4a0a 4f3d
00000300: 8ee5 293c ad97 d3bb a819 c4bc b728 c6bc
00000310: 3b6c 443c 9970 84bc 7d00 3ebc d7da 023d
00000320: 7a5f 70bc 62b7 55bb 13f8 43bb 6c6f 87bc
00000330: 1d3f f03b 3830 7b3c d77e 423c 4532 81bc
00000340: 904f f23c 5713 85bb 32d4 30bc 6028 9f3b
00000350: 7d7c 9ebc 5bcc 9dbc def1 45bc 988c cb3c
00000360: 2c83 cb3c 232b f0bc c990 3a3c 8470 28bc
00000370: 5af0 f4bc 7d19 f8bb 9e7b 903c 20df f73b
00000380: 6542 a53c ebdf 123b 9fc7 203b 9d83 1d3c
00000390: 37f7 8c3b 2eea 3dbb 904d 843c b2c0 d6bc
000003a0: eb1a b83c a2e3 56bc bf19 83bc 40e3 ee3b
000003b0: f73a c63c 52d3 e5bb 1e24 253d e7a1 c63b
000003c0: a646 103d c135 9bbb 439b ee3b a20d dfbc
000003d0: a843 c6bb cadf 0fbb b020 793b 2b92 a83a
000003e0: 6ee0 24bc a1ca 47bc b2c8 caba 77fc b73c
000003f0: adfe 80bc 8538 e9bb f8aa e33c 48cb e1bb

action_model._continuous_distribution.mu.bias f4 [2]
0.0 0.0
00000000: 0000 0000 0000 0000
