results/ppo/Fetch/Fetch-7104.pt (torch, 145195 bytes, 11 tensors)

network_body._body_endoder.seq_layers.0.weight f4 [128, 1]
00000000: ae75 c1be 359f f3bf a15d 8d3f 3e43 d3be
00000010: 3187 88bd bfb5 883e 5540 d8be ae93 553f
00000020: 02ff 98be c87f c03f 1f92 24bf b408 cbbe
00000030: d938 133f 4fcc b13f 576f f6bf fc1a b2bf
00000040: 583f 1c3f b20e bc3e 6623 13c0 d7fd b0bf
00000050: 32bd cb3f 791a 1dbf dbf9 5abf 7aa6 54bd
00000060: ef6b d4bd 31ee 563e 7f74 b93f c8ba a63e
00000070: 3a58 4ebe 2f3d 68bf 5577 413c 8091 303f
00000080: 0525 073d 4ab8 223c 4c7f 1ebf 5364 363f
00000090: 4952 5dbe 557a 2fc0 2013 2d3f 233e 6f3f
000000a0: dee8 463f 9bf7 7cbe da45 32bf dad4 06be
000000b0: 4569 51bf aba9 3c3f 6a26 053f d6f6 b2bf
000000c0: 4523 323f f03d 9b3f 7bad 0abf e003 fa3e
000000d0: d816 37bf a859 dbbe 43e6 393f 3e79 0f3e
000000e0: 2d82 a63f 3a7d 1ebf 8e79 8a3f 54ed d63b
000000f0: 977b c33f ed2c aebf 843d debd 6664 96bf
00000100: 68f6 d7be ea04 863f 7c0f ffbf 9529 c8bf
00000110: a825 9c3f 4c44 433f 571e d4bf 8c2c c53e
00000120: 0e9c ce3e b501 8ebf c629 afbd d840 133d
00000130: 00c3 2240 f4da f5be 462a abbf d3ab 223f
00000140: 57fc 94be 3a9a 5b3e c94d 95bf cf28 04c0
00000150: 1b27 2b3f 5843 f93f 0bcb 5ebf 6729 84bf
00000160: 1690 853f c8a5 25bd fef4 16bf b3f7 783f
00000170: 7248 243f d1db 4abf 893b f53f d982 c23e
00000180: 06ed 48bf ffe9 b4bf 2088 d53f eab5 dc3e
00000190: aa64 8abe e7cf 513f 4ecd 75bf e713 99bc
000001a0: 3998 7f3e 6a16 1d3f a90b 073e 4325 5abf
000001b0: 1c2b 34bf 507e 4340 270d 673f 1145 913f
000001c0: 80d6 4d3e 6934 0dc0 e11d b0bd c072 05c0
000001d0: 3e34 a9bf 118e bf3e 1d35 043f c0d2 a9bf
000001e0: ab38 6fbe f7ae 74bf 871d 6b3f 838f 313f
000001f0: 10d7 0740 7aec d03e e747 0c3f cb8c 4c3f
-0.37785095 -1.9032961 1.1044198 -0.4126224 -0.06666411 0.2670116 -0.4223658 0.83428466
-0.29882056 1.5038996 -0.64285463 -0.39655077 0.5750862 1.3890475 -1.9252728 -1.3914485
0.61034155 0.36729962 -2.2990355 -1.3827466 1.5917113 -0.6136852 -0.855375 -0.051916577
-0.10372149 0.209893 1.4488677 0.32564378 -0.20150843 -0.9071836 0.011808236 0.68972015
0.03299429 0.009931633 -0.6191299 0.7124683 -0.2161342 -2.7418416 0.6760731 0.9345419
0.7769908 -0.24703829 -0.69637835 -0.13167134 -0.81801254 0.7369639 0.5201174 -1.3981578
0.6958507 1.2128277 -0.5417096 0.4883108 -0.7151923 -0.4284184 0.72616976 0.14011094
1.3008476 -0.6190983 1.0818346 0.0065590534 1.5272092 -1.360746 -0.10851577 -1.1749389
-0.4218018 1.047025 -1.99266 -1.563769 1.2198992 0.7627609 -1.6571759 0.3851055
0.40353435 -1.1094271 -0.085528895 0.03595051 2.5431519 -0.4801861 -1.3372276 0.6354343
-0.2909877 0.21445552 -1.1664363 -2.0649908 0.66856545 1.9473677 -0.8702857 -1.0325135
1.0434597 -0.040441304 -0.5896758 0.9725296 0.6417304 -0.79241663 1.9158794 0.37990454
-0.7848667 -1.413391 1.6682167 0.4310754 -0.27029926 0.8195786 -0.96016395 -0.018686248
0.24960412 0.61362326 0.13188042 -0.85213107 -0.7037828 3.0545845 0.90254444 1.1349202
0.20101357 -2.2063239 -0.08599449 -2.0851288 -1.3219068 0.37413076 0.51643544 -1.3267441
-0.23361461 -0.95579475 0.9184193 0.69359607 2.1225014 0.40805417 0.54797214 0.79902333

network_body._body_endoder.seq_layers.0.bias f4 [128]
00000000: 0000 0000 0000 0000 0000 0000 0000 0000
00000010: 0000 0000 0000 0000 0000 0000 0000 0000
00000020: 0000 0000 0000 0000 0000 0000 0000 0000
00000030: 0000 0000 0000 0000 0000 0000 0000 0000
00000040: 0000 0000 0000 0000 0000 0000 0000 0000
00000050: 0000 0000 0000 0000 0000 0000 0000 0000
00000060: 0000 0000 0000 0000 0000 0000 0000 0000
00000070: 0000 0000 0000 0000 0000 0000 0000 0000
00000080: 0000 0000 0000 0000 0000 0000 0000 0000
00000090: 0000 0000 0000 0000 0000 0000 0000 0000
000000a0: 0000 0000 0000 0000 0000 0000 0000 0000
000000b0: 0000 0000 0000 0000 0000 0000 0000 0000
000000c0: 0000 0000 0000 0000 0000 0000 0000 0000
000000d0: 0000 0000 0000 0000 0000 0000 0000 0000
000000e0: 0000 0000 0000 0000 0000 0000 0000 0000
000000f0: 0000 0000 0000 0000 0000 0000 0000 0000
00000100: 0000 0000 0000 0000 0000 0000 0000 0000
00000110: 0000 0000 0000 0000 0000 0000 0000 0000
00000120: 0000 0000 0000 0000 0000 0000 0000 0000
00000130: 0000 0000 0000 0000 0000 0000 0000 0000
00000140: 0000 0000 0000 0000 0000 0000 0000 0000
00000150: 0000 0000 0000 0000 0000 0000 0000 0000
00000160: 0000 0000 0000 0000 0000 0000 0000 0000
00000170: 0000 0000 0000 0000 0000 0000 0000 0000
00000180: 0000 0000 0000 0000 0000 0000 0000 0000
00000190: 0000 0000 0000 0000 0000 0000 0000 0000
000001a0: 0000 0000 0000 0000 0000 0000 0000 0000
000001b0: 0000 0000 0000 0000 0000 0000 0000 0000
000001c0: 0000 0000 0000 0000 0000 0000 0000 0000
000001d0: 0000 0000 0000 0000 0000 0000 0000 0000
000001e0: 0000 0000 0000 0000 0000 0000 0000 0000
000001f0: 0000 0000 0000 0000 0000 0000 0000 0000
0.0 0.0 0.0 0.0 0.0 0.0 0.0 0.0
0.0 0.0 0.0 0.0 0.0 0.0 0.0 0.0
0.0 0.0 0.0 0.0 0.0 0.0 0.0 0.0
0.0 0.0 0.0 0.0 0.0 0.0 0.0 0.0
0.0 0.0 0.0 0.0 0.0 0.0 0.0 0.0
0.0 0.0 0.0 0.0 0.0 0.0 0.0 0.0
0.0 0.0 0.0 0.0 0.0 0.0 0.0 0.0
0.0 0.0 0.0 0.0 0.0 0.0 0.0 0.0
0.0 0.0 0.0 0.0 0.0 0.0 0.0 0.0
0.0 0.0 0.0 0.0 0.0 0.0 0.0 0.0
0.0 0.0 0.0 0.0 0.0 0.0 0.0 0.0
0.0 0.0 0.0 0.0 0.0 0.0 0.0 0.0
0.0 0.0 0.0 0.0 0.0 0.0 0.0 0.0
0.0 0.0 0.0 0.0 0.0 0.0 0.0 0.0
0.0 0.0 0.0 0.0 0.0 0.0 0.0 0.0
0.0 0.0 0.0 0.0 0.0 0.0 0.0 0.0

network_body._body_endoder.seq_layers.2.weight f4 [128, 128]
00000000: de1a fabd 0bdb f6bd 630c 85bd 0782 52bd
00000010: e701 913d f244 073d a1bd 3f3d 6bca 08be
00000020: f245 c43c 5b39 94bc 6e26 f93d 6f50 92bd
00000030: 243b bd3c 7360 f43c 57f0 303e 68ee 2bbe
00000040: c516 9abd 369b ac3d 0bf1 223e c487 e5bd
00000050: 01fc c1bc a1b1 b83d 2559 c63d d6ee 09be
00000060: f5fe 8c3d 6c7c 393e 6ba5 ae3d 8f0f 423d
00000070: 4b83 433c 5052 f6bd 67fe 823d 5800 4abd
00000080: 8965 84be e442 4fbc 6ef8 b5bd 37c2 103d
00000090: 73d2 6cbc cd72 33bd bfae 65bd 4e53 d8bc
000000a0: 2fea 753d 224a 45bd dd1f a0bd 4ac5 5c3d
000000b0: 4a00 bb3d 8ab7 97bd 3e12 2b3d a281 b5bd
000000c0: e223 0e3d f867 77bd 2610 96bd 3373 d73c
000000d0: 8a44 afbd acc8 473e 39aa fa3d 40e8 f43d
000000e0: c7be 12bd 33e3 6bbd e0bb 29be c2b6 903b
000000f0: 2168 d0ba 45fc 6b3b 1590 bdbd f735 c7bd
00000100: 6977 7e3d 4eec dc3c 008d b0bc ffd5 a73d
00000110: 666f 433d 615e 833d 9ee1 a1bc 4046 a3bd
00000120: 0526 38bd 2c69 24be 983c 15bd 1569 123e
00000130: 74e0 4f3d cef1 323d 026b 443d 131c 473e
00000140: c1c1 6abd 947c 1ebe 85ed ef3c 9a15 afbc
00000150: 3ba2 8f3c e4fb 26bb c641 7ebd 0123 893c
00000160: 532b ec3d 781f 133e af00 2cbe b3e3 123e
00000170: 9ca9 c03d 2df5 893e 75dd 27bd ffc7 8b3d
00000180: 2f49 33bd 528a d6bc 74a6 74bd e497 863c
00000190: 8a3a 013e 21c9 96bc 1491 c73c d4b9 473d
000001a0: 5d1e 0fbe e1d1 af3d 71d7 c73c 3f3d 2e3d
000001b0: e3b5 9f3d ca3e f5bd 59e4 02be f3f7 183d
000001c0: 7774 bcbd 386e c5bc 0037 31bd e81f 163d
000001d0: 8f34 e13d 06b5 07bd a04a 963b 6f16 d83d
000001e0: c467 98bd 56cf 2bbe 7f15 723d e916 bd3d
000001f0: 2acf 34bc a1f6 a8bc f695 063e 6a82 bcbd
00000200: 2fe2 e6bd 3e80 e23d f20d 02be 97a5 c5bd
00000210: 3db8 833d 1269 883d 40c3 e73d 45d3 363d
00000220: 0ba9 82bd 5943 80bd 516b 28be ee83 1bbc
00000230: 3ec6 72be 1a33 3fbd c20a 1c3e 3707 063e
00000240: 0fd5 a83d 7036 21bd 6917 8dbd 8be5 31bd
00000250: 6fe4 1dbe 2eec bebd 5c45 573d 6cce 9c3d
00000260: 9f4e 4c3d e519 433d 4919 5e3d 4c83 53bd
00000270: 4d1c 5fbd 290c 223b 823f 24be 40ae 05bd
00000280: ffc6 c13d aefd 33bd 2d02 45bd f227 f8bc
00000290: f3e6 7c3d 408a a23d 47e6 88bd 76ae 08bd
000002a0: 1898 99bd 686b a03d bc45 653d 98c6 20bd
000002b0: 2266 b0bd 1c9d 0c3d a77f 043c 73b3 ea3c
000002c0: cd3a c93c 60d0 a33d d7e1 953d ff12 023d
000002d0: f804 be3d 41f2 57ba 35c9 7dbd 7094 293a
000002e0: 14af 583d 21b9 d0bc 0dbf 06bd 7aa8 263d
000002f0: a5ef 30bd 5725 97bc b873 af3c f88d cf3d
00000300: ceed 7cbd edf7 523d c593 f7bd 7486 7b3d
00000310: 0418 643c 1ffd 38be dcb1 cdbb 9fb1 dd3d
00000320: 6e00 03bd d0ad 30bd 0d73 253d 588c b0bd
00000330: a813 3fbe d976 b5bd 0446 08bc dd00 80bd
00000340: 4c42 0b3e 8acf f2bd 9be6 6f3d c364 1a3e
00000350: 6186 1dbd ad9f 7d3d 9647 e2bd 9675 4bbe
00000360: 3209 c73a 2a28 fcbc 1013 11bd 3840 073e
00000370: 8023 04be 8c41 d0bd cfb4 f83d f1c8 b2bd
00000380: d2bf 71bb 6553 22be 2804 fabd 1776 ec3d
00000390: f91b 7d3d 9162 b9bd d42e 1b3e 0f22 8ebd
000003a0: b25f 33bd 42b4 0ebe 7e9e 163c d9e4 c6bd
000003b0: 2e72 83bc f7af dc3d b920 eb3d 726a 9bbc
000003c0: 54c3 533d 278f edbb dabe 10be 7dc0 09be
000003d0: 2826 cd3d 2fbe 053d 0d6a ac3b 2937 b2bc
000003e0: 3faa 063d 1206 afbc 5cf8 183d 18b7 183c
000003f0: b2c4 83bc 4475 853d 4b9f 82bd 7b37 ccbd
-0.12212156 -0.12053498 -0.06496503 -0.051393535 0.07080441 0.033024736 0.046811704 -0.13358466
0.023959134 -0.018093755 0.12165533 -0.07144248 0.02309949 0.029831147 0.17279182 -0.16790164
-0.07523874 0.08428042 0.15912263 -0.11207536 -0.023679735 0.09018255 0.09684972 -0.13470015
0.06884567 0.1811387 0.08527645 0.04737812 0.011933158 -0.120274186 0.0639618 -0.049316734
-0.25858715 -0.012650225 -0.08885275 0.035341468 -0.014454472 -0.043810654 -0.056074854 -0.02640691
0.060037788 -0.0481664 -0.078185774 0.053899087 0.091309145 -0.07408054 0.041765444 -0.08862616
0.03470219 -0.060401887 -0.07327299 0.026300048 -0.08557995 0.19510144 0.12239499 0.11958361
-0.03582647 -0.05758972 -0.16575575 0.0044163177 -0.0015900173 0.0036008519 -0.09255997 -0.0972709
0.062125597 0.026968148 -0.021551609 0.081951134 0.04771366 0.06414486 -0.019760903 -0.079723835
-0.044958133 -0.16055745 -0.03643474 0.14297898 0.050751165 0.043687634 0.047953613 0.19444303
-0.057313684 -0.1547721 0.029288063 -0.021372605 0.017533412 -0.0025479728 -0.062074445 0.016740324
0.11531701 0.14367473 -0.16797136 0.14344673 0.094073504 0.26944867 -0.040982682 0.068252556
-0.043770965 -0.026189003 -0.059729055 0.016429849 0.12619987 -0.018406453 0.02436117 0.048761204
-0.13976426 0.08584953 0.024394723 0.042538878 0.07798364 -0.11974867 -0.1278242 0.037345838
-0.092019014 -0.024100408 -0.043265343 0.036651522 0.10996353 -0.03313162 0.0045865327 0.10551154
-0.07441667 -0.16778311 0.05910253 0.092328854 -0.01103572 -0.020625414 0.13143143 -0.09204562
-0.1127361 0.110596165 -0.12700632 -0.096507244 0.06431625 0.066606656 0.11316538 0.044635076
-0.06379899 -0.062628455 -0.16447188 -0.009491904 -0.23708436 -0.046679594 0.15238479 0.1308869
0.08243763 -0.039358556 -0.06889231 -0.0434318 -0.15419172 -0.093223915 0.05255638 0.07656559
0.049879666 0.047632117 0.054223333 -0.051638886 -0.05447035 0.0024726486 -0.16039851 -0.03263688
0.094617836 -0.0439431 -0.048097778 -0.030292485 0.061743688 0.07936525 -0.06684547 -0.033369504
-0.07499713 0.07832986 0.055974707 -0.039251894 -0.0861323 0.03432952 0.008087075 0.028650021
0.024564171 0.07998729 0.07318466 0.031756397 0.092782915 -0.0008237698 -0.061959464 0.0006468957
0.052901343 -0.025478901 -0.032897044 0.040688016 -0.043197293 -0.018450422 0.021417484 0.101345
-0.061750226 0.05150597 -0.12088732 0.06140752 0.013921741 -0.18065308 -0.006277306 0.10824894
-0.03198283 -0.04313451 0.040392924 -0.086205184 -0.18659842 -0.08860559 -0.008317474 -0.06250165
0.13599509 -0.11855991 0.058569532 0.150775 -0.03845823 0.061919857 -0.1104881 -0.19869074
0.0015185236 -0.03078087 -0.03541857 0.13208091 -0.12904167 -0.10168752 0.121438615 -0.08729733
-0.0036888015 -0.15852125 -0.12207824 0.11545961 0.061794255 -0.09052003 0.15154582 -0.0694009
-0.043792434 -0.1393595 0.009193061 -0.09711618 -0.016045656 0.1077575 0.11480851 -0.018971656
0.05169995 -0.007249731 -0.14135304 -0.13452335 0.10017043 0.032652076 0.0052616657 -0.021754818
0.032877203 -0.0213652 0.03734623 0.009320997 -0.016085003 0.06516507 -0.06378039 -0.099715196

network_body._body_endoder.seq_layers.2.bias f4 [128]
00000000: 0000 0000 0000 0000 0000 0000 0000 0000
00000010: 0000 0000 0000 0000 0000 0000 0000 0000
00000020: 0000 0000 0000 0000 0000 0000 0000 0000
00000030: 0000 0000 0000 0000 0000 0000 0000 0000
00000040: 0000 0000 0000 0000 0000 0000 0000 0000
00000050: 0000 0000 0000 0000 0000 0000 0000 0000
00000060: 0000 0000 0000 0000 0000 0000 0000 0000
00000070: 0000 0000 0000 0000 0000 0000 0000 0000
00000080: 0000 0000 0000 0000 0000 0000 0000 0000
00000090: 0000 0000 0000 0000 0000 0000 0000 0000
000000a0: 0000 0000 0000 0000 0000 0000 0000 0000
000000b0: 0000 0000 0000 0000 0000 0000 0000 0000
000000c0: 0000 0000 0000 0000 0000 0000 0000 0000
000000d0: 0000 0000 0000 0000 0000 0000 0000 0000
000000e0: 0000 0000 0000 0000 0000 0000 0000 0000
000000f0: 0000 0000 0000 0000 0000 0000 0000 0000
00000100: 0000 0000 0000 0000 0000 0000 0000 0000
00000110: 0000 0000 0000 0000 0000 0000 0000 0000
00000120: 0000 0000 0000 0000 0000 0000 0000 0000
00000130: 0000 0000 0000 0000 0000 0000 0000 0000
00000140: 0000 0000 0000 0000 0000 0000 0000 0000
00000150: 0000 0000 0000 0000 0000 0000 0000 0000
00000160: 0000 0000 0000 0000 0000 0000 0000 0000
00000170: 0000 0000 0000 0000 0000 0000 0000 0000
00000180: 0000 0000 0000 0000 0000 0000 0000 0000
00000190: 0000 0000 0000 0000 0000 0000 0000 0000
000001a0: 0000 0000 0000 0000 0000 0000 0000 0000
000001b0: 0000 0000 0000 0000 0000 0000 0000 0000
000001c0: 0000 0000 0000 0000 0000 0000 0000 0000
000001d0: 0000 0000 0000 0000 0000 0000 0000 0000
000001e0: 0000 0000 0000 0000 0000 0000 0000 0000
000001f0: 0000 0000 0000 0000 0000 0000 0000 0000
0.0 0.0 0.0 0.0 0.0 0.0 0.0 0.0
0.0 0.0 0.0 0.0 0.0 0.0 0.0 0.0
0.0 0.0 0.0 0.0 0.0 0.0 0.0 0.0
0.0 0.0 0.0 0.0 0.0 0.0 0.0 0.0
0.0 0.0 0.0 0.0 0.0 0.0 0.0 0.0
0.0 0.0 0.0 0.0 0.0 0.0 0.0 0.0
0.0 0.0 0.0 0.0 0.0 0.0 0.0 0.0
0.0 0.0 0.0 0.0 0.0 0.0 0.0 0.0
0.0 0.0 0.0 0.0 0.0 0.0 0.0 0.0
0.0 0.0 0.0 0.0 0.0 0.0 0.0 0.0
0.0 0.0 0.0 0.0 0.0 0.0 0.0 0.0
0.0 0.0 0.0 0.0 0.0 0.0 0.0 0.0
0.0 0.0 0.0 0.0 0.0 0.0 0.0 0.0
0.0 0.0 0.0 0.0 0.0 0.0 0.0 0.0
0.0 0.0 0.0 0.0 0.0 0.0 0.0 0.0
0.0 0.0 0.0 0.0 0.0 0.0 0.0 0.0

action_model._discrete_distribution.branches.0.weight f4 [5, 128]
00000000: 1f27 4ebc a2c7 48bb a6c0 46bb 93ba 86bc
00000010: 1343 ff3a 3109 043c 667b 12bb d6b8 82bb
00000020: 4b7b ab3a eba7 b6bb 32fd 5e3c da2e 3a3b
00000030: 3a31 d2bb 2342 ba3b 4f4c d53b 2f37 fcbb
00000040: 6734 003c 00e5 40bb 4338 66bb 09c5 913b
00000050: e573 373a 0d55 fcbb d984 2fbb 6a1d fc39
00000060: b7d4 7f3c 5725 5ab9 8899 503c 0fd6 003b
00000070: a5e3 73ba 6316 67bc 058f 5cbc 897a 28bc
00000080: b34c acbb 1d14 d93b eb56 d23b 43a0 40bc
00000090: 140d 1dbb f510 50bb 7dfc bcbb 5fe0 16ba
000000a0: 6f8a 83bb 782d fabb 236b f0bb 9a64 273c
000000b0: 9ae4 9dbc 2501 9fbb 47cd 543b 670d dcbb
000000c0: bcfc 9fbc fd0d 24ba 3b1e a7bb cdf1 15bc
000000d0: 75a8 67bb 5322 9ab9 a5ae fbbb 01de a03b
000000e0: f26b cabb 307e 603c a786 ddbb 3956 2c3b
000000f0: c912 213b b70c dabc ee5b 3abb 731c 9abb
00000100: 354e 793a 07ae 8fbb b069 e53b 7254 a7ba
00000110: 1205 9f3b d342 30bb 9a9d c7bb df58 eeba
00000120: 613b 8dbb dd9a e23b 2786 b63b 2744 a43b
00000130: 8819 643b f7f8 aa3b dad6 053c 1b44 053c
00000140: a17a a73b 0392 52bc b890 14ba fdcb aab9
00000150: 150f b13b 6d5f f6bb ad5b 1c3a 37c7 1b39
00000160: e270 85bc 6939 343c ab1a 7b3b 36ef 8cbb
00000170: 7535 853b 1163 82bc e0ac fd3b f062 a63a
00000180: 8a45 ea3b ebf9 64bb 41bb 1b3b e42e 033b
00000190: 53b1 12bc a8b1 783a 322e 673b 30c0 88bb
000001a0: 6e44 ad3a ae25 3bbb 7756 a0ba 5d64 f5bb
000001b0: d276 87bc 6f98 64bb 8f26 d73b 0fa8 0dbc
000001c0: 27ce 27bc efb7 3d3b b152 a0bc cbe6 13bb
000001d0: ca76 e1ba 36f9 2a3c e888 f03b ebd7 cebb
000001e0: 17d3 d9bb 854d 5bbc 8740 32bb 5863 8aba
000001f0: d447 3ebb b134 373b 9a47 3f3b 57e2 11bc
00000200: 6f2b b43a 67de 073c 9ef9 06bb 632a 8f3b
00000210: fb14 143c b5c1 b0bb e208 ff3b 6fcc 2b3c
00000220: fdbb fdbb f411 bf3b 8b9a f4bb ca1a 7c3c
00000230: 37e1 033c 9d78 ff3b 52df ae3c 34c4 17bc
00000240: 3722 2dbc 23ee a83c e291 e73b ccb9 08bc
00000250: 8e38 83ba c20d 2abb 3a9a 383c f4d9 8a3b
00000260: 1537 d8bb c727 e6bb 5465 1fbc 3523 5a3c
00000270: d719 263c b2f5 ecbc 13ed 49bc 070f 91bb
00000280: d00c 763b 7b7b bbba 58b6 a0bb e70e db3b
00000290: 4271 01bc af0b 563b ff28 bb3b 9f8d 533b
000002a0: 96ed 49bc 983e 23bc 24ab 0fbb 4735 e7ba
000002b0: 474d 7dbc aa85 16bc ba5a b13b 0741 22bb
000002c0: e068 bb3b 5e01 af3b 4416 c53a 2025 173b
000002d0: 23aa 7a3b 575e 5b3c 9e05 803c 3762 5fbb
000002e0: 9fc4 e33b 532e 39bb c735 5b3b 1755 3f3c
000002f0: 3ed9 bb3b 9b06 17bb 1ba3 9b3b 4e8d 1c3b
00000300: b4eb 8ebb 01dc 05bb 7d8e 763b 78ee 82bb
00000310: f8fd 073c afe0 4cbc 48fa 7abc dff0 2fbc
00000320: 3735 213c 59df 8abb 844d 24bc 2da8 8b3b
00000330: 2fb7 d7bb bc3d 0f3a 8b66 b43b ede4 9c3a
00000340: 45aa 86bb 0c57 0ebc 574f 50b9 bd35 7fba
00000350: c8ee 3f3c 256d 5ebc e33e f7b9 a5f0 c3bb
00000360: 986f ce3a f5a6 093c a383 043c 4c50 323b
00000370: 3f28 983c c721 fabb 5320 58bb 9509 5b3c
00000380: a0b0 703c e328 853c 5ea3 13bc ebbf c33c
00000390: d063 e73b 6382 9dbb 728d 103b 2f67 86bb
000003a0: 4a81 543c a703 b83a f790 71bc de49 1f3c
000003b0: 45b0 823b fdac ebbb 4cc8 13bc d7b8 35bc
000003c0: de84 253a 9869 00bc 4549 62bb 7165 0cbc
000003d0: f371 2dbb aba5 bcbb f322 833b f3be 3f3c
000003e0: 7748 d73b cfa2 a9bb 61a2 8a3c 7f70 de3b
000003f0: e2df 503b f984 b03b e832 35ba 8790 04bc
-0.012582569 -0.0030636569 -0.003032723 -0.016446387 0.0019474946 0.008058832 -0.0022351383 -0.0039893193
0.0013083009 -0.0055742166 0.013610171 0.0028409273 -0.0064145597 0.0056841536 0.006509341 -0.007697008
0.007824994 -0.002943337 -0.003512875 0.0044485372 0.00069981656 -0.0077005685 -0.0026782064 0.000480871
0.01561468 -0.0002080401 0.012731917 0.001965884 -0.0009303636 -0.0141044585 -0.013461833 -0.010283121
-0.0052581667 0.006624712 0.006419053 -0.011756959 -0.0023964094 -0.0031748388 -0.0057674036 -0.000575548
-0.0040143053 -0.007634815 -0.0073369904 0.010216856 -0.019274045 -0.0048524314 0.0032470988 -0.006715465
-0.019529693 -0.0006258188 -0.0051000393 -0.009151888 -0.003534821 -0.00029398742 -0.0076807314 0.0049092774
-0.006177419 0.01370196 -0.0067604366 0.002629651 0.0024577847 -0.026617391 -0.0028436142 -0.0047030984
0.000951025 -0.0043847593 0.0070011243 -0.0012766256 0.0048528994 -0.00268953 -0.0060917856 -0.0018184445
-0.004310057 0.006915434 0.0055701914 0.005013007 0.0034805257 0.005217667 0.0081689 0.008133913
0.005111054 -0.012852195 -0.0005667317 -0.0003257691 0.0054034092 -0.0075187 0.00059645885 0.00014856165
-0.016289178 0.011000016 0.0038315456 -0.004300977 0.0040652105 -0.01591638 0.0077415556 0.0012694281
0.007149403 -0.0034939002 0.0023762735 0.0020016963 -0.00895341 0.0009486922 0.0035275337 -0.004173301
0.0013219246 -0.0028556394 -0.00122328 -0.007488771 -0.01653615 -0.0034880897 0.006565876 -0.008646025
-0.010242022 0.0028948744 -0.01957068 -0.0022567983 -0.001720154 0.010435393 0.0073405392 -0.0063123605
-0.0066474783 -0.013385181 -0.0027199106 -0.0010558171 -0.0029034512 0.002795499 0.0029186965 -0.008904061
0.0013745854 0.008292771 -0.002059556 0.0043690666 0.009038205 -0.0053941854 0.0077830413 0.0104857525
-0.007743357 0.0058309976 -0.007464712 0.015387246 0.008049301 0.0077963606 0.021346722 -0.009263087
-0.0105672395 0.020621365 0.007066951 -0.008345079 -0.0010011361 -0.0025948142 0.011267239 0.004237408
-0.006598363 -0.007023785 -0.009728748 0.013314058 0.010137997 -0.02892575 -0.012324589 -0.00442684
0.0037544258 -0.0014303768 -0.0049045496 0.006685126 -0.007900538 0.0032660773 0.005711674 0.0032280458
-0.012324711 -0.009963654 -0.0021922076 -0.0017639779 -0.015460319 -0.009187141 0.005412427 -0.0024757998
0.005719289 0.005340739 0.0015036543 0.00230629 0.0038248382 0.013389192 0.015627678 -0.003408564
0.0069509293 -0.002825637 0.0033448802 0.011678002 0.0057326844 -0.0023044709 0.0047496683 0.0023887935
-0.004361594 -0.0020425322 0.003762155 -0.003995713 0.008300297 -0.012504741 -0.015318461 -0.0107385805
0.009839348 -0.004238051 -0.010028247 0.0042619915 -0.0065831165 0.0005464216 0.005505388 0.0011970081
-0.004109653 -0.008687746 -0.00019865982 -0.00097354857 0.011714645 -0.013575827 -0.00047158365 -0.005979615
0.001574981 0.008401622 0.008088025 0.0027208505 0.018573878 -0.007633421 -0.003297825 0.013368984
0.014690548 0.016254848 -0.009011118 0.023895225 0.007061459 -0.004806803 0.0022056964 -0.004101656
0.012970278 0.0014039174 -0.014744035 0.009722201 0.003988298 -0.0071922527 -0.009019922 -0.0110914325
0.0006314049 -0.0078376755 -0.0034528535 -0.008569107 -0.0026465624 -0.005757054 0.004001969 0.011703241
0.006569918 -0.005176879 0.016923131 0.006788313 0.0031871726 0.0053869453 -0.00069121877 -0.008091099

action_model._discrete_distribution.branches.0.bias f4 [5]
00000000: 0000 0000 0000 0000 0000 0000 0000 0000
00000010: 0000 0000
0.0 0.0 0.0 0.0 0.0

network_body._body_endoder.seq_layers.0.weight f4 [128, 1]
00000000: 2bdd 063f 1d7b a63e 5b32 e8be 2287 0b3f
00000010: 4a48 98be fe2d 6a3f 467a 1a3f 5945 37bf
00000020: f13e b5bd f166 4e3f 836d a73f 97f2 6d3f
00000030: 4fde b43e 8338 9d3f ad25 723f 3e57 a0bf
00000040: 638a 67be 096e e6bf db45 a73d ac15 2fbf
00000050: 9069 20bf 6707 d93e d6f8 84bf e73d 01bf
00000060: 5257 91bf 12e0 e23e 5513 2a3f 6f81 9ebf
00000070: dbfe 6cbf 7812 92bf eca4 4fbe 4762 0b3f
00000080: 9de3 9fbf cbf1 2cbe 7eaf 9ebf b51d d33e
00000090: 987c 0fbf 315c a83e 3e6b a23f a130 3dbf
000000a0: 661c 16c0 7786 f03e a51c 7d3f 9bd9 02c0
000000b0: 925d 913e 8822 ec3e ed23 aabe 2879 63bf
000000c0: a0a9 753f c9aa e53d 4e5c ccbf 0932 ea3f
000000d0: f5bd edbe ca76 aebe 2d2c 303f 9630 46bf
000000e0: 6e7f fb3d 0562 9f3e 04b2 ae3e 4355 943e
000000f0: f53d c03e 08a2 1cbf a075 863f c65d 50be
00000100: 658c 613f 4499 bebf 2920 f0be 1c26 ed3e
00000110: eb16 0ebf 45e4 80bf b9db 2a3b 1df9 a6bf
00000120: 0e26 123f 9639 a13f 0667 c3be 4017 8ebe
00000130: 91fd 80bd dfcf 28be 0cb6 f63f 6852 033f
00000140: a19d 763f 7524 15bf 9939 da3d a4c5 213e
00000150: 4150 503d 929c b0bf 4154 cbbf c215 48bf
00000160: 3a60 1a3f 2f3f e33f 0802 e2bf 5cfe 64be
00000170: bd7c 99bd 8a9b 8cbd c80a 483f fc5f c63e
00000180: 3c9c af3e 73ee 153d 776e 4cbf 8a63 33bf
00000190: fbb6 963f 47b8 6e3f be93 76bf 3436 7cbf
000001a0: f9de 4ebf c38e d03e 7c65 0e3e 64c1 84bf
000001b0: 46f0 13bf 5d26 b6bf 264a 743e 86b6 e3bf
000001c0: c3b8 c13f e0a2 0840 11d8 53bf bc74 25c0
000001d0: 33c7 a6be 9286 193f 0b21 833f b978 b63f
000001e0: 2dcf c23f d097 683e ca78 a83e 29dc ecbc
000001f0: 0149 b4bd 70d8 bfbf 12b7 0ebf 4ccb 883f
0.52681226 0.32515803 -0.45350918 0.5450307 -0.29742652 0.9147643 0.60342824 -0.7159019
-0.08849896 0.80625826 1.3080295 0.9294829 0.35325858 1.2282871 0.9458874 -1.2526624
-0.22611384 -1.800233 0.08167621 -0.68392444 -0.62661076 0.4238846 -1.0388439 -0.5048508
-1.1354773 0.44311577 0.6643575 -1.238325 -0.9257638 -1.1411886 -0.20277756 0.54446834
-1.2491337 -0.16889112 -1.2397306 0.41233602 -0.5604949 0.32882836 1.2688978 -0.73902327
-2.3454833 0.4697759 0.98871833 -2.0445316 0.283917 0.46120095 -0.33230534 -0.88856745
0.9596195 0.11214215 -1.5965669 1.829652 -0.46433988 -0.34075004 0.68817407 -0.77417886
0.12280165 0.3112947 0.3412019 0.289713 0.3754727 -0.6118474 1.0504646 -0.20348272
0.8810485 -1.4890523 -0.46899536 0.46318138 -0.5550372 -1.0069662 0.0026070906 -1.3044773
0.57089317 1.2595699 -0.38164538 -0.27752113 -0.06298364 -0.16485547 1.9274306 0.51297617
0.9633427 -0.58258754 0.10655517 0.1579805 0.050857786 -1.3797781 -1.5885087 -0.781582
0.6030308 1.7753657 -1.765687 -0.22362655 -0.07494495 -0.06865604 0.7814145 0.38745105
0.34298885 0.036604356 -0.79856056 -0.7007376 1.1774591 0.93249935 -0.96319187 -0.9852021
-0.8080898 0.4073392 0.139059 -1.0371518 -0.57788503 -1.4230458 0.2385641 -1.7790077
1.513451 2.134941 -0.82751566 -2.58525 -0.32573852 0.59970963 1.0244459 1.4255592
1.5219475 0.22714162 0.32904655 -0.028913574 -0.08802987 -1.4987926 -0.55748093 1.0687041

network_body._body_endoder.seq_layers.0.bias f4 [128]
00000000: 0000 0000 0000 0000 0000 0000 0000 0000
00000010: 0000 0000 0000 0000 0000 0000 0000 0000
00000020: 0000 0000 0000 0000 0000 0000 0000 0000
00000030: 0000 0000 0000 0000 0000 0000 0000 0000
00000040: 0000 0000 0000 0000 0000 0000 0000 0000
00000050: 0000 0000 0000 0000 0000 0000 0000 0000
00000060: 0000 0000 0000 0000 0000 0000 0000 0000
00000070: 0000 0000 0000 0000 0000 0000 0000 0000
00000080: 0000 0000 0000 0000 0000 0000 0000 0000
00000090: 0000 0000 0000 0000 0000 0000 0000 0000
000000a0: 0000 0000 0000 0000 0000 0000 0000 0000
000000b0: 0000 0000 0000 0000 0000 0000 0000 0000
000000c0: 0000 0000 0000 0000 0000 0000 0000 0000
000000d0: 0000 0000 0000 0000 0000 0000 0000 0000
000000e0: 0000 0000 0000 0000 0000 0000 0000 0000
000000f0: 0000 0000 0000 0000 0000 0000 0000 0000
00000100: 0000 0000 0000 0000 0000 0000 0000 0000
00000110: 0000 0000 0000 0000 0000 0000 0000 0000
00000120: 0000 0000 0000 0000 0000 0000 0000 0000
00000130: 0000 0000 0000 0000 0000 0000 0000 0000
00000140: 0000 0000 0000 0000 0000 0000 0000 0000
00000150: 0000 0000 0000 0000 0000 0000 0000 0000
00000160: 0000 0000 0000 0000 0000 0000 0000 0000
00000170: 0000 0000 0000 0000 0000 0000 0000 0000
00000180: 0000 0000 0000 0000 0000 0000 0000 0000
00000190: 0000 0000 0000 0000 0000 0000 0000 0000
000001a0: 0000 0000 0000 0000 0000 0000 0000 0000
000001b0: 0000 0000 0000 0000 0000 0000 0000 0000
000001c0: 0000 0000 0000 0000 0000 0000 0000 0000
000001d0: 0000 0000 0000 0000 0000 0000 0000 0000
000001e0: 0000 0000 0000 0000 0000 0000 0000 0000
000001f0: 0000 0000 0000 0000 0000 0000 0000 0000
0.0 0.0 0.0 0.0 0.0 0.0 0.0 0.0
0.0 0.0 0.0 0.0 0.0 0.0 0.0 0.0
0.0 0.0 0.0 0.0 0.0 0.0 0.0 0.0
0.0 0.0 0.0 0.0 0.0 0.0 0.0 0.0
0.0 0.0 0.0 0.0 0.0 0.0 0.0 0.0
0.0 0.0 0.0 0.0 0.0 0.0 0.0 0.0
0.0 0.0 0.0 0.0 0.0 0.0 0.0 0.0
0.0 0.0 0.0 0.0 0.0 0.0 0.0 0.0
0.0 0.0 0.0 0.0 0.0 0.0 0.0 0.0
0.0 0.0 0.0 0.0 0.0 0.0 0.0 0.0
0.0 0.0 0.0 0.0 0.0 0.0 0.0 0.0
0.0 0.0 0.0 0.0 0.0 0.0 0.0 0.0
0.0 0.0 0.0 0.0 0.0 0.0 0.0 0.0
0.0 0.0 0.0 0.0 0.0 0.0 0.0 0.0
0.0 0.0 0.0 0.0 0.0 0.0 0.0 0.0
0.0 0.0 0.0 0.0 0.0 0.0 0.0 0.0

network_body._body_endoder.seq_layers.2.weight f4 [128, 128]
00000000: 331e cb3d cde7 d63d a878 82bd ee02 06bc
00000010: 3781 08bd e2ce 6e3c 2e58 a5bd e5f3 c03d
00000020: 833c 61bd 09bd f2bc 38c6 443d 2186 b73d
00000030: d1f9 673c f714 5f3d f2e1 cebc a71d 01be
00000040: e674 573d c04f b43d b09c e83c 8ce7 9abd
00000050: fa66 aabc 5928 0ebc 3742 393b b35a a73d
00000060: a493 36bd a287 0d3c 65b0 363d cec2 abbc
00000070: 2f81 8c3c 5a73 78bd 85a9 cd3d 3575 40bd
00000080: 6c7b 33bc baac f1bd 4de2 5f3d 36d1 82bd
00000090: 60eb 5bbe 155f 0f3e 29ee c4bd eb83 38be
000000a0: 011e 21be a14a 603c 91a5 5c3d 5f9c 48be
000000b0: 6cd5 6c3c 89c2 03be 53ae e23b 8533 233e
000000c0: 532d 9cba 167d 033e 1859 c5bc 84b0 a2bd
000000d0: 91f2 d5bd 70d9 06be a190 18bd e030 16be
000000e0: fb5e 8b3c ec0c ce3d 454a f43a a56e 393d
000000f0: ef97 573c 036e 903c f77a 4bbd f9c5 50bd
00000100: c105 24be 1426 26bc 16e7 dcbd 8c01 93bc
00000110: 1602 d5bc 0b35 2dbd e994 943d 4917 023b
00000120: 29b3 b93c 70c8 cc3b 29ba f93c f7ea bb3d
00000130: f32d b0bd 5695 5cbd b28a bcbc 9887 cd3d
00000140: 441f 08bd 0d7d acbc ca3c 63bd 0447 2ebe
00000150: 805a 883d fbfd 97bd 48e7 a7bd b815 bdba
00000160: 06e6 853d e175 163d 2dc1 473d 4fd3 e03c
00000170: 846a c53d 9967 12bd 0488 1fbe 59cd 4dbd
00000180: 9ca6 d9bd d47f babd 4f1d 9ebd e571 b4bc
00000190: 0c76 393e f741 863c c8d8 d83d 84c1 7abb
000001a0: 082f b43d ce93 59bd 6f13 b8bd ecba 073e
000001b0: ee4f f73d 9be2 913d b801 65be 10df b43d
000001c0: 3034 db3b 562d 81ba bd07 eebd a259 363e
000001d0: 14ea 70bd 0a3d 0ebd 4423 d8bd 79c3 15bc
000001e0: 9492 00be 9a40 8a3d 358e 5dbe 159b 5b3d
000001f0: 8328 c33d 01c7 1c3c 8dc0 fcb9 8708 d9bc
00000200: 2b56 12bd c2a3 e13d 8fce 7bbd 993d 04bb
00000210: 439e 05bd 1ca9 8c3c 3850 d3bb b074 b0bd
00000220: b2c3 15bd c9b0 a3bd 4c35 4dbd 5fdc d63c
00000230: f1a2 5c39 eea1 d73c fbd4 e83d 8e41 afbc
00000240: a076 bbba 72bb c9bc 5c2d f0bc 1293 0b3d
00000250: 220f 1bbe cf05 773d 6177 d93c 51dd 0d3e
00000260: 9542 6a3d 218b 1e3c 1a40 d73d 8b9a 0abd
00000270: 575d 07be 1594 89bc 577f ba3c cc74 4fbd
00000280: cb0a 7dbd 219f b13d fd76 8c3d 7bac 2e3c
00000290: c431 5c3d 7fd9 d23d d1fa edbd 0a44 9f3d
000002a0: 0f91 87bc f222 40be 54b7 b2bd ff86 e1bd
000002b0: fd61 363d 0e34 46be a4b4 9a3d a053 e13c
000002c0: 508f 8ebb 0463 8c3c 452f a7bc 92fe aabc
000002d0: f3d8 bb3d b84b 6f3c 3021 c3bd 202a a13b
000002e0: 73d3 7fbd 5e93 5fbc 9d95 e33d 2465 a83c
000002f0: f5d1 913d 1061 23be 3922 a3b8 b15d 88bd
00000300: 83e6 a33d db9c 7f3c c2e4 5abc 5f51 6f3b
00000310: 2f64 963c aed1 13bc 5703 21bd dada 8a3d
00000320: 19bf e63c 244d 903d 826f 933c 8c8a 8bbd
00000330: df32 b73d 8a70 d43d b2e8 02be 0853 d73d
00000340: e0b5 3bbd fd90 c53d 1a02 d43d 981c 8bbd
00000350: 038d 263b 1a3e 653d 31fe bfbb 3069 09be
00000360: ec6c 313d c468 be3c efba 51ba 4b28 ce3d
00000370: edff a7bd e535 72bd 4746 a8bd a067 23bd
00000380: bdcb d6bc ce32 733d 2fc0 453d 5874 1d3e
00000390: 7b16 f5bd bf76 d1bd 1752 2ebc 99a7 ef3d
000003a0: 408c 26bc af0b c5bd 099a ce3c 8042 9f3d
000003b0: 282f f7bd 0f9b 693d c993 4ebd 66f0 483b
000003c0: a017 6a3e 1aed 493d 0d2b 3bbd 3d39 60bd
000003d0: 864d c93d a011 03bd bd5c bf3d c703 0a3e
000003e0: e122 47be 56ad bdbc d857 d23d fc28 843e
000003f0: 7bca edbc 22d4 413c fd43 5f3e 8287 1bbd
0.099178694 0.10493431 -0.063706696 -0.008179409 -0.033326354 0.014575692 -0.080734596 0.09421519
-0.05498935 -0.029631155 0.0480406 0.0896113 0.014158682 0.054463353 -0.025254223 -0.12608968
0.052601717 0.088042736 0.028395027 -0.07563695 -0.020801056 -0.008676612 0.0028268227 0.081715964
-0.044574395 0.008638294 0.044601817 -0.020966914 0.017151443 -0.060656883 0.10042099 -0.046986777
-0.010954719 -0.11800523 0.054659177 -0.0638756 -0.21476507 0.14001115 -0.09615738 -0.18019073
-0.15734102 0.013689668 0.053868834 -0.19590901 0.014455181 -0.12867178 0.0069177537 0.15937622
-0.0011915363 0.12840685 -0.024090335 -0.07943824 -0.104466565 -0.13168883 -0.037247304 -0.14667082
0.017013064 0.100610584 0.0018637857 0.045271534 0.013158782 0.017630583 -0.049677815 -0.05097005
-0.1601782 -0.0101409145 -0.10786264 -0.017945074 -0.026001971 -0.042286914 0.07254965 0.0019850305
0.022668438 0.00624948 0.030484276 0.09175675 -0.08602514 -0.053853355 -0.023015354 0.10035628
-0.033232942 -0.021055723 -0.055477895 -0.17019278 0.066578865 -0.0742149 -0.0819841 -0.0014426028
0.06538014 0.03673351 0.04876821 0.02744451 0.09639457 -0.03574333 -0.1557923 -0.050244663
-0.10627481 -0.091064125 -0.07720434 -0.022026965 0.18111438 0.016388876 0.10588223 -0.0038262317
0.08798033 -0.053119473 -0.08988082 0.13254899 0.12075792 0.071233 -0.22363937 0.08831608
0.006689571 -0.000985543 -0.1162257 0.1780763 -0.058816984 -0.03472618 -0.105536014 -0.009140843
-0.12555915 0.06750603 -0.21636279 0.053614695 0.09529211 0.009568931 -0.00048208647 -0.026493324
-0.035726707 0.110175624 -0.061476287 -0.0020178317 -0.032621633 0.017170481 -0.006448772 -0.086160064
-0.036563583 -0.079927035 -0.050099656 0.026228128 0.00021041535 0.026322331 0.11368748 -0.021393564
-0.0014302321 -0.024625514 -0.029318504 0.034075804 -0.15142491 0.060308274 0.026546182 0.13853957
0.057192404 0.009676726 0.10510273 -0.03383879 -0.132192 -0.016794244 0.022765798 -0.050648496
-0.06177787 0.086729296 0.06858633 0.01066124 0.053758398 0.1029539 -0.11620105 0.07776649
-0.016548662 -0.1876333 -0.08726373 -0.110120766 0.044527043 -0.19355795 0.07553986 0.027505696
-0.0043505803 0.017137058 -0.020408282 -0.020873342 0.09172239 0.014605455 -0.095278144 0.004918352
-0.062457513 -0.013645975 0.11112521 0.02055604 0.07120124 -0.15954995 -7.77882e-05 -0.06658495
0.08002951 0.015601362 -0.013360204 0.0036517007 0.018358318 -0.0090221595 -0.039309826 0.06780024
0.028167294 0.070459634 0.017997507 -0.06813535 0.0894525 0.103730276 -0.12784079 0.10513884
-0.045827746 0.09646795 0.10351963 -0.06792563 0.002541364 0.055967428 -0.0058591594 -0.13419032
0.043316767 0.023243316 -0.00080005726 0.10066279 -0.08203111 -0.05913343 -0.08216529 -0.039893746
-0.026220197 0.059374623 0.048278984 0.15376413 -0.119671784 -0.10227727 -0.010639689 0.117018886
-0.010165274 -0.09621369 0.025219934 0.07776356 -0.12069541 0.05703264 -0.050433908 0.0030660867
0.22860575 0.049298383 -0.045695353 -0.054742087 0.098292395 -0.03199923 0.0934386 0.13478003
-0.19446899 -0.023153942 0.10270661 0.2581252 -0.029027214 0.011830362 0.21803279 -0.037971027

network_body._body_endoder.seq_layers.2.bias f4 [128]
00000000: 0000 0000 0000 0000 0000 0000 0000 0000
00000010: 0000 0000 0000 0000 0000 0000 0000 0000
00000020: 0000 0000 0000 0000 0000 0000 0000 0000
00000030: 0000 0000 0000 0000 0000 0000 0000 0000
00000040: 0000 0000 0000 0000 0000 0000 0000 0000
00000050: 0000 0000 0000 0000 0000 0000 0000 0000
00000060: 0000 0000 0000 0000 0000 0000 0000 0000
00000070: 0000 0000 0000 0000 0000 0000 0000 0000
00000080: 0000 0000 0000 0000 0000 0000 0000 0000
00000090: 0000 0000 0000 0000 0000 0000 0000 0000
000000a0: 0000 0000 0000 0000 0000 0000 0000 0000
000000b0: 0000 0000 0000 0000 0000 0000 0000 0000
000000c0: 0000 0000 0000 0000 0000 0000 0000 0000
000000d0: 0000 0000 0000 0000 0000 0000 0000 0000
000000e0: 0000 0000 0000 0000 0000 0000 0000 0000
000000f0: 0000 0000 0000 0000 0000 0000 0000 0000
00000100: 0000 0000 0000 0000 0000 0000 0000 0000
00000110: 0000 0000 0000 0000 0000 0000 0000 0000
00000120: 0000 0000 0000 0000 0000 0000 0000 0000
00000130: 0000 0000 0000 0000 0000 0000 0000 0000
00000140: 0000 0000 0000 0000 0000 0000 0000 0000
00000150: 0000 0000 0000 0000 0000 0000 0000 0000
00000160: 0000 0000 0000 0000 0000 0000 0000 0000
00000170: 0000 0000 0000 0000 0000 0000 0000 0000
00000180: 0000 0000 0000 0000 0000 0000 0000 0000
00000190: 0000 0000 0000 0000 0000 0000 0000 0000
000001a0: 0000 0000 0000 0000 0000 0000 0000 0000
000001b0: 0000 0000 0000 0000 0000 0000 0000 0000
000001c0: 0000 0000 0000 0000 0000 0000 0000 0000
000001d0: 0000 0000 0000 0000 0000 0000 0000 0000
000001e0: 0000 0000 0000 0000 0000 0000 0000 0000
000001f0: 0000 0000 0000 0000 0000 0000 0000 0000
0.0 0.0 0.0 0.0 0.0 0.0 0.0 0.0
0.0 0.0 0.0 0.0 0.0 0.0 0.0 0.0
0.0 0.0 0.0 0.0 0.0 0.0 0.0 0.0
0.0 0.0 0.0 0.0 0.0 0.0 0.0 0.0
0.0 0.0 0.0 0.0 0.0 0.0 0.0 0.0
0.0 0.0 0.0 0.0 0.0 0.0 0.0 0.0
0.0 0.0 0.0 0.0 0.0 0.0 0.0 0.0
0.0 0.0 0.0 0.0 0.0 0.0 0.0 0.0
0.0 0.0 0.0 0.0 0.0 0.0 0.0 0.0
0.0 0.0 0.0 0.0 0.0 0.0 0.0 0.0
0.0 0.0 0.0 0.0 0.0 0.0 0.0 0.0
0.0 0.0 0.0 0.0 0.0 0.0 0.0 0.0
0.0 0.0 0.0 0.0 0.0 0.0 0.0 0.0
0.0 0.0 0.0 0.0 0.0 0.0 0.0 0.0
0.0 0.0 0.0 0.0 0.0 0.0 0.0 0.0
0.0 0.0 0.0 0.0 0.0 0.0 0.0 0.0

value_heads.value_heads.extrinsic.weight f4 [1, 128]
00000000: c09a 41bd ae62 3e3e f02d 533d 1356 01be
00000010: 65b6 d9bd 5444 96bd 64b7 a93d 626c 383e
00000020: f818 643d 48c1 81bd 70a6 3b3d 9865 24bd
00000030: 3da4 ffbd 7cd0 8cbd a39a dfbd a0a4 08bc
00000040: 2032 983b a69c a9bd a22a 2dbe 9295 36be
00000050: 1812 0f3d dde5 fdbd 1235 04be bcc4 ac3d
00000060: f05a b4bd cc4d 363e 6a74 e4bd b87a 143e
00000070: 251a 3bbe 108e 17be 4868 c9bd aaf6 113e
00000080: 0025 cc3c c074 253e 209a 323e 0896 703d
00000090: 706d 3f3c c0fa 183d f809 12be d9e8 20be
000000a0: e0ac 63bd 60ee f53d 602a 973b 8bbc d0bd
000000b0: 89d1 4dbe bae0 babd 50ce 3f3d a278 213e
000000c0: f6b2 dbbd d8b0 033d 9085 3a3e ecdc 2b3e
000000d0: ac22 303e 2c5f 26bd 181e 1c3e 6e0c 1fbe
000000e0: ca78 373e ece0 fa3d 0679 43be 950d 32be
000000f0: 0cec ee3d 920a 3cbe 2098 c8bd d4e5 1c3e
00000100: a0b3 e13b e877 d1bc e018 ec3b 02fb 38be
00000110: 9b20 d3bd d041 15bd 1f2c 1dbe 08f0 a33d
00000120: 5965 2dbe 2063 403e 988a 67bd 8015 153b
00000130: c85a 0dbe 8c78 08be 1007 c93d 401d be3d
00000140: 901f 1dbd 280a b33c f9a9 cabd e410 363e
00000150: 40ab f43c 06de 453e acf7 bebd a070 14be
00000160: 80aa 88bc d6d6 1fbe b4be f23d 5084 babc
00000170: 7079 0fbe cb04 45be 146b da3d dcc4 1abe
00000180: 0cfa 27be 00fc 36be 141c 55be 4438 533e
00000190: f803 febc 08ab 783d 60fb b23d 4ad2 a9bd
000001a0: 6a76 a7bd 8bc5 36be 221b 9dbd e8b1 a03d
000001b0: acba 8d3d 0426 513e 74c1 36bd bc64 c23d
000001c0: 2031 a1bc 6072 4d3c 604d 3c3e a441 493e
000001d0: 703a 00bc a221 313e fabd 053e 781f e43d
000001e0: b6b3 86bd 321f 343e a0f2 e23c 0044 d13b
000001f0: 70b5 32bc 543a 56bd 109f 6bbd 8c6c b73d
-0.04726672 0.18592331 0.05155748 -0.12630491 -0.10630492 -0.07337251 0.08286932 0.18010095
0.055687875 -0.063356936 0.045813024 -0.04013595 -0.12482498 -0.06875703 -0.109181665 -0.008340031
0.0046446472 -0.082818314 -0.16910794 -0.17830494 0.034929365 -0.123973586 -0.1291087 0.084359616
-0.088064075 0.17803115 -0.11155017 0.14499938 -0.18271692 -0.14800286 -0.09834343 0.14254251
0.024919987 0.16157818 0.17441607 0.05873683 0.011683807 0.03734851 -0.14261615 -0.15713824
-0.05558479 0.12008357 0.004613206 -0.10192212 -0.20099463 -0.091248944 0.046827614 0.15768674
-0.107274935 0.032151073 0.18215013 0.16783494 0.17200726 -0.040618107 0.15245855 -0.15532085
0.17917171 0.12249932 -0.19089136 -0.17387994 0.11666116 -0.18363407 -0.097946405 0.15322047
0.006887868 -0.025569871 0.007205114 -0.18064502 -0.103089534 -0.036439717 -0.15348862 0.08004767
-0.16933192 0.18787813 -0.056528658 0.002274841 -0.13804162 -0.13327235 0.098158 0.09282923
-0.03836018 0.021855429 -0.09895701 0.17779881 0.029866815 0.19322976 -0.093245834 -0.14496088
-0.016682863 -0.15609297 0.1185278 -0.02276817 -0.14011168 -0.1924011 0.10664955 -0.15114158
-0.16403979 -0.17869568 -0.20811492 0.20626932 -0.031007752 0.060709983 0.08739352 -0.082920626
-0.081768826 -0.17848794 -0.07671191 0.07846433 0.069203705 0.20424658 -0.044618085 0.0949187
-0.019676745 0.012539476 0.18388891 0.19653946 -0.007826433 0.17297986 0.13060752 0.11138815
-0.06577246 0.17590025 0.027703583 0.00638628 -0.010907516 -0.05230172 -0.05752474 0.089562505
