results/ppo/Fetch/Fetch-7104.onnx (onnx, 74133 bytes, 5 tensors)

network_body._body_endoder.seq_layers.0.weight f4 [128, 1]
000000 ae 75 c1 be 35 9f f3 bf a1 5d 8d 3f 3e 43 d3 be
       -0.37785095 -1.9032961 1.1044198 -0.4126224
000010 31 87 88 bd bf b5 88 3e 55 40 d8 be ae 93 55 3f
       -0.06666411 0.2670116 -0.4223658 0.83428466
000020 02 ff 98 be c8 7f c0 3f 1f 92 24 bf b4 08 cb be
       -0.29882056 1.5038996 -0.64285463 -0.39655077
000030 d9 38 13 3f 4f cc b1 3f 57 6f f6 bf fc 1a b2 bf
       0.5750862 1.3890475 -1.9252728 -1.3914485
000040 58 3f 1c 3f b2 0e bc 3e 66 23 13 c0 d7 fd b0 bf
       0.61034155 0.36729962 -2.2990355 -1.3827466
000050 32 bd cb 3f 79 1a 1d bf db f9 5a bf 7a a6 54 bd
       1.5917113 -0.6136852 -0.855375 -0.051916577
000060 ef 6b d4 bd 31 ee 56 3e 7f 74 b9 3f c8 ba a6 3e
       -0.10372149 0.209893 1.4488677 0.32564378
000070 3a 58 4e be 2f 3d 68 bf 55 77 41 3c 80 91 30 3f
       -0.20150843 -0.9071836 0.011808236 0.68972015
000080 05 25 07 3d 4a b8 22 3c 4c 7f 1e bf 53 64 36 3f
       0.03299429 0.009931633 -0.6191299 0.7124683
000090 49 52 5d be 55 7a 2f c0 20 13 2d 3f 23 3e 6f 3f
       -0.2161342 -2.7418416 0.6760731 0.9345419
0000a0 de e8 46 3f 9b f7 7c be da 45 32 bf da d4 06 be
       0.7769908 -0.24703829 -0.69637835 -0.13167134
0000b0 45 69 51 bf ab a9 3c 3f 6a 26 05 3f d6 f6 b2 bf
       -0.81801254 0.7369639 0.5201174 -1.3981578
0000c0 45 23 32 3f f0 3d 9b 3f 7b ad 0a bf e0 03 fa 3e
       0.6958507 1.2128277 -0.5417096 0.4883108
0000d0 d8 16 37 bf a8 59 db be 43 e6 39 3f 3e 79 0f 3e
       -0.7151923 -0.4284184 0.72616976 0.14011094
0000e0 2d 82 a6 3f 3a 7d 1e bf 8e 79 8a 3f 54 ed d6 3b
       1.3008476 -0.6190983 1.0818346 0.0065590534
0000f0 97 7b c3 3f ed 2c ae bf 84 3d de bd 66 64 96 bf
       1.5272092 -1.360746 -0.10851577 -1.1749389
000100 68 f6 d7 be ea 04 86 3f 7c 0f ff bf 95 29 c8 bf
       -0.4218018 1.047025 -1.99266 -1.563769
000110 a8 25 9c 3f 4c 44 43 3f 57 1e d4 bf 8c 2c c5 3e
       1.2198992 0.7627609 -1.6571759 0.3851055
000120 0e 9c ce 3e b5 01 8e bf c6 29 af bd d8 40 13 3d
       0.40353435 -1.1094271 -0.085528895 0.03595051
000130 00 c3 22 40 f4 da f5 be 46 2a ab bf d3 ab 22 3f
       2.5431519 -0.4801861 -1.3372276 0.6354343
000140 57 fc 94 be 3a 9a 5b 3e c9 4d 95 bf cf 28 04 c0
       -0.2909877 0.21445552 -1.1664363 -2.0649908
000150 1b 27 2b 3f 58 43 f9 3f 0b cb 5e bf 67 29 84 bf
       0.66856545 1.9473677 -0.8702857 -1.0325135
000160 16 90 85 3f c8 a5 25 bd fe f4 16 bf b3 f7 78 3f
       1.0434597 -0.040441304 -0.5896758 0.9725296
000170 72 48 24 3f d1 db 4a bf 89 3b f5 3f d9 82 c2 3e
       0.6417304 -0.79241663 1.9158794 0.37990454
000180 06 ed 48 bf ff e9 b4 bf 20 88 d5 3f ea b5 dc 3e
       -0.7848667 -1.413391 1.6682167 0.4310754
000190 aa 64 8a be e7 cf 51 3f 4e cd 75 bf e7 13 99 bc
       -0.27029926 0.8195786 -0.96016395 -0.018686248
0001a0 39 98 7f 3e 6a 16 1d 3f a9 0b 07 3e 43 25 5a bf
       0.24960412 0.61362326 0.13188042 -0.85213107
0001b0 1c 2b 34 bf 50 7e 43 40 27 0d 67 3f 11 45 91 3f
       -0.7037828 3.0545845 0.90254444 1.1349202
0001c0 80 d6 4d 3e 69 34 0d c0 e1 1d b0 bd c0 72 05 c0
       0.20101357 -2.2063239 -0.08599449 -2.0851288
0001d0 3e 34 a9 bf 11 8e bf 3e 1d 35 04 3f c0 d2 a9 bf
       -1.3219068 0.37413076 0.51643544 -1.3267441
0001e0 ab 38 6f be f7 ae 74 bf 87 1d 6b 3f 83 8f 31 3f
       -0.23361461 -0.95579475 0.9184193 0.69359607
0001f0 10 d7 07 40 7a ec d0 3e e7 47 0c 3f cb 8c 4c 3f
       2.1225014 0.40805417 0.54797214 0.79902333

network_body._body_endoder.seq_layers.0.bias f4 [128]
000000 00 00 00 00 00 00 00 00 00 00 00 00 00 00 00 00
       0.0 0.0 0.0 0.0
000010 00 00 00 00 00 00 00 00 00 00 00 00 00 00 00 00
       0.0 0.0 0.0 0.0
000020 00 00 00 00 00 00 00 00 00 00 00 00 00 00 00 00
       0.0 0.0 0.0 0.0
000030 00 00 00 00 00 00 00 00 00 00 00 00 00 00 00 00
       0.0 0.0 0.0 0.0
000040 00 00 00 00 00 00 00 00 00 00 00 00 00 00 00 00
       0.0 0.0 0.0 0.0
000050 00 00 00 00 00 00 00 00 00 00 00 00 00 00 00 00
       0.0 0.0 0.0 0.0
000060 00 00 00 00 00 00 00 00 00 00 00 00 00 00 00 00
       0.0 0.0 0.0 0.0
000070 00 00 00 00 00 00 00 00 00 00 00 00 00 00 00 00
       0.0 0.0 0.0 0.0
000080 00 00 00 00 00 00 00 00 00 00 00 00 00 00 00 00
       0.0 0.0 0.0 0.0
000090 00 00 00 00 00 00 00 00 00 00 00 00 00 00 00 00
       0.0 0.0 0.0 0.0
0000a0 00 00 00 00 00 00 00 00 00 00 00 00 00 00 00 00
       0.0 0.0 0.0 0.0
0000b0 00 00 00 00 00 00 00 00 00 00 00 00 00 00 00 00
       0.0 0.0 0.0 0.0
0000c0 00 00 00 00 00 00 00 00 00 00 00 00 00 00 00 00
       0.0 0.0 0.0 0.0
0000d0 00 00 00 00 00 00 00 00 00 00 00 00 00 00 00 00
       0.0 0.0 0.0 0.0
0000e0 00 00 00 00 00 00 00 00 00 00 00 00 00 00 00 00
       0.0 0.0 0.0 0.0
0000f0 00 00 00 00 00 00 00 00 00 00 00 00 00 00 00 00
       0.0 0.0 0.0 0.0
000100 00 00 00 00 00 00 00 00 00 00 00 00 00 00 00 00
       0.0 0.0 0.0 0.0
000110 00 00 00 00 00 00 00 00 00 00 00 00 00 00 00 00
       0.0 0.0 0.0 0.0
000120 00 00 00 00 00 00 00 00 00 00 00 00 00 00 00 00
       0.0 0.0 0.0 0.0
000130 00 00 00 00 00 00 00 00 00 00 00 00 00 00 00 00
       0.0 0.0 0.0 0.0
000140 00 00 00 00 00 00 00 00 00 00 00 00 00 00 00 00
       0.0 0.0 0.0 0.0
000150 00 00 00 00 00 00 00 00 00 00 00 00 00 00 00 00
       0.0 0.0 0.0 0.0
000160 00 00 00 00 00 00 00 00 00 00 00 00 00 00 00 00
       0.0 0.0 0.0 0.0
000170 00 00 00 00 00 00 00 00 00 00 00 00 00 00 00 00
       0.0 0.0 0.0 0.0
000180 00 00 00 00 00 00 00 00 00 00 00 00 00 00 00 00
       0.0 0.0 0.0 0.0
000190 00 00 00 00 00 00 00 00 00 00 00 00 00 00 00 00
       0.0 0.0 0.0 0.0
0001a0 00 00 00 00 00 00 00 00 00 00 00 00 00 00 00 00
       0.0 0.0 0.0 0.0
0001b0 00 00 00 00 00 00 00 00 00 00 00 00 00 00 00 00
       0.0 0.0 0.0 0.0
0001c0 00 00 00 00 00 00 00 00 00 00 00 00 00 00 00 00
       0.0 0.0 0.0 0.0
0001d0 00 00 00 00 00 00 00 00 00 00 00 00 00 00 00 00
       0.0 0.0 0.0 0.0
0001e0 00 00 00 00 00 00 00 00 00 00 00 00 00 00 00 00
       0.0 0.0 0.0 0.0
0001f0 00 00 00 00 00 00 00 00 00 00 00 00 00 00 00 00
       0.0 0.0 0.0 0.0

network_body._body_endoder.seq_layers.2.weight f4 [128, 128]
000000 de 1a fa bd 0b db f6 bd 63 0c 85 bd 07 82 52 bd
       -0.12212156 -0.12053498 -0.06496503 -0.051393535
000010 e7 01 91 3d f2 44 07 3d a1 bd 3f 3d 6b ca 08 be
       0.07080441 0.033024736 0.046811704 -0.13358466
000020 f2 45 c4 3c 5b 39 94 bc 6e 26 f9 3d 6f 50 92 bd
       0.023959134 -0.018093755 0.12165533 -0.07144248
000030 24 3b bd 3c 73 60 f4 3c 57 f0 30 3e 68 ee 2b be
       0.02309949 0.029831147 0.17279182 -0.16790164
000040 c5 16 9a bd 36 9b ac 3d 0b f1 22 3e c4 87 e5 bd
       -0.07523874 0.08428042 0.15912263 -0.11207536
000050 01 fc c1 bc a1 b1 b8 3d 25 59 c6 3d d6 ee 09 be
       -0.023679735 0.09018255 0.09684972 -0.13470015
000060 f5 fe 8c 3d 6c 7c 39 3e 6b a5 ae 3d 8f 0f 42 3d
       0.06884567 0.1811387 0.08527645 0.04737812
000070 4b 83 43 3c 50 52 f6 bd 67 fe 82 3d 58 00 4a bd
       0.011933158 -0.120274186 0.0639618 -0.049316734
000080 89 65 84 be e4 42 4f bc 6e f8 b5 bd 37 c2 10 3d
       -0.25858715 -0.012650225 -0.08885275 0.035341468
000090 73 d2 6c bc cd 72 33 bd bf ae 65 bd 4e 53 d8 bc
       -0.014454472 -0.043810654 -0.056074854 -0.02640691
0000a0 2f ea 75 3d 22 4a 45 bd dd 1f a0 bd 4a c5 5c 3d
       0.060037788 -0.0481664 -0.078185774 0.053899087
0000b0 4a 00 bb 3d 8a b7 97 bd 3e 12 2b 3d a2 81 b5 bd
       0.091309145 -0.07408054 0.041765444 -0.08862616
0000c0 e2 23 0e 3d f8 67 77 bd 26 10 96 bd 33 73 d7 3c
       0.03470219 -0.060401887 -0.07327299 0.026300048
0000d0 8a 44 af bd ac c8 47 3e 39 aa fa 3d 40 e8 f4 3d
       -0.08557995 0.19510144 0.12239499 0.11958361
0000e0 c7 be 12 bd 33 e3 6b bd e0 bb 29 be c2 b6 90 3b
       -0.03582647 -0.05758972 -0.16575575 0.0044163177
0000f0 21 68 d0 ba 45 fc 6b 3b 15 90 bd bd f7 35 c7 bd
       -0.0015900173 0.0036008519 -0.09255997 -0.0972709
000100 69 77 7e 3d 4e ec dc 3c 00 8d b0 bc ff d5 a7 3d
       0.062125597 0.026968148 -0.021551609 0.081951134
000110 66 6f 43 3d 61 5e 83 3d 9e e1 a1 bc 40 46 a3 bd
       0.04771366 0.06414486 -0.019760903 -0.079723835
000120 05 26 38 bd 2c 69 24 be 98 3c 15 bd 15 69 12 3e
       -0.044958133 -0.16055745 -0.03643474 0.14297898
000130 74 e0 4f 3d ce f1 32 3d 02 6b 44 3d 13 1c 47 3e
       0.050751165 0.043687634 0.047953613 0.19444303
000140 c1 c1 6a bd 94 7c 1e be 85 ed ef 3c 9a 15 af bc
       -0.057313684 -0.1547721 0.029288063 -0.021372605
000150 3b a2 8f 3c e4 fb 26 bb c6 41 7e bd 01 23 89 3c
       0.017533412 -0.0025479728 -0.062074445 0.016740324
000160 53 2b ec 3d 78 1f 13 3e af 00 2c be b3 e3 12 3e
       0.11531701 0.14367473 -0.16797136 0.14344673
000170 9c a9 c0 3d 2d f5 89 3e 75 dd 27 bd ff c7 8b 3d
       0.094073504 0.26944867 -0.040982682 0.068252556
000180 2f 49 33 bd 52 8a d6 bc 74 a6 74 bd e4 97 86 3c
       -0.043770965 -0.026189003 -0.059729055 0.016429849
000190 8a 3a 01 3e 21 c9 96 bc 14 91 c7 3c d4 b9 47 3d
       0.12619987 -0.018406453 0.02436117 0.048761204
0001a0 5d 1e 0f be e1 d1 af 3d 71 d7 c7 3c 3f 3d 2e 3d
       -0.13976426 0.08584953 0.024394723 0.042538878
0001b0 e3 b5 9f 3d ca 3e f5 bd 59 e4 02 be f3 f7 18 3d
       0.07798364 -0.11974867 -0.1278242 0.037345838
0001c0 77 74 bc bd 38 6e c5 bc 00 37 31 bd e8 1f 16 3d
       -0.092019014 -0.024100408 -0.043265343 0.036651522
0001d0 8f 34 e1 3d 06 b5 07 bd a0 4a 96 3b 6f 16 d8 3d
       0.10996353 -0.03313162 0.0045865327 0.10551154
0001e0 c4 67 98 bd 56 cf 2b be 7f 15 72 3d e9 16 bd 3d
       -0.07441667 -0.16778311 0.05910253 0.092328854
0001f0 2a cf 34 bc a1 f6 a8 bc f6 95 06 3e 6a 82 bc bd
       -0.01103572 -0.020625414 0.13143143 -0.09204562
000200 2f e2 e6 bd 3e 80 e2 3d f2 0d 02 be 97 a5 c5 bd
       -0.1127361 0.110596165 -0.12700632 -0.096507244
000210 3d b8 83 3d 12 69 88 3d 40 c3 e7 3d 45 d3 36 3d
       0.06431625 0.066606656 0.11316538 0.044635076
000220 0b a9 82 bd 59 43 80 bd 51 6b 28 be ee 83 1b bc
       -0.06379899 -0.062628455 -0.16447188 -0.009491904
000230 3e c6 72 be 1a 33 3f bd c2 0a 1c 3e 37 07 06 3e
       -0.23708436 -0.046679594 0.15238479 0.1308869
000240 0f d5 a8 3d 70 36 21 bd 69 17 8d bd 8b e5 31 bd
       0.08243763 -0.039358556 -0.06889231 -0.0434318
000250 6f e4 1d be 2e ec be bd 5c 45 57 3d 6c ce 9c 3d
       -0.15419172 -0.093223915 0.05255638 0.07656559
000260 9f 4e 4c 3d e5 19 43 3d 49 19 5e 3d 4c 83 53 bd
       0.049879666 0.047632117 0.054223333 -0.051638886
000270 4d 1c 5f bd 29 0c 22 3b 82 3f 24 be 40 ae 05 bd
       -0.05447035 0.0024726486 -0.16039851 -0.03263688
000280 ff c6 c1 3d ae fd 33 bd 2d 02 45 bd f2 27 f8 bc
       0.094617836 -0.0439431 -0.048097778 -0.030292485
000290 f3 e6 7c 3d 40 8a a2 3d 47 e6 88 bd 76 ae 08 bd
       0.061743688 0.07936525 -0.06684547 -0.033369504
0002a0 18 98 99 bd 68 6b a0 3d bc 45 65 3d 98 c6 20 bd
       -0.07499713 0.07832986 0.055974707 -0.039251894
0002b0 22 66 b0 bd 1c 9d 0c 3d a7 7f 04 3c 73 b3 ea 3c
       -0.0861323 0.03432952 0.008087075 0.028650021
0002c0 cd 3a c9 3c 60 d0 a3 3d d7 e1 95 3d ff 12 02 3d
       0.024564171 0.07998729 0.07318466 0.031756397
0002d0 f8 04 be 3d 41 f2 57 ba 35 c9 7d bd 70 94 29 3a
       0.092782915 -0.0008237698 -0.061959464 0.0006468957
0002e0 14 af 58 3d 21 b9 d0 bc 0d bf 06 bd 7a a8 26 3d
       0.052901343 -0.025478901 -0.032897044 0.040688016
0002f0 a5 ef 30 bd 57 25 97 bc b8 73 af 3c f8 8d cf 3d
       -0.043197293 -0.018450422 0.021417484 0.101345
000300 ce ed 7c bd ed f7 52 3d c5 93 f7 bd 74 86 7b 3d
       -0.061750226 0.05150597 -0.12088732 0.06140752
000310 04 18 64 3c 1f fd 38 be dc b1 cd bb 9f b1 dd 3d
       0.013921741 -0.18065308 -0.006277306 0.10824894
000320 6e 00 03 bd d0 ad 30 bd 0d 73 25 3d 58 8c b0 bd
       -0.03198283 -0.04313451 0.040392924 -0.086205184
000330 a8 13 3f be d9 76 b5 bd 04 46 08 bc dd 00 80 bd
       -0.18659842 -0.08860559 -0.008317474 -0.06250165
000340 4c 42 0b 3e 8a cf f2 bd 9b e6 6f 3d c3 64 1a 3e
       0.13599509 -0.11855991 0.058569532 0.150775
000350 61 86 1d bd ad 9f 7d 3d 96 47 e2 bd 96 75 4b be
       -0.03845823 0.061919857 -0.1104881 -0.19869074
000360 32 09 c7 3a 2a 28 fc bc 10 13 11 bd 38 40 07 3e
       0.0015185236 -0.03078087 -0.03541857 0.13208091
000370 80 23 04 be 8c 41 d0 bd cf b4 f8 3d f1 c8 b2 bd
       -0.12904167 -0.10168752 0.121438615 -0.08729733
000380 d2 bf 71 bb 65 53 22 be 28 04 fa bd 17 76 ec 3d
       -0.0036888015 -0.15852125 -0.12207824 0.11545961
000390 f9 1b 7d 3d 91 62 b9 bd d4 2e 1b 3e 0f 22 8e bd
       0.061794255 -0.09052003 0.15154582 -0.0694009
0003a0 b2 5f 33 bd 42 b4 0e be 7e 9e 16 3c d9 e4 c6 bd
       -0.043792434 -0.1393595 0.009193061 -0.09711618
0003b0 2e 72 83 bc f7 af dc 3d b9 20 eb 3d 72 6a 9b bc
       -0.016045656 0.1077575 0.11480851 -0.018971656
0003c0 54 c3 53 3d 27 8f ed bb da be 10 be 7d c0 09 be
       0.05169995 -0.007249731 -0.14135304 -0.13452335
0003d0 28 26 cd 3d 2f be 05 3d 0d 6a ac 3b 29 37 b2 bc
       0.10017043 0.032652076 0.0052616657 -0.021754818
0003e0 3f aa 06 3d 12 06 af bc 5c f8 18 3d 18 b7 18 3c
       0.032877203 -0.0213652 0.03734623 0.009320997
0003f0 b2 c4 83 bc 44 75 85 3d 4b 9f 82 bd 7b 37 cc bd
       -0.016085003 0.06516507 -0.06378039 -0.099715196

action_model._discrete_distribution.branches.0.weight f4 [5, 128]
000000 1f 27 4e bc a2 c7 48 bb a6 c0 46 bb 93 ba 86 bc
       -0.012582569 -0.0030636569 -0.003032723 -0.016446387
000010 13 43 ff 3a 31 09 04 3c 66 7b 12 bb d6 b8 82 bb
       0.0019474946 0.008058832 -0.0022351383 -0.0039893193
000020 4b 7b ab 3a eb a7 b6 bb 32 fd 5e 3c da 2e 3a 3b
       0.0013083009 -0.0055742166 0.013610171 0.0028409273
000030 3a 31 d2 bb 23 42 ba 3b 4f 4c d5 3b 2f 37 fc bb
       -0.0064145597 0.0056841536 0.006509341 -0.007697008
000040 67 34 00 3c 00 e5 40 bb 43 38 66 bb 09 c5 91 3b
       0.007824994 -0.002943337 -0.003512875 0.0044485372
000050 e5 73 37 3a 0d 55 fc bb d9 84 2f bb 6a 1d fc 39
       0.00069981656 -0.0077005685 -0.0026782064 0.000480871
000060 b7 d4 7f 3c 57 25 5a b9 88 99 50 3c 0f d6 00 3b
       0.01561468 -0.0002080401 0.012731917 0.001965884
000070 a5 e3 73 ba 63 16 67 bc 05 8f 5c bc 89 7a 28 bc
       -0.0009303636 -0.0141044585 -0.013461833 -0.010283121
000080 b3 4c ac bb 1d 14 d9 3b eb 56 d2 3b 43 a0 40 bc
       -0.0052581667 0.006624712 0.006419053 -0.011756959
000090 14 0d 1d bb f5 10 50 bb 7d fc bc bb 5f e0 16 ba
       -0.0023964094 -0.0031748388 -0.0057674036 -0.000575548
0000a0 6f 8a 83 bb 78 2d fa bb 23 6b f0 bb 9a 64 27 3c
       -0.0040143053 -0.007634815 -0.0073369904 0.010216856
0000b0 9a e4 9d bc 25 01 9f bb 47 cd 54 3b 67 0d dc bb
       -0.019274045 -0.0048524314 0.0032470988 -0.006715465
0000c0 bc fc 9f bc fd 0d 24 ba 3b 1e a7 bb cd f1 15 bc
       -0.019529693 -0.0006258188 -0.0051000393 -0.009151888
0000d0 75 a8 67 bb 53 22 9a b9 a5 ae fb bb 01 de a0 3b
       -0.003534821 -0.00029398742 -0.0076807314 0.0049092774
0000e0 f2 6b ca bb 30 7e 60 3c a7 86 dd bb 39 56 2c 3b
       -0.006177419 0.01370196 -0.0067604366 0.002629651
0000f0 c9 12 21 3b b7 0c da bc ee 5b 3a bb 73 1c 9a bb
       0.0024577847 -0.026617391 -0.0028436142 -0.0047030984
000100 35 4e 79 3a 07 ae 8f bb b0 69 e5 3b 72 54 a7 ba
       0.000951025 -0.0043847593 0.0070011243 -0.0012766256
000110 12 05 9f 3b d3 42 30 bb 9a 9d c7 bb df 58 ee ba
       0.0048528994 -0.00268953 -0.0060917856 -0.0018184445
000120 61 3b 8d bb dd 9a e2 3b 27 86 b6 3b 27 44 a4 3b
       -0.004310057 0.006915434 0.0055701914 0.005013007
000130 88 19 64 3b f7 f8 aa 3b da d6 05 3c 1b 44 05 3c
       0.0034805257 0.005217667 0.0081689 0.008133913
000140 a1 7a a7 3b 03 92 52 bc b8 90 14 ba fd cb aa b9
       0.005111054 -0.012852195 -0.0005667317 -0.0003257691
000150 15 0f b1 3b 6d 5f f6 bb ad 5b 1c 3a 37 c7 1b 39
       0.0054034092 -0.0075187 0.00059645885 0.00014856165
000160 e2 70 85 bc 69 39 34 3c ab 1a 7b 3b 36 ef 8c bb
       -0.016289178 0.011000016 0.0038315456 -0.004300977
000170 75 35 85 3b 11 63 82 bc e0 ac fd 3b f0 62 a6 3a
       0.0040652105 -0.01591638 0.0077415556 0.0012694281
000180 8a 45 ea 3b eb f9 64 bb 41 bb 1b 3b e4 2e 03 3b
       0.007149403 -0.0034939002 0.0023762735 0.0020016963
000190 53 b1 12 bc a8 b1 78 3a 32 2e 67 3b 30 c0 88 bb
       -0.00895341 0.0009486922 0.0035275337 -0.004173301
0001a0 6e 44 ad 3a ae 25 3b bb 77 56 a0 ba 5d 64 f5 bb
       0.0013219246 -0.0028556394 -0.00122328 -0.007488771
0001b0 d2 76 87 bc 6f 98 64 bb 8f 26 d7 3b 0f a8 0d bc
       -0.01653615 -0.0034880897 0.006565876 -0.008646025
0001c0 27 ce 27 bc ef b7 3d 3b b1 52 a0 bc cb e6 13 bb
       -0.010242022 0.0028948744 -0.01957068 -0.0022567983
0001d0 ca 76 e1 ba 36 f9 2a 3c e8 88 f0 3b eb d7 ce bb
       -0.001720154 0.010435393 0.0073405392 -0.0063123605
0001e0 17 d3 d9 bb 85 4d 5b bc 87 40 32 bb 58 63 8a ba
       -0.0066474783 -0.013385181 -0.0027199106 -0.0010558171
0001f0 d4 47 3e bb b1 34 37 3b 9a 47 3f 3b 57 e2 11 bc
       -0.0029034512 0.002795499 0.0029186965 -0.008904061
000200 6f 2b b4 3a 67 de 07 3c 9e f9 06 bb 63 2a 8f 3b
       0.0013745854 0.008292771 -0.002059556 0.0043690666
000210 fb 14 14 3c b5 c1 b0 bb e2 08 ff 3b 6f cc 2b 3c
       0.009038205 -0.0053941854 0.0077830413 0.0104857525
000220 fd bb fd bb f4 11 bf 3b 8b 9a f4 bb ca 1a 7c 3c
       -0.007743357 0.0058309976 -0.007464712 0.015387246
000230 37 e1 03 3c 9d 78 ff 3b 52 df ae 3c 34 c4 17 bc
       0.008049301 0.0077963606 0.021346722 -0.009263087
000240 37 22 2d bc 23 ee a8 3c e2 91 e7 3b cc b9 08 bc
       -0.0105672395 0.020621365 0.007066951 -0.008345079
000250 8e 38 83 ba c2 0d 2a bb 3a 9a 38 3c f4 d9 8a 3b
       -0.0010011361 -0.0025948142 0.011267239 0.004237408
000260 15 37 d8 bb c7 27 e6 bb 54 65 1f bc 35 23 5a 3c
       -0.006598363 -0.007023785 -0.009728748 0.013314058
000270 d7 19 26 3c b2 f5 ec bc 13 ed 49 bc 07 0f 91 bb
       0.010137997 -0.02892575 -0.012324589 -0.00442684
000280 d0 0c 76 3b 7b 7b bb ba 58 b6 a0 bb e7 0e db 3b
       0.0037544258 -0.0014303768 -0.0049045496 0.006685126
000290 42 71 01 bc af 0b 56 3b ff 28 bb 3b 9f 8d 53 3b
       -0.007900538 0.0032660773 0.005711674 0.0032280458
0002a0 96 ed 49 bc 98 3e 23 bc 24 ab 0f bb 47 35 e7 ba
       -0.012324711 -0.009963654 -0.0021922076 -0.0017639779
0002b0 47 4d 7d bc aa 85 16 bc ba 5a b1 3b 07 41 22 bb
       -0.015460319 -0.009187141 0.005412427 -0.0024757998
0002c0 e0 68 bb 3b 5e 01 af 3b 44 16 c5 3a 20 25 17 3b
       0.005719289 0.005340739 0.0015036543 0.00230629
0002d0 23 aa 7a 3b 57 5e 5b 3c 9e 05 80 3c 37 62 5f bb
       0.0038248382 0.013389192 0.015627678 -0.003408564
0002e0 9f c4 e3 3b 53 2e 39 bb c7 35 5b 3b 17 55 3f 3c
       0.0069509293 -0.002825637 0.0033448802 0.011678002
0002f0 3e d9 bb 3b 9b 06 17 bb 1b a3 9b 3b 4e 8d 1c 3b
       0.0057326844 -0.0023044709 0.0047496683 0.0023887935
000300 b4 eb 8e bb 01 dc 05 bb 7d 8e 76 3b 78 ee 82 bb
       -0.004361594 -0.0020425322 0.003762155 -0.003995713
000310 f8 fd 07 3c af e0 4c bc 48 fa 7a bc df f0 2f bc
       0.008300297 -0.012504741 -0.015318461 -0.0107385805
000320 37 35 21 3c 59 df 8a bb 84 4d 24 bc 2d a8 8b 3b
       0.009839348 -0.004238051 -0.010028247 0.0042619915
000330 2f b7 d7 bb bc 3d 0f 3a 8b 66 b4 3b ed e4 9c 3a
       -0.0065831165 0.0005464216 0.005505388 0.0011970081
000340 45 aa 86 bb 0c 57 0e bc 57 4f 50 b9 bd 35 7f ba
       -0.004109653 -0.008687746 -0.00019865982 -0.00097354857
000350 c8 ee 3f 3c 25 6d 5e bc e3 3e f7 b9 a5 f0 c3 bb
       0.011714645 -0.013575827 -0.00047158365 -0.005979615
000360 98 6f ce 3a f5 a6 09 3c a3 83 04 3c 4c 50 32 3b
       0.001574981 0.008401622 0.008088025 0.0027208505
000370 3f 28 98 3c c7 21 fa bb 53 20 58 bb 95 09 5b 3c
       0.018573878 -0.007633421 -0.003297825 0.013368984
000380 a0 b0 70 3c e3 28 85 3c 5e a3 13 bc eb bf c3 3c
       0.014690548 0.016254848 -0.009011118 0.023895225
000390 d0 63 e7 3b 63 82 9d bb 72 8d 10 3b 2f 67 86 bb
       0.007061459 -0.004806803 0.0022056964 -0.004101656
0003a0 4a 81 54 3c a7 03 b8 3a f7 90 71 bc de 49 1f 3c
       0.012970278 0.0014039174 -0.014744035 0.009722201
0003b0 45 b0 82 3b fd ac eb bb 4c c8 13 bc d7 b8 35 bc
       0.003988298 -0.0071922527 -0.009019922 -0.0110914325
0003c0 de 84 25 3a 98 69 00 bc 45 49 62 bb 71 65 0c bc
       0.0006314049 -0.0078376755 -0.0034528535 -0.008569107
0003d0 f3 71 2d bb ab a5 bc bb f3 22 83 3b f3 be 3f 3c
       -0.0026465624 -0.005757054 0.004001969 0.011703241
0003e0 77 48 d7 3b cf a2 a9 bb 61 a2 8a 3c 7f 70 de 3b
       0.006569918 -0.005176879 0.016923131 0.006788313
0003f0 e2 df 50 3b f9 84 b0 3b e8 32 35 ba 87 90 04 bc
       0.0031871726 0.0053869453 -0.00069121877 -0.008091099

action_model._discrete_distribution.branches.0.bias f4 [5]
000000 00 00 00 00 00 00 00 00 00 00 00 00 00 00 00 00
       0.0 0.0 0.0 0.0
000010 00 00 00 00
       0.0
