results/Test1/Fetch.onnx (onnx, 74608 bytes, 6 tensors)

network_body._body_endoder.seq_layers.0.weight f4 [128, 6]
00000000: f739 133e 014c d9be 417e 3dbf 04e3 8bbe
00000010: 8b71 803e 39b3 eabd 7618 893d 9f91 c23e
00000020: 4e64 e3bc 9565 063f 5f35 5d3e 0146 c4bd
00000030: e99a 08be c52f 823f f535 c2bd 11ea 96be
00000040: f585 9abe 458a 39be 5080 b13d cab0 6bbe
00000050: 4da0 5d3b 7c35 35bf 3904 b33c 6251 823e
00000060: 8ff8 123e f021 ea3e d946 293f b4ec 5a3f
00000070: 471a 2ebf 9dd0 90be bd1e 133f 95f2 0e3f
00000080: 950a 5f3e a5f5 9abe c9e1 8abd 4cf7 cbbe
00000090: 6705 13bb 9363 2dbe e74e 273d e269 0cbf
000000a0: 8a0b ad3e dcd6 79bd 124a 55bc 27dc 53bf
000000b0: 2eba 693e 822e a93e 5345 4d3f 8d42 7fbe
000000c0: 9493 583e 2d40 623d 2f0e 283f 3182 1b3e
000000d0: a462 953e bb69 583e 14f2 b6be 4006 dc3d
000000e0: 9fa6 c6bd 21a8 413f c8ab 11bf 9f96 dc3e
000000f0: 251b 87be bedf e3be aa4f cfbc f431 db3e
00000100: 368a d03e 97c2 013e f119 f9be 5828 b73e
00000110: 1d13 d03e 257f 743e 1986 8d3d abeb 813e
00000120: bbd1 45be 5f33 493b 02b4 003f 1837 b53e
00000130: 4758 28bf 6460 69bf 4ac4 4a3c 81c8 ef3d
00000140: 183d da3b 999c 25bf cc66 2bbe 6611 2f3f
00000150: d9b4 2dbd 1acf 4fbe a4fa 95be 75fd babe
00000160: f3cc 27bf 6ca5 a83d 6f31 3f3f 7033 c4bd
00000170: 597f 7dbe 114d f5bc b017 babd 05d5 bcbe
00000180: ec7f 033f da03 913e 70e6 c2be 925d 06bd
00000190: 4a69 febd 9974 49be 62da fdbe 13d0 20be
000001a0: 2f7b 44be e6b4 c9be ec6e 4f3f fd52 e73e
000001b0: 32c1 c4be 1943 aabe 1738 bcbe ab28 16be
000001c0: 9fb7 0e3f 6832 9e3e c67f 9ebd 0db5 0d3c
000001d0: 51de 0ebf 9dd1 1e3f acf1 e43e eb9f 34bc
000001e0: b89e 80be 6cdb 873e 3eee aa3c 9874 98bd
000001f0: f92d 27be dcb7 5b3f 9262 40bd 7fd2 3dbf
00000200: 2841 30bf 8748 9a3e b9c7 f0be 944c a5be
00000210: 3f0b 57bf 9b94 883e 6131 973e 01fe 603e
00000220: 0120 37bf 8ecb 9c3e 8cf3 03bf e749 e73e
00000230: fc63 833e f988 073d 6bda 353f 73be 0a3f
00000240: 678c 53bf d37e c63e 4632 90bd d247 58bf
00000250: c5ce 263f 8ed2 af3e 2db0 073f 4617 403e
00000260: 4afc 55be dfe0 25be 20fc 33bf 6e01 213f
00000270: 46a0 333e 37e2 0b3f 4872 73be a96b c0be
00000280: 3959 1abe a408 cc3e b60c d5be 69a1 23bf
00000290: 92dc 4f3e 7d7a 86be 41d1 313f f037 b73e
000002a0: d85d 37bf 85d5 793c 4417 d33e a096 1fbd
000002b0: 7e8e f6bd 6762 0b3f 3978 ca3d 1f51 113e
000002c0: 3eff f0be 515b 71be 1dae 43bf 51c8 623e
000002d0: c2fa 383d 1e7f 4dbe 79ce 923e 9a89 d3be
000002e0: 1c0f 0ebe 844f 78be a79e febe 40ca 04be
000002f0: 9ac3 2bbf d010 34be 1bb5 f83e ea66 ca3e
00000300: cd43 d23e c78e 323b 0309 733d 30dd 18bf
00000310: 8a5f 963e 8ee8 8abe 3bb4 61be 1dd3 223e
00000320: 2609 c6bd f4d6 f03e b16d 103f c1d9 09bf
00000330: 9b56 5b3c cf14 1f3d 0cb2 8ebe 770c 21be
00000340: 18cf 20bf 2282 b0bd f5e0 c8be 50db db3e
00000350: 4834 8abd 193a 92bd 7540 d7bd 6e8a 1f3e
00000360: 3278 92bd df2b 613e 70e6 343e 0472 813e
00000370: 5659 a7be 17b4 913d e9bd 92be 0f29 5cbb
00000380: 9bb9 c7be 39e7 413d 0ac6 873e 506e 753d
00000390: 9e7e 8d3c 98dd 493e 3533 ad3e 1e3f d9be
000003a0: 3c19 1ebf ffac 39bf e707 5dbd ee25 aabe
000003b0: 9f53 f2be b784 2d3d cf41 453f f8f1 1bbe
000003c0: 255d e03e 2995 e6be ed89 9a3e 2891 9dbe
000003d0: da45 d6be 83ea 333d 9830 e2be d7df 0cbf
000003e0: 5edb c83e 6086 fe3c a38b 153d 4295 a2be
000003f0: fa7c 7c3e b833 f2bc cfc6 bfbe bce5 a13e
0.1437758 -0.424408 -0.74020773 -0.27321637 0.25086626 -0.11459965 0.06694119 0.38001725
-0.02775779 0.5249875 0.2160239 -0.09583665 -0.13340344 1.0170828 -0.09482948 -0.29475453
-0.30180326 -0.18119152 0.08667052 -0.23016658 0.003381747 -0.70784736 0.0218526 0.25452715
0.1435263 0.45729017 0.6612373 0.8551743 -0.68008846 -0.2828416 0.5746878 0.558389
0.2178138 -0.30265537 -0.06781346 -0.3983711 -0.002243364 -0.16932516 0.04084673 -0.54849064
0.33797866 -0.06099592 -0.013018148 -0.827578 0.22824928 0.33043295 0.80183905 -0.24927731
0.21150047 0.055236984 0.6564664 0.15186383 0.2917682 0.21134083 -0.35731566 0.107433796
-0.09699749 0.7564717 -0.5690274 0.43083665 -0.26387897 -0.4450664 -0.025306541 0.4281155
0.40730447 0.12671886 -0.48652604 0.35772967 0.40639582 0.23876627 0.06910343 0.25375113
-0.19318287 0.0030700786 0.5027467 0.35393596 -0.657597 -0.91162705 0.0123759005 0.11708165
0.006660115 -0.64692074 -0.16738433 0.6838592 -0.042408798 -0.20293847 -0.29292786 -0.36521497
-0.655471 0.08234677 0.74684805 -0.095801234 -0.2475561 -0.029943975 -0.09086549 -0.3688127
0.5136707 0.2832325 -0.38066435 -0.03280408 -0.12422426 -0.19673385 -0.49580675 -0.15704374
-0.19187616 -0.39395827 0.8102863 0.45180503 -0.38428646 -0.33254316 -0.36761543 -0.14663951
0.55748934 0.30897832 -0.077392146 0.008649123 -0.5580798 0.62038594 0.4471563 -0.011024456
-0.25121093 0.26534593 0.020865556 -0.074441135 -0.16326131 0.8582742 -0.046969004 -0.74149317
-0.6884942 0.3013346 -0.47027376 -0.32284987 -0.84001535 0.26675877 0.2952986 0.21971895
-0.7153321 0.3062405 -0.515435 0.4517357 0.2566222 0.03308961 0.71036404 0.5419685
-0.8263611 0.38768634 -0.07040839 -0.8448459 0.65159255 0.34340328 0.530032 0.18758878
-0.20897022 -0.16199063 -0.7030659 0.62892807 0.17541608 0.5464205 -0.23774064 -0.37582138
-0.15073098 0.39850342 -0.4161126 -0.6391817 0.20298985 -0.26265326 0.6945992 0.35784864
-0.7162757 0.015248661 0.41228688 -0.038962007 -0.12038897 0.54447025 0.09886212 0.14191101
-0.47069734 -0.2356999 -0.7643755 0.22146727 0.045161016 -0.20068023 0.2867315 -0.4131592
-0.13872951 -0.24249083 -0.49730417 -0.12967777 -0.6709534 -0.17584538 0.48575673 0.39531642
0.41067353 0.0027245746 0.059334766 -0.59712505 0.29369766 -0.2713055 -0.22041409 0.15900846
-0.09669714 0.47038996 0.56417376 -0.5384789 0.013387348 0.038838204 -0.27870214 -0.15727411
-0.62816 -0.08618571 -0.3923413 0.4294076 -0.06748253 -0.071399875 -0.10510341 0.1558015
-0.07151832 0.21989392 0.1766603 0.252823 -0.32685345 0.071144275 -0.28660515 -0.0033593809
-0.39008793 0.04733965 0.2651828 0.059919655 0.01727229 0.19713438 0.3382813 -0.42430967
-0.61757255 -0.72529596 -0.053962614 -0.33232063 -0.47329423 0.042362895 0.7705354 -0.15229023
0.43821064 -0.45035675 0.30183354 -0.30774808 -0.41850168 0.04392482 -0.441777 -0.5502905
0.39229864 0.031069934 0.03651012 -0.317545 0.2465705 -0.029565677 -0.37456366 0.31620586

network_body._body_endoder.seq_layers.0.bias f4 [128]
00000000: 0000 0000 0000 0000 0000 0000 0000 0000
00000010: 0000 0000 0000 0000 0000 0000 0000 0000
00000020: 0000 0000 0000 0000 0000 0000 0000 0000
00000030: 0000 0000 0000 0000 0000 0000 0000 0000
00000040: 0000 0000 0000 0000 0000 0000 0000 0000
00000050: 0000 0000 0000 0000 0000 0000 0000 0000
00000060: 0000 0000 0000 0000 0000 0000 0000 0000
00000070: 0000 0000 0000 0000 0000 0000 0000 0000
00000080: 0000 0000 0000 0000 0000 0000 0000 0000
00000090: 0000 0000 0000 0000 0000 0000 0000 0000
000000a0: 0000 0000 0000 0000 0000 0000 0000 0000
000000b0: 0000 0000 0000 0000 0000 0000 0000 0000
000000c0: 0000 0000 0000 0000 0000 0000 0000 0000
000000d0: 0000 0000 0000 0000 0000 0000 0000 0000
000000e0: 0000 0000 0000 0000 0000 0000 0000 0000
000000f0: 0000 0000 0000 0000 0000 0000 0000 0000
00000100: 0000 0000 0000 0000 0000 0000 0000 0000
00000110: 0000 0000 0000 0000 0000 0000 0000 0000
00000120: 0000 0000 0000 0000 0000 0000 0000 0000
00000130: 0000 0000 0000 0000 0000 0000 0000 0000
00000140: 0000 0000 0000 0000 0000 0000 0000 0000
00000150: 0000 0000 0000 0000 0000 0000 0000 0000
00000160: 0000 0000 0000 0000 0000 0000 0000 0000
00000170: 0000 0000 0000 0000 0000 0000 0000 0000
00000180: 0000 0000 0000 0000 0000 0000 0000 0000
00000190: 0000 0000 0000 0000 0000 0000 0000 0000
000001a0: 0000 0000 0000 0000 0000 0000 0000 0000
000001b0: 0000 0000 0000 0000 0000 0000 0000 0000
000001c0: 0000 0000 0000 0000 0000 0000 0000 0000
000001d0: 0000 0000 0000 0000 0000 0000 0000 0000
000001e0: 0000 0000 0000 0000 0000 0000 0000 0000
000001f0: 0000 0000 0000 0000 0000 0000 0000 0000
0.0 0.0 0.0 0.0 0.0 0.0 0.0 0.0
0.0 0.0 0.0 0.0 0.0 0.0 0.0 0.0
0.0 0.0 0.0 0.0 0.0 0.0 0.0 0.0
0.0 0.0 0.0 0.0 0.0 0.0 0.0 0.0
0.0 0.0 0.0 0.0 0.0 0.0 0.0 0.0
0.0 0.0 0.0 0.0 0.0 0.0 0.0 0.0
0.0 0.0 0.0 0.0 0.0 0.0 0.0 0.0
0.0 0.0 0.0 0.0 0.0 0.0 0.0 0.0
0.0 0.0 0.0 0.0 0.0 0.0 0.0 0.0
0.0 0.0 0.0 0.0 0.0 0.0 0.0 0.0
0.0 0.0 0.0 0.0 0.0 0.0 0.0 0.0
0.0 0.0 0.0 0.0 0.0 0.0 0.0 0.0
0.0 0.0 0.0 0.0 0.0 0.0 0.0 0.0
0.0 0.0 0.0 0.0 0.0 0.0 0.0 0.0
0.0 0.0 0.0 0.0 0.0 0.0 0.0 0.0
0.0 0.0 0.0 0.0 0.0 0.0 0.0 0.0

network_body._body_endoder.seq_layers.2.weight f4 [128, 128]
00000000: e315 96bc fc9e 1bbe 36ae 5dbe a622 83bd
00000010: 6c8c 3cbd af83 e43d 7299 07be c045 4cbc
00000020: ed1d 4b3d 8ab4 8dbe 6c13 1abe d3f2 df3a
00000030: b383 14be e30f c23d 3651 0cbc f879 96bd
00000040: cc90 713d 0260 a2bc 718b a93d 341d fe3c
00000050: cf48 c63c 6e70 073d 4f49 aebd 93a2 98bd
00000060: 6a28 11bc 1160 df3c 74b4 dbbc 9f9a 413d
00000070: 4150 6f3d 4ce8 19be 3c9f 50be e88a 48bd
00000080: e1cc b43d 8496 3a3e dffa dcbd 1f35 343d
00000090: def1 2bbd 4b65 f3bd 2d55 3fbd 51a3 1ebd
000000a0: 740d 0e3d 7ef3 a73c c604 8abd 5250 fe3d
000000b0: a28d 843d 83f0 b13b 5a9e 59bd 7a2f df3d
000000c0: cdd0 15bd 8687 073e 3531 8b3d 11ad d83d
000000d0: 5cfb a83c 13b8 e03c c8bc b13d 9f45 a3bd
000000e0: 5b3a c73d 6dea 873d f80d 73bd af38 593d
000000f0: 2513 00be 399d 7cbd 4c5d 84bd 1cc0 83bc
00000100: 4dd9 223e e288 c03b 9c4b d83c 16e2 af3c
00000110: 0fc9 cf3c 9bf9 fd3c 6710 98bc f1df 0b3e
00000120: a5fb 1abe 4135 233d 9c9c 533d bcab 2dbc
00000130: 86b5 83bd 97ff 42bd aff7 413d 72e5 01be
00000140: 308c 2c3d fd69 b1bc dd0f b33d d06f 4ebd
00000150: ebb2 f23c c6d2 bf3d 6bae 743c 5701 5bbe
00000160: f03d a1bd d3e4 58be f880 28be 0b5e 8d3c
00000170: 0bab b2bc d675 28be 5437 b3bc db3b b5bc
00000180: d774 743b f97e a0bd 97d7 f4bd 0a1b 9fbd
00000190: 5513 d33d 8fc5 613d d454 a03d ece4 dfbd
000001a0: 3c43 963c 4e9a 34be 9478 263d d86c d8bd
000001b0: 5f66 cb3d 3830 b1bd 805f 653d 2ee7 293e
000001c0: 5d72 80bc 0bc5 b4bd 3214 5bbd e083 28bc
000001d0: 0775 66bd f46a 293d 1cd0 91bb 9159 3ebd
000001e0: 14f2 1cbe 302f 073e 2499 12bb b1c8 a03d
000001f0: 8902 c8bc 3128 10bc 117c 143a 697a 233d
00000200: dd0f 283c a2a6 9f3d 661e ec3c 77ae 15be
00000210: 2d61 9a3b eb9e 2ebe f0c2 123b d0c1 433d
00000220: a68b 9d3d 6624 ae3d 9c58 30bc 6d4d d73a
00000230: ccc9 96bd f4ef bfbd 1079 37be 5806 2d3d
00000240: 978f 00be 66ea e93d 58e2 5bb7 f808 25be
00000250: 13e1 49bc 07c2 1ebd 52f6 2d3d ec65 453e
00000260: 6cdc 163c fc1c c73d 57ed 9fbd 3b80 f4bc
00000270: 1b3f 123e 3118 f4bd a73a bc3b a1ed f63d
00000280: 7825 a83d 3d05 e73c 948e 6dbd 9828 a73d
00000290: c692 babd 00fd 42be 17a5 bc3c 5e0e dfbd
000002a0: 8ae5 93bd 9de7 a83c 97d6 053d 894b 27be
000002b0: 6774 0fbe 6a2e a43d 34da f7bd 77bb 96bd
000002c0: e343 4e3c f2f8 09be 7a39 533d 3d84 423d
000002d0: 5a12 d13d 3020 a13d 9572 b2bd 604c aebc
000002e0: 95e1 4b3d 8a0e 05be 66d1 f7bd e876 1dbe
000002f0: 50fd 083e 9a5c a3bc 42d3 f53d de9a 86bd
00000300: 16a1 8ebc 2f3c 59bc 9778 47be 31fd 65be
00000310: 8681 05bd 1ab7 6d3c a299 0bbc fbcb b03d
00000320: 0ade b1bd 007b 263d 3b20 88bd e596 a33d
00000330: 977a ddbb 2d1a a3bd 6adf 773b 2d36 a1bd
00000340: 6835 0e3d e0a6 e6bc e46f a2bc fe51 14be
00000350: 187f 573d b1ab 623d 4a60 fdbc 6128 b93c
00000360: 3d5b 35bc 40e9 ca3d d29d 793d 32cc 1b3e
00000370: 904d 86bb 2449 85bc 707f c6bd 3e24 d0bc
00000380: b789 4b3c 88e0 d9bd 01ef a7bc 9a18 023e
00000390: e379 efbd 26d1 24be 2a7a f83d 7391 c03d
000003a0: bdd1 10be c43b a4bd 7c5e eabd 7bb0 f6bc
000003b0: a324 64bc 45e5 e5bd b4f4 a23c 4752 ce3d
000003c0: de20 c93d cc7a 4abe e73d 1abe 7dd9 96bc
000003d0: 8e1d b93a 1cd1 5cbd 3af8 6fbd 7db9 8abd
000003e0: eb83 963d 63e3 e2bd f892 8fbd a4c6 df3c
000003f0: 3591 033e 78d5 2abc 8551 b6bc b9b0 e13c
-0.018320983 -0.15197366 -0.21648487 -0.06403093 -0.046032354 0.11157929 -0.13242128 -0.012467802
0.049589086 -0.27676803 -0.15046471 0.0017085917 -0.14503364 0.094756864 -0.008564284 -0.073474824
0.05897598 -0.01982117 0.082785495 0.031019785 0.02420464 0.033066206 -0.08510076 -0.074528836
-0.008859733 0.027267488 -0.026819445 0.0472666 0.058426145 -0.1503002 -0.20373243 -0.048960596
0.0882814 0.1822148 -0.10790037 0.043995973 -0.04197871 -0.118845545 -0.04671209 -0.03872997
0.0346808 0.020501848 -0.06739192 0.12417664 0.06472327 0.0054302826 -0.05312953 0.10897727
-0.03657608 0.13235292 0.06796495 0.10579885 0.02062767 0.027431523 0.08678585 -0.079722635
0.09727927 0.0663651 -0.059339494 0.053032573 -0.12507303 -0.061673377 -0.064631075 -0.016082816
0.15903206 0.0058756927 0.02640324 0.02147011 0.025364427 0.03100281 -0.018562509 0.13659646
-0.15135057 0.03984571 0.051663026 -0.010600027 -0.06431107 -0.04760703 0.04735535 -0.12685183
0.04212588 -0.021656984 0.0874326 -0.0503996 0.02962633 0.09366374 0.014934163 -0.2138723
-0.07873142 -0.2118104 -0.16455448 0.017256757 -0.021810075 -0.16451201 -0.021876968 -0.022123268
0.0037301087 -0.07836718 -0.11955183 -0.07768829 0.10306422 0.055120047 0.0782868 -0.10932335
0.018342607 -0.17636988 0.040642336 -0.10567635 0.09931635 -0.08651775 0.05599928 0.16592094
-0.015679533 -0.088266455 -0.053486057 -0.010285348 -0.05626395 0.041361764 -0.0044498574 -0.046472136
-0.1532672 0.13201594 -0.002236911 0.07850779 -0.024415271 -0.008798645 0.0005664239 0.03991166
0.010257688 0.077954546 0.028823089 -0.14617334 0.0047112913 -0.1705281 0.0022394024 0.047792256
0.076926515 0.08503036 -0.010763314 0.0016426273 -0.073627084 -0.09371939 -0.17917275 0.042242378
-0.12554775 0.11421661 -1.3106117e-05 -0.16116703 -0.012321728 -0.038759258 0.042471237 0.19277161
0.009207826 0.09722325 -0.07808941 -0.029846301 0.14281885 -0.11918677 0.0057442966 0.12057043
0.082102716 0.02820074 -0.0579973 0.081620395 -0.09110026 -0.19041824 0.02302794 -0.10891412
-0.072215155 0.020618254 0.032675352 -0.16337408 -0.14009248 0.08016665 -0.12102166 -0.07359975
0.012589428 -0.13473871 0.051568486 0.047489394 0.102085784 0.078674674 -0.08713261 -0.021276653
0.04977568 -0.12993827 -0.121004865 -0.1537739 0.13377881 -0.019941617 0.12003185 -0.06572507
-0.017410796 -0.013258978 -0.19479595 -0.22459866 -0.032594226 0.014508987 -0.008520516 0.08632656
-0.08684929 0.040644646 -0.066467725 0.07987765 -0.0067589986 -0.07963977 0.0037822374 -0.07871661
0.0347189 -0.028155744 -0.019828744 -0.14484403 0.05261144 0.05533952 -0.030929703 0.022602262
-0.011069116 0.0990777 0.060941525 0.15214613 -0.0040986016 -0.016270228 -0.096922755 -0.025407907
0.0124229705 -0.10638529 -0.020499708 0.12704697 -0.1169317 -0.16095409 0.12132676 0.09402742
-0.14142509 -0.08019212 -0.11443803 -0.03011345 -0.0139247505 -0.1122537 0.019892074 0.10074287
0.09820722 -0.19773406 -0.15062676 -0.018414253 0.0014123188 -0.05391036 -0.058586337 -0.0677366
0.0734938 -0.11078527 -0.07010454 0.027316399 0.12848361 -0.0104268715 -0.022255668 0.027550088

action_model._continuous_distribution.log_sigma f4 [1, 2]
00000000: 0000 0000 0000 0000
0.0 0.0

action_model._continuous_distribution.mu.weight f4 [2, 128]
00000000: b5aa 65bd c9a2 0c3b 97e6 89bc 0a84 1abc
00000010: b9a7 9d3c 85af 78bc 2bc8 5c3c 220e aebc
00000020: 7f9b c63c 9a98 b2bc 5df3 8d3c 13ee e03a
00000030: d568 263d 3360 353c 8b00 80bb 42d5 47bc
00000040: a101 1e3c 1d5c 87bb 1d34 273c 52c1 8d3c
00000050: 83f9 89bc 98e4 6e3c 77a8 a739 9a3e 2c3c
00000060: d33a c8bc 6ea8 bf3b 1553 a43b 67ba af3b
00000070: 73e7 503b a78e 37bc 6788 e03b f9c2 013d
00000080: 682b 7f3c d797 223d 8af3 a83c 078f 22bc
00000090: 6d14 513c 9333 273c b349 b3bb 4344 b7bc
000000a0: e356 063d 5871 e13b c9b8 9f3b 36e0 ca3b
000000b0: 298e 3fbb 79b9 36ba 7ac0 ed3c 629e f43b
000000c0: 024b 963c b151 c1bc 4503 92bb f5e3 f43c
000000d0: 5783 5c3b 53c7 9d3b 8e82 ab3b d043 d03c
000000e0: 0f44 f5ba 2a0f cf3c 4ae9 873b 1f78 673a
000000f0: 950f 59b9 13ae 27bc f267 413c effb b8bb
00000100: 572b b7bc 25df eebc 27f3 cfbc 4a16 f03b
00000110: 7a9c b7bc bfa1 24bc db41 7fbb d67e 843c
00000120: 13cb 2bba a582 72bc 8a2d c0bc f75c e1bb
00000130: 0718 b1b8 3dc0 60bb 3f0d 58ba 6711 a93b
00000140: 2356 9b3c 2c4d bbbb 9452 9ebc 7247 79bc
00000150: ff01 24ba d27d ce3c f82f debb d72b d03c
00000160: ac7a 02bc 8f14 e03c 0652 333c fdd6 35bc
00000170: bd9f 273d d721 0e3d 9ad3 163b 2163 143d
00000180: d050 4a3c 3732 97bb 9874 9ebc 3d64 32bc
00000190: 0015 253d dd56 8f3b 9228 673c 77f6 dc3c
000001a0: cb44 00bc afd4 b43c 638b 8a3b 7b77 743c
000001b0: 45af 56bb fa15 5b3c af88 f8b9 109b b1bc
000001c0: 8b87 3abc 486a cdbb 081a fa3c b3e4 3538
000001d0: 3f27 ab3c ab2e 84bb 9340 aa3b 8d08 79bb
000001e0: 0256 6cb9 1ac0 54bb bb2c d23b e117 113c
000001f0: 09e8 9d3b 5385 183d 7bf4 1f3a efe7 603d
00000200: 8ab7 143c 0dc2 f0b9 2a3b d0bb b3c8 233c
00000210: 6781 ad3c 0405 a63b 53f3 0bbd f3d6 a33c
00000220: 4b45 68bb cbf1 233c 1507 7b3c cf8a 1e3d
00000230: 34e6 2b3b d71e f33b 5a10 603c 5502 6abb
00000240: 0066 66bb 172b 043c 3fb8 bfbb af7a 923c
00000250: 7ed9 c7bb 532f 44bb 7e1b 113c e779 14bd
00000260: 0a7d 8a3c 9ccf 843c ad1b 39bc c3b1 f2bb
00000270: 8c10 8dbb 9830 a03b 408d 35bc f96d 253d
00000280: a362 d23b c61d 3aba ccb7 0b3c 6d1f 5d3b
00000290: 0995 a0bb 629a d0bc 3bb3 983c 6c65 13bc
000002a0: 477f 7d3c c754 64b8 05e3 57bb 78dc 093d
000002b0: 0019 273d e865 1f3c 191d 1fbd e73c db3c
000002c0: 1b6d ac3c 6476 95bb 925f 6bbc 6553 4dbb
000002d0: 5b33 9c3c 9fa1 83bb 4aa0 f93c 6851 eabc
000002e0: a990 80bc 87a9 493c 2d78 ae3c 5dfe 80bc
000002f0: ff79 293c 3f3c 00bd bcc4 21bc 1d8c 6e3c
00000300: 306a d03c 56ac b5bb 28da f7bb dce3 bf3c
00000310: eb06 0e3b fc14 0c3c 2b76 a6bb 9cf0 003c
00000320: 9678 483c a836 ecba c2ae 77bb 5fb7 793c
00000330: 5cc2 203a 53f4 9d3c 428b a9b9 48d0 fe3c
00000340: 3b8a b1bc b7c6 883c 5295 ebbb 3722 0dbc
00000350: fa22 7c3c 6aa3 0e3d 48a7 d1bb 3dff 7c3c
00000360: 25c7 0d3c d033 923c efd8 653c fdbd da3c
00000370: 784a dd3b d781 453b e568 41bc 3f04 49ba
00000380: cf57 2ebc a3a0 dd3c 0fce 953c a798 1b3c
00000390: 800b 833b a366 583c eaf6 86bc e3cd 513b
000003a0: be1b 91bc cd22 14bd 16ea 42bb 49f2 a1bb
000003b0: 0325 b7bc e839 c03a 0a42 fbbc d325 0cbd
000003c0: 81c7 2dbc 3a77 fabc c73c 2c3a 809e 5e3c
000003d0: f238 74bc f71b 0d3c a766 8739 ae40 96bc
000003e0: d8dd 303c 62cd ecbb 9ba7 17bb 2b7b 27bd
000003f0: fb0d 743c 9ac0 89bc bdcb abbb d191 cc3b
-0.056071002 0.0021459332 -0.016833587 -0.009430895 0.019245015 -0.015178566 0.013475458 -0.021246973
0.024244068 -0.021801282 0.017327959 0.0017160795 0.04062732 0.011070299 -0.0039063147 -0.012196841
0.009643943 -0.004130854 0.010205296 0.017304096 -0.01684261 0.014580868 0.00031978238 0.010512972
-0.024442112 0.005848936 0.005014787 0.005362797 0.0031876236 -0.011203445 0.006852198 0.03168008
0.015574314 0.039695587 0.020623941 -0.009921796 0.012761218 0.010205167 -0.005471432 -0.022371417
0.032797705 0.0068799667 0.004874323 0.006191279 -0.0029229021 -0.00069703866 0.029022444 0.0074651698
0.018346313 -0.023598524 -0.004455956 0.029893855 0.003364762 0.004815021 0.005234069 0.02542296
-0.00187123 0.025275785 0.0041476833 0.000882985 -0.00020700537 -0.010234374 0.011804568 -0.005645267
-0.022359533 -0.029159138 -0.025384499 0.007326876 -0.022413481 -0.010048329 -0.0038949165 0.016173761
-0.0006553393 -0.014801656 -0.023459215 -0.0068775374 -8.444493e-05 -0.003429427 -0.000824172 0.005159545
0.018961972 -0.0057159867 -0.019326486 -0.015214788 -0.0006256401 0.02520648 -0.0067806207 0.02541153
-0.007963818 0.027353553 0.010944849 -0.0110986205 0.040923823 0.03470024 0.0023014308 0.03622735
0.012348369 -0.0046141404 -0.019342706 -0.0108881565 0.04030323 0.0043743686 0.014108794 0.026972992
-0.0078289015 0.022074072 0.004228042 0.0149210645 -0.0032758277 0.013371939 -0.00047404083 -0.021680385
-0.011384855 -0.006268773 0.03052999 4.3366756e-05 0.020892737 -0.0040338836 0.005195686 -0.0037999481
-0.00022538754 -0.0032463134 0.0064140237 0.008855791 0.0048189205 0.037236523 0.0006101799 0.05490869
0.009076962 -0.00045920946 -0.006354709 0.009996581 0.021179868 0.005066516 -0.0341676 0.019999957
-0.0035441692 0.010006378 0.015321513 0.038706597 0.002622974 0.007419448 0.0136757735 -0.0035706956
-0.0035156012 0.008066914 -0.0058508213 0.017880766 -0.006098925 -0.0029935434 0.008856652 -0.036249068
0.016905326 0.016212277 -0.011298102 -0.0074064448 -0.004304951 0.0048886053 -0.01108104 0.04038808
0.00642045 -0.00070997735 0.008527707 0.0033740655 -0.004900579 -0.02546424 0.018640151 -0.008996349
0.01547224 -5.443839e-05 -0.003294171 0.03365752 0.040795326 0.009728886 -0.03884611 0.026762439
0.02104812 -0.0045612324 -0.014366047 -0.0031330225 0.019067457 -0.0040170695 0.03047194 -0.02860327
-0.01569398 0.012308485 0.021297539 -0.01574629 0.010344028 -0.031307455 -0.009873565 0.014559773
0.02544126 -0.0055442257 -0.007563848 0.023424082 0.0021671604 0.008549925 -0.0050800047 0.007869866
0.012235781 -0.001802166 -0.0037793373 0.015241473 0.00061324774 0.019281542 -0.00032337947 0.031105176
-0.021672359 0.016696317 -0.007189431 -0.0086141145 0.015389198 0.034823813 -0.0063981153 0.015441713
0.008653437 0.017846972 0.014028772 0.026701922 0.006753262 0.0030137205 -0.011804794 -0.0007668174
-0.010641052 0.027054137 0.018286733 0.009496844 0.0039991736 0.013208064 -0.01647516 0.0032013587
-0.017713424 -0.036166 -0.0029741577 -0.0049422127 -0.022356516 0.0014665695 -0.030671138 -0.03421576
-0.0106066475 -0.03057443 0.0006570336 0.013587594 -0.014906155 0.008612624 0.00025825688 -0.018341389
0.010795079 -0.007226632 -0.0023140672 -0.040888947 0.014895911 -0.016815472 -0.0052427934 0.0062429686

action_model._continuous_distribution.mu.bias f4 [2]
00000000: 0000 0000 0000 0000
0.0 0.0
