results/Test2/Fetch/Fetch-214832.pt (torch, 441061 bytes, 36 tensors)

network_body._body_endoder.seq_layers.0.weight f4 [128, 6]
00000000: 9199 21bf bdcf 68be cb8f 8fbe a94d 0b3f
00000010: c8e0 7e3f 2249 43bf 29af 7a3e 81f5 e43e
00000020: eacb 3b3d b0cc d23e bbb6 c63e b935 973b
00000030: 2890 833e 4d0f acbe 806d 8c3c 39bc 8b3e
00000040: 0235 823e efda 113e 956a 363e 3078 8a3e
00000050: c581 2cbe 4560 78be d6d4 083f 063d 213f
00000060: 0244 383f dff0 13be d0b8 b03d d6bc a9bd
00000070: 4fb7 89be 2f2d 553d 0616 3dbe 9390 293f
00000080: 0801 953e 11ab aebe 7511 a7be d768 90bd
00000090: 771f f0bd cdb5 49be a7e6 8fbe 4539 223f
000000a0: 3849 0abe 5b5e b53e 945b d4bb 0136 e33d
000000b0: cdde d33c e31e a63e d33f 143f a9ba 613f
000000c0: 73a0 4fbe c1ec fbbe 86bd 40bd 1a09 eebd
000000d0: 0f52 b2bf f23a 663f 1d72 10bf 6dd8 b8be
000000e0: 7778 a53e 752a e63e dbf4 6fbf 418f 00bf
000000f0: ce86 573e ece9 373e b179 24bf 1b89 babe
00000100: b400 a2bd fbff 5d3e 7367 ec3e 9b1d a33d
00000110: 3f96 14bf 3ff4 42be bca3 003e 93f8 03bf
00000120: 81ea 27be 6f1c bebe a40e a2be 2631 40bf
00000130: c58f c2be f1ea 7bbe 3593 463e fb94 723e
00000140: bf7d 643f 4fc8 c2be c217 51bd 5db9 4dbf
00000150: e3e7 ebbc 9f7e 8a3e 6953 2dbf 2e69 f83d
00000160: 913c 94bf 8f4a 5dbd cb36 eb3e 855e 973d
00000170: a7c2 c73e 120a 95be e3fc f13c fea6 133f
00000180: cdda 9a3e e5fe 083f f4bc b2bd 23b9 063f
00000190: 674b e03e d14b 99be 94f6 02be 2ca2 123f
000001a0: ee87 cfbe 855d 053f 5b68 1e3f 9ab6 49be
000001b0: b06c 9ebe 28c1 163f 258e 81be dce8 eebe
000001c0: f29c c7be c9e7 ab3e 9a4c 74be 45fa 6b3e
000001d0: 74ed 6c3e 9f2f 0e3e 1a7f 183d e718 043e
000001e0: a4ce ef3e 4af2 783e fe7f a3be fa6e 4d3f
000001f0: 435a 84be ab92 28bf 3e1c 103f 9068 a53e
00000200: 90be d5be 86ff 81be e768 983d a72c a63e
00000210: d9ed e1be e15f 3cbf 5002 c03e ecb0 5c3e
00000220: 4565 64bd 0482 403e 0aec 193f 32ca e2bd
00000230: d840 ebbd 8f75 19bd d71e e63d 84ef b7be
00000240: bdab 303e 959e 2dbf 4640 bc3e a78c 8a3e
00000250: 398e 583b d393 29bf fb98 573e 1ba9 913e
00000260: 7d43 94be ad40 053f 2283 65bf dcc6 003d
00000270: 8b7a e43e 42a6 0abf a574 2dbf bc0d 99bd
00000280: 7fdd 153c 014d cdbd 12a9 d83d 3c46 473e
00000290: 4141 0d3e da99 7dbe d611 70be d6f7 e63e
000002a0: f5ac 82bc 966c 6cbe 6890 063f 42be c63d
000002b0: 1deb 11bb 8541 ea3e 6618 13bd 0ec3 353e
000002c0: ffb5 ad3d 736f 97be 1ae4 1cbd 48e8 1dbe
000002d0: 39d0 b63c 77f4 543f 185e 163e 4f2b 84be
000002e0: b386 323c e5f1 483f acb4 24bf c41f f43e
000002f0: 603b 483e 903c 55bf 61c5 06bf a8df bb3d
00000300: 153f 13be d9d2 bf3e d964 1a3f 88a9 c13d
00000310: 3c51 c2be e58d dcbd 706e 14bf ce1f 4cbe
00000320: 6bd3 9bbe e212 6bbe 4a93 02be 4d5f 1a3f
00000330: dc1d 8d3c 6594 5dbd 62da ebbe 6236 bd3e
00000340: 7955 37bf 6cd6 e33e 80d5 d7bd 2b0d 0c3e
00000350: d05a f63e 3560 b23e 4c90 37bf 70fc 063e
00000360: 2d1a d3be b6ce 56bf fba4 90bd a724 ce3e
00000370: 1688 643e 0a77 a8be f6cc fbbe bd6c 91be
00000380: 009a 5cbb b92a 1fbe 3e9c 933e 98c5 123e
00000390: aa9e 9f3f 6814 833e be2e c5be 75ca 7c3e
000003a0: 7598 dbbe f1f7 0bbf 04d4 b1be ec29 a23e
000003b0: 8385 1b3f c23a 8d3e 77d6 9bbe c2b5 b4bc
000003c0: e092 2dbe 0a3b a43a e87b d03e 5cd9 e1bd
000003d0: c614 bebe a649 82be da3c f93d af6c 69be
000003e0: 7641 313f 2ce2 943e e10e 0ebe d38d e23e
000003f0: 3700 fd3e e00f 91be 1131 e43d 5f32 23bd
-0.6312495 -0.22735496 -0.28039393 0.54415375 0.9956174 -0.76283467 0.24480881 0.44718555
0.045848764 0.4117179 0.38811287 0.0046145585 0.2569592 -0.33605424 0.017142057 0.2729204
0.25431067 0.14243673 0.17814095 0.2704482 -0.16846378 -0.24255474 0.5344976 0.6298374
0.7197877 -0.14447354 0.08629 -0.08287971 -0.26897666 0.052045044 -0.18465433 0.6623623
0.2910235 -0.34114888 -0.32630506 -0.070512466 -0.117247514 -0.19698258 -0.2810566 0.63368636
-0.13504493 0.3542355 -0.0064806435 0.11094285 0.025863076 0.3244544 0.5790989 0.88175446
-0.2027605 -0.49204066 -0.047055744 -0.1162283 -1.3931292 0.89933693 -0.56424123 -0.3610262
0.3231847 0.44954267 -0.93732995 -0.5021859 0.21047518 0.17960328 -0.64248186 -0.36432728
-0.0791029 0.2167968 0.46172675 0.07964631 -0.5804176 -0.19038485 0.1256246 -0.5155117
-0.1639805 -0.37131068 -0.31651795 -0.75074995 -0.38000312 -0.24601342 0.19392093 0.23689644
0.89254373 -0.38043448 -0.051048048 -0.80360967 -0.028797096 0.2704973 -0.677054 0.121294364
-1.1580983 -0.054026183 0.4594024 0.07391075 0.39015695 -0.29109246 0.029539531 0.57676685
0.30245057 0.5351394 -0.08727446 0.52626246 0.43807527 -0.29940656 -0.12789375 0.57278705
-0.40533394 0.52095824 0.61877984 -0.19698563 -0.30942297 0.58888483 -0.2530376 -0.46662033
-0.38986927 0.33575276 -0.23857346 0.23044689 0.23137456 0.13885354 0.03723059 0.12900124
0.46837342 0.24311176 -0.31933588 0.8024746 -0.25850114 -0.658488 0.56293094 0.32306337
-0.4174695 -0.2539026 0.074418835 0.32455942 -0.44126776 -0.735838 0.37501764 0.21551865
-0.05576064 0.18799597 0.6012579 -0.11073722 -0.11486977 -0.03746563 0.11236351 -0.35924923
0.17253013 -0.678201 0.36767787 0.27060434 0.0033043756 -0.66241187 0.21054451 0.2844933
-0.2895774 0.5205181 -0.8965322 0.031439647 0.44624743 -0.5415994 -0.6775611 -0.07473323
0.009147047 -0.10024453 0.105791226 0.19460386 0.13794424 -0.24765721 -0.23444304 0.4511096
-0.015951613 -0.23088297 0.52564096 0.097042575 -0.0022265383 0.45753112 -0.03591194 0.17750189
0.084819786 -0.29577217 -0.038303472 -0.1542064 0.022316085 0.83185524 0.14684331 -0.25814292
0.010896373 0.784941 -0.64338183 0.47680485 0.195539 -0.83295536 -0.52644926 0.091735184
-0.14379533 0.37465551 0.6031013 0.09456164 -0.37952602 -0.10769252 -0.57981014 -0.19934008
-0.30434737 -0.22956422 -0.12751499 0.6030167 0.017226152 -0.0540966 -0.4606505 0.36955553
-0.71614796 0.44499528 -0.10538769 0.13676898 0.4811616 0.34839025 -0.71704555 0.13182235
-0.41230908 -0.83909166 -0.070627175 0.4026234 0.22317538 -0.3290332 -0.4917981 -0.28403273
-0.0033661127 -0.15543641 0.2883014 0.14333189 1.2470295 0.25601506 -0.38512224 0.24686606
-0.42889753 -0.54675204 -0.34732068 0.3167261 0.607506 0.2758389 -0.3043706 -0.022059325
-0.1695056 0.0012529802 0.40719533 -0.11027786 -0.37125224 -0.25446814 0.1216981 -0.22795366
0.6924051 0.29078805 -0.13872863 0.44248828 0.49414226 -0.28332424 0.11142171 -0.03984296

network_body._body_endoder.seq_layers.0.bias f4 [128]
00000000: aa2a 1b3d fa96 eb3c 7f4a e73c e134 4b3c
00000010: e355 5a3c 118c 703b 4b24 883a 88a8 37bb
00000020: fbb0 d93c b7e9 613d a238 a3bc 7c6f 033b
00000030: 5cba 4dbc 4a3a a73c 047f 10bc 7f28 47ba
00000040: ab19 fd3c cb98 c03c 226b 17bc 4297 d639
00000050: dba2 3a3c 6c6d eb3a 9038 f03c 2a32 4c3c
00000060: 8009 26bc 7359 913d b0a5 e73b 643d 18bd
00000070: fb48 91bb 6c1d 7dbc 95a0 563c 0f07 d1bb
00000080: e598 ca3c 7233 c1bc c698 babb 564f 003d
00000090: 1310 4d3d 0d7f e83b 72e9 003d 80cd 763c
000000a0: a221 7fbb a8b7 2abc ea90 ce3c 6015 983d
000000b0: 4c30 953c 896a a13c 7096 b13b 73fd 93bc
000000c0: f90e 0fbc ec58 1cbc 6d60 b3bb 122b 75bc
000000d0: e97c 06bc 49a1 86bc 2654 bc3a 4e5f 473c
000000e0: 1571 2dbc db60 583c e28f 873b dc82 b43c
000000f0: 9bab b0bb 20ab a43a 52e6 123c cead 123b
00000100: 0975 333b 6420 2d3c a137 75bc 7aab bb3b
00000110: 1297 babc b91c 463b 6d4b 26bc 79d3 5e3c
00000120: 3683 2bbc 34b3 b2bb 6c79 b4bc 52b4 95bb
00000130: 4462 f7bb b2b4 c93b db90 453c c5b8 87bc
00000140: 3eb3 0a3d 4b73 213b 6950 893c 012f d13c
00000150: 81e8 5b3a f72b 803d 4f31 563d 18a3 2eba
00000160: 6b2e a2bb fce3 4e3d be7c 41ba 351e b83b
00000170: 931a 583c ee74 843b e82e 6a3a 78c9 71bb
00000180: 2a8f e13b f491 623c 5e2d cfba 88e8 ac3c
00000190: 1334 3a3c 8d8b 053b c39f b939 8fb1 e8bb
000001a0: 939c 16bc 6073 983c 759f 49bc ad8f a43d
000001b0: 15cb 3f3c 318f 8dbc 05ea 9dbb e3bd 6f3c
000001c0: e76a 163c d754 9bbc bd40 18bd 876f 913c
000001d0: 0b07 af3a 8f2b 23bc 6751 323d cac1 4cbc
000001e0: c2d9 87bc 45c4 083d 2754 ffbb e47c 863d
000001f0: 84de fbbb 4830 783c f1f6 913c b129 21ba
0.037882484 0.028758515 0.028233765 0.012402744 0.013326141 0.003670458 0.0010386793 -0.0028024036
0.026573649 0.05515453 -0.019924466 0.0020055464 -0.012556639 0.020413537 -0.008819345 -0.0007597282
0.030896029 0.023510357 -0.009241851 0.00040929957 0.011391367 0.0017961687 0.029323846 0.012463132
-0.010134101 0.07097139 0.007069312 -0.03716792 -0.004433749 -0.015448909 0.013099809 -0.0063790153
0.024731109 -0.023584101 -0.0056944815 0.03132566 0.050064158 0.0070952238 0.03147263 0.015063643
-0.0038929959 -0.010419764 0.025215585 0.07425952 0.018211506 0.01970412 0.005419545 -0.01806519
-0.008731597 -0.009542685 -0.0054741413 -0.014963882 -0.008208492 -0.016434329 0.001436834 0.0121687185
-0.010586043 0.013206686 0.004137025 0.022035055 -0.0053915507 0.0012563206 0.008966045 0.0022381428
0.002738299 0.010566805 -0.014966876 0.0057272287 -0.022777114 0.0030229522 -0.010149819 0.013600224
-0.010468295 -0.0054534916 -0.022030555 -0.004568615 -0.007549556 0.0061555738 0.012058462 -0.016567597
0.033862345 0.002463537 0.016761975 0.025535109 0.0008388833 0.06258386 0.052293118 -0.0006661876
-0.004949381 0.05051039 -0.0007380954 0.0056188353 0.01318993 0.0040422594 0.0008933381 -0.0036893766
0.0068835216 0.013828743 -0.0015806367 0.021106973 0.0113649545 0.0020377368 0.00035404981 -0.0071012448
-0.009192604 0.018609703 -0.012306084 0.080352165 0.011706133 -0.017280193 -0.004819157 0.014632675
0.009180761 -0.018961353 -0.037171114 0.017753376 0.0013353539 -0.009959116 0.043534663 -0.012497375
-0.016583327 0.033390302 -0.007792014 0.0656679 -0.007686438 0.01514823 0.017817946 -0.0006147875

network_body._body_endoder.seq_layers.2.weight f4 [128, 128]
00000000: a852 573d 6d2f 25be aa4f 003e 4973 86bd
00000010: 1f87 a7bd 1410 ae3b e748 5abd fa9e dd3c
00000020: 7bba 06bd a828 023e 183d 2bbd ebf1 c9bc
00000030: fc86 6bbd fdb9 a63d 20bd d23c 332c fbbd
00000040: 5cee cb3d b676 d13c 5f5c 693d d25f ab3d
00000050: f9f3 97bb 95aa 6d3d fc2d 863d 3e12 7abd
00000060: 2276 ad3c c6fc 2a3e 782c dabd f072 a63d
00000070: 09d5 3d3d 9925 1bbe e9ef 633d 9bd4 ebbc
00000080: 979a 08be d7a8 133d 7091 6c3d 65d7 48bd
00000090: 0de5 d3bd 65e0 1b3e 22b8 a33c 540b 0dbe
000000a0: 3e0c b1bd 750c 98bd 94ab 9a3d 6339 21be
000000b0: c5fd 973d 262c 2a3d 82b8 123d a0b5 aabd
000000c0: c72e 723c b4bf b7bd 4328 a13d c906 87bd
000000d0: 0e8e 56bd 862a debd 200d d33d 09f3 84bd
000000e0: 7a26 a13d be3c 803d 5dc0 f63d 226c 503e
000000f0: d322 f63d 103f 99bb 38f5 a1bb f760 a2bd
00000100: 8325 23be f64d 17bd d773 08bc d693 443b
00000110: 6beb 17be 9ef4 3ebd b93e c73d 829c 04bc
00000120: 0094 f2bd 7289 9a3d 5f5c 84bd 0fac 483d
00000130: caf7 dfbb d191 2b3d 0361 cd3c fd9d 6ebc
00000140: 7848 28be 5b17 ad3d 485c 21bd 3a06 4abd
00000150: 6936 f23d ce03 d33c 4558 bcbb 7209 b6bd
00000160: a55f 64bd 4584 053d 54f3 2dbd 2e89 f6bc
00000170: 34c4 27bd cf87 823b 7908 6cbd d418 cebd
00000180: 96a6 09be 8452 10bd a248 59bc da2b d1bb
00000190: 5dda 87bd 8cdf f13c 9a13 2bbe 7cee 53bd
000001a0: af27 9a3d c498 b13d b4d9 e5bd 017c 0d3e
000001b0: e666 af3d 4148 e8bd 9cec acbd 0af7 13bd
000001c0: e54f 0cbe f41c 4cbc aea8 6e3c de58 b1bd
000001d0: 4ee8 353c 3bd5 0abe e747 313d a2bd 06be
000001e0: b897 a8bd 519f b63d 3e73 64bd cd4c 90bd
000001f0: f892 e3bc 3f24 0b3e 48fe 5d3d d627 bf3d
00000200: d381 b03d c571 ddbd c87f b73d a960 ca3d
00000210: b33c bf3d 2418 3a3d 600d cdbd 68ec b3ba
00000220: 2cf4 603d 20ac 34bd 170f 2c3d 50e6 b43d
00000230: 48a3 1c3e 560e 703d 4e09 f9bd e1fc d13b
00000240: 7139 a8bd 516c 60be 97ab c83d 491f 68bd
00000250: 01c5 34be c313 f5bd 9684 5c3b d376 a53d
00000260: 1402 a7bd 0ec9 b43d 4e3f 863e 5350 5d3c
00000270: 14e4 0a3e df6b db3c b339 a33d af8f 193c
00000280: df5c 77bb 2e4f 9ebd 5bd3 d53d d451 7a3c
00000290: 0083 d3bd ca30 3cbe 8024 c9bd e97f f6bc
000002a0: 4ef6 d4bd 03bd 0ebc a869 e23d 1c8f 663e
000002b0: bda3 49bd e411 123e 8cab f8bd 3b2c 8b3d
000002c0: f8cb 133e 84bb 233d efd5 1d3e 001c 8ebc
000002d0: af25 a0bd 4be9 8d3d b9a9 273d cf8a 55bd
000002e0: d2ab 1e3e 3e12 3ebb a491 be3d 6e46 7cbd
000002f0: 1de3 a83c 2717 1fbc a104 02be 1dc7 06be
00000300: f5c3 5ebd f3ca 713c c6ab f1bc 2ed3 9cbd
00000310: b1da 07be ee76 d23d 2c50 fdbd 9d51 4fbd
00000320: 53f1 a23d fdee ddbb d472 133e 23c5 45bd
00000330: 8c3e a8bd ad51 e33d 94ba 70bc 921d b83d
00000340: 1837 2cbe be9f 503d 481c 9ebc f94f 8cbd
00000350: b8be b9b9 f6b8 a13c 7a1f 05bd 7a97 143e
00000360: f346 87bd 6596 9abd 40ae 413e 3ae3 cebb
00000370: 4d61 e7bb c6f9 3f3c 17b2 e73c 0fd6 393d
00000380: 2f9e b93c 34ae 143e 3478 113e 824e 06be
00000390: 02de 643b f621 d7bc 374c 8dbd 30b8 cfbd
000003a0: bd0e e7bc 857e 64be c3a6 80bd 89d7 e6bd
000003b0: 86e9 62bd ed64 e1bc 1379 4ebe c6e1 31bb
000003c0: a56d 0b3d e0a3 45bd 577c c9bc b1b0 ecbd
000003d0: 6627 c63d 6de6 6fbc cc65 8e3d a790 fabc
000003e0: 67f5 52bc 9172 903c d736 dd3d 7f48 43bd
000003f0: 09b7 f8bd 1959 823c eb9c 81bd 3ad7 b93d
0.05256906 -0.16131373 0.1253039 -0.06564958 -0.08180069 0.0053119753 -0.05329218 0.027053345
-0.032892685 0.12710822 -0.04180631 -0.024651488 -0.057501778 0.08140943 0.025724947 -0.1226429
0.09957573 0.025569301 0.056972858 0.08367886 -0.004637238 0.058024008 0.065517396 -0.061052553
0.021174494 0.16697988 -0.10653013 0.08127391 0.046345744 -0.15151061 0.055648718 -0.028787902
-0.13340221 0.03604969 0.057755888 -0.04903354 -0.10346422 0.15222318 0.019985262 -0.13773853
-0.08644913 -0.07424251 0.07552257 -0.15744548 0.074214496 0.04154601 0.03582049 -0.083354235
0.01478166 -0.08972111 0.078690074 -0.06593091 -0.052381568 -0.108479545 0.10305238 -0.06491668
0.07868667 0.06261586 0.12048409 0.2035375 0.12018361 -0.004676707 -0.0049425624 -0.07928651
-0.15932278 -0.036939584 -0.0083284 0.0029995344 -0.14835899 -0.046620004 0.0972876 -0.008093955
-0.11844635 0.07545747 -0.06462931 0.048992213 -0.0068349587 0.04188711 0.025070673 -0.0145640345
-0.16433895 0.0845172 -0.039394647 -0.049322344 0.11826784 0.02575865 -0.0057478272 -0.0888852
-0.055755276 0.032596845 -0.042468384 -0.03009471 -0.0409586 0.003983475 -0.057625268 -0.10063329
-0.13442454 -0.035234943 -0.013261946 -0.0063834013 -0.06633446 0.02952554 -0.16706696 -0.05174111
0.075271 0.08671716 -0.11223164 0.13816835 0.08564548 -0.11341906 -0.08443567 -0.036124267
-0.13702352 -0.012458075 0.014566584 -0.08659528 0.011102749 -0.13557903 0.043281462 -0.13158277
-0.08232063 0.08917106 -0.055773966 -0.070458986 -0.027780041 0.13588046 0.05419758 0.0933377
0.08618512 -0.108127154 0.08959919 0.09881718 0.09337749 0.04543318 -0.10012317 -0.0013727071
0.05492036 -0.044109464 0.04200658 0.08832991 0.15296662 0.05860742 -0.12159978 0.0064083193
-0.08214081 -0.2191632 0.09798353 -0.05667046 -0.17653276 -0.1196666 0.0033648363 0.080793045
-0.08154693 0.08827411 0.26220173 0.01350792 0.13563567 0.026784835 0.0796999 0.009372636
-0.0037744564 -0.07729946 0.104407035 0.015278298 -0.10327721 -0.18377987 -0.09821415 -0.03009029
-0.103985414 -0.008712056 0.110553086 0.2251553 -0.04922842 0.14264637 -0.12142095 0.06795546
0.14433277 0.03997375 0.1541364 -0.017347336 -0.078196876 0.06929263 0.040933345 -0.05213433
0.15495232 -0.0029002572 0.093051225 -0.061590604 0.020616109 -0.00971011 -0.12697078 -0.13161893
-0.054386098 0.0147578595 -0.029500853 -0.07657467 -0.13267018 0.1027659 -0.12368807 -0.050614942
0.07956185 -0.0067728744 0.14399272 -0.048283707 -0.08215055 0.11099563 -0.014692921 0.08990015
-0.16817892 0.050933592 -0.019300595 -0.06851191 -0.00035428046 0.019741517 -0.03250072 0.14510909
-0.06605329 -0.07548217 0.18914127 -0.0063137086 -0.0070611597 0.0117172655 0.028283162 0.045370158
0.022658436 0.14519578 0.1420601 -0.13115886 0.0034922366 -0.026261311 -0.068993025 -0.10142553
-0.02820527 -0.22313888 -0.06281807 -0.11271579 -0.055398487 -0.027513945 -0.20163374 -0.0027142628
0.034040112 -0.048251987 -0.024595423 -0.11557139 0.096754834 -0.01464234 0.0695301 -0.030586554
-0.012875891 0.017632755 0.108014755 -0.04767656 -0.12144286 0.015911626 -0.06328758 0.09074254

network_body._body_endoder.seq_layers.2.bias f4 [128]
00000000: a30d 09bc 083f 02bc 0817 953b 8efa aebc
00000010: 8831 683b cec4 c8bb 15eb 463c fd44 323c
00000020: 6d2a ba3b 1663 073c f41c ddbb 8f9c 9a3b
00000030: abce 87ba 0c4c de3a 4d77 953c 377e 8a3c
00000040: c91e 9c3c 4207 d73c dbb0 e8ba 19e3 0c3c
00000050: cba4 423c 722d 44bb 1bc7 2bbc 4054 6e3b
00000060: 13d2 59bc 947f d23a 145b 53bc 0026 bd3c
00000070: 013d 503b e431 ac3a 6d99 923b 790b 013c
00000080: 1517 9f3c 9b21 8c3c 3691 c5b9 8c2f b43c
00000090: 18ee dbbb 566c 64bb 7266 2dbc b30a 553a
000000a0: fcda c2ba d3cf 58bc 9300 9a3c 8f97 3cbc
000000b0: f435 f1ba 6951 493c 0a68 f9b9 e13f 693b
000000c0: 63e3 0abb ed42 d73c c040 24bb 681c ba3b
000000d0: cb01 023d 2024 3e3b 6195 763b dc18 473c
000000e0: a129 9b3c 066a c0ba 8260 55bc 2335 2c3d
000000f0: c826 b6b9 312a ba3b 61de 26bb ca1e f1bb
00000100: 534f 183b cd8f a33b cd0f 4c3a 9e10 97bb
00000110: 6ffb fbbb 0efc 043c 4d5a 48bc 934f fb3b
00000120: bd92 babb 6ba9 9abb 5b52 4c3c db56 b0bb
00000130: 1ba0 8e3b a47c 943c 3c3d 673b 83bf e33b
00000140: 813c bd3c 1821 7f3b d9f5 4c3c 9bb4 6cbb
00000150: d2af 203c 0965 e13c e953 0d3d 186b 68bc
00000160: 3f89 3b3b 033b 2fbc 2141 e1ba ff8b bebb
00000170: 39cb 31bc 8ac5 29bb fcf4 1ebb fc87 8bbb
00000180: 2497 f53b 7c8d 2f3c 0dbe ea3b 9ebf 963c
00000190: f8ff 55bb 013c 003d b4f5 bd3b d5fc ce3a
000001a0: 2d85 f6bb 562b 523b b6c5 e33b 997d 3bbb
000001b0: 011a 72bb 8626 823b 1e68 f5bb 8679 f53b
000001c0: f20d f53a ed52 6a3b 6eaa 3dbb 9249 cbbb
000001d0: 2818 f938 6836 dd3b 5a82 6d3a e987 b83c
000001e0: 63c6 ac3a 3dcc a13c 7bda f23c 9fb3 8b3b
000001f0: 4f95 a0bb b646 563c 2557 44bc b3b9 f4bb
-0.008365068 -0.007949598 0.0045498647 -0.021359708 0.0035429914 -0.0061269766 0.012141009 0.010880706
0.005681327 0.00826337 -0.0067478362 0.0047183703 -0.0010361274 0.001695992 0.018245364 0.016905887
0.019057648 0.026248578 -0.0017752902 0.008599066 0.01188011 -0.0029934314 -0.010484482 0.0036366135
-0.0132947145 0.001605975 -0.012900133 0.023089409 0.0031774642 0.0013137427 0.004473856 0.00787627
0.019420186 0.017105868 -0.0003768296 0.021995328 -0.0067117326 -0.0034854612 -0.010583507 0.00081268995
-0.0014866288 -0.013233143 0.018799102 -0.011510744 -0.001840292 0.012287476 -0.00047570496 0.0035591053
-0.0021192662 0.02627703 -0.0025063008 0.005679656 0.03173999 0.0029013231 0.0037625658 0.012151923
0.018940749 -0.0014680035 -0.013023498 0.042042863 -0.0003474264 0.005681299 -0.0025462138 -0.0073584067
0.002324064 0.0049915076 0.0007784337 -0.004610135 -0.0076898853 0.008116735 -0.012228561 0.007669398
-0.005693762 -0.004719903 0.012470807 -0.0053814477 0.004352582 0.01812584 0.0035284301 0.00695032
0.02310014 0.0038929638 0.0125097865 -0.0036118391 0.009807544 0.027513998 0.03450385 -0.014185689
0.002861574 -0.010695222 -0.0017185548 -0.0058150287 -0.010851675 -0.0025905096 -0.0024254909 -0.004258154
0.007494824 0.010714885 0.007163769 0.018401917 -0.003265379 0.031307224 0.0057971124 0.0015791903
-0.0075232 0.0032069287 0.006951059 -0.0028608798 -0.003694177 0.0039718775 -0.0074892184 0.0074912934
0.0018696173 0.0035754994 -0.0028940695 -0.0062038386 0.00011877745 0.0067508705 0.00090602564 0.022525745
0.0013181682 0.019750709 0.029645195 0.004263356 -0.0049006115 0.013078382 -0.0119836675 -0.007468426

action_model._continuous_distribution.log_sigma f4 [1, 2]
00000000: 6f3b c4bb 8c47 3e3b
-0.0059885303 0.0029034344

action_model._continuous_distribution.mu.weight f4 [2, 128]
00000000: 8e34 b13a a39d 133d faea 373c c6d7 e13c
00000010: d785 d33c 9443 6e3b ff5b 92bb a050 b2bc
00000020: e718 fdbc 2687 2abb e7ca 96ba bd32 313d
00000030: 4b02 f93b 5dd0 f13c adb9 ca3c e6b6 1abd
00000040: 94d3 0c3d a965 da3c 2c6e 653c 44a9 d13c
00000050: 5757 333d cdac 59bc 799d 0abd 1d41 84bc
00000060: f580 9bbb 7e77 0dbd 5ee5 a53b 24dd 82bd
00000070: 2803 b33b 499d ec3c bec8 d93b a714 243b
00000080: 8264 c13b efb7 ea3c 5113 14bb c995 f2bb
00000090: 4a79 67bb dd6a 7fbc 0bda 0ab9 a8c8 52bc
000000a0: affd 6e3c b647 573c 5d38 3fbc 3746 88bb
000000b0: 01f8 b53c d33c 3f3d 44b3 a1bb 7724 b0bc
000000c0: 3698 3d3c 8c46 2ebd 5b1f 9f3b 4875 183d
000000d0: eefc b43c 43dd 413c 6789 453d 8f05 acbb
000000e0: e549 0cbd d4db 2abc cded cbbc ff02 84bd
000000f0: 4eda 4f3c 772e e73c 6b7f 12bc 00f3 d7bb
00000100: 3396 79bc 16b8 9b3c 348e dd3c c9fb 993c
00000110: ec19 9fb9 2922 933c 4601 dd3b f93c 163d
00000120: dcb3 fa3b 7484 013d 383d 583d c1c4 abbc
00000130: 0985 37bd f1ce 35bd 6487 5e3d dfee 5c3d
00000140: 1f22 1cbd 9d03 f5bc 3036 1bbd b332 2fbc
00000150: 4cc2 bb3c 3ca9 07bc 6210 b1bc 1415 06bc
00000160: bd8b 4c3c 17ee 03bc a145 b63c 0cbe e33a
00000170: 4bfe 713c a71b ae3c 9766 c03c 921a 843b
00000180: ad0c 10bd 0414 17bd 88b3 1dbd 9698 febb
00000190: 7ad9 9ebc 9974 81bc a270 eebb 70e0 53bd
000001a0: 432a 023c b4d6 40bc 770a 04bc e774 fc3c
000001b0: 598d cabc b147 383d 69ea e0bb d4c4 e23c
000001c0: f166 d4bb f1a9 10bc 2449 5bbc b3b2 84bc
000001d0: d944 253d 5c94 babc 35b9 9fbc 6505 3bbd
000001e0: 1e5b 603d 13eb c2bc 5f65 013d dbae c33c
000001f0: 4cb9 9c3b f731 163c 75ec b8bc 044a f3bc
00000200: a21c 373b a890 d43b 88a9 0cbd cae5 a53b
00000210: fab4 463d 40d9 133d 7325 213d bf16 5e3d
00000220: 8d92 8bbc 78cf dfbc 18ba 0b3d e517 a9bc
00000230: 20ac d6bc 75a5 bf3b e454 30bd 5db7 79bd
00000240: 9939 02bd 080b 20bd 9223 b63b ff0e 5abb
00000250: b8d4 84b7 ceee bc39 fb7a c63c 30ba 673c
00000260: eb49 233c 51d6 e0bc 7b4f c0bc 0a82 01bc
00000270: cd56 de3c 92d3 f23b 3237 1b3d a96d 52bd
00000280: daca 47bd 807a 43bd 2579 233d 6104 ebbc
00000290: d80d 873c bc6c 3fbb d7d2 463c 835f 38bc
000002a0: 41ff 283d 1407 cc3c 155c ecbc 1319 743c
000002b0: a64e 563d b3e3 a53a 5b74 be3c 1f1b 483c
000002c0: 1df1 aa3b 8903 19bd 6def 433c a71c 0abd
000002d0: 637d 6abd e559 38bc 9ff2 b8bc 4e90 213d
000002e0: f2fe 17bc f964 cb3c 6758 b83c 146f babc
000002f0: da3b d13c 13db aa3c 7e3d 0c3d 8110 eb3c
00000300: 49a8 9a3c a7ab e9bc 5156 ad3b 8318 293d
00000310: 129e 45bd 65c4 50bc 8c43 df3c 65b4 323c
00000320: 0b0b 033d 279a db3b 5458 433c 4303 10bd
00000330: cb66 063d ba19 88bc ada8 763a 3e7b 09bd
00000340: 9088 f43a f2c7 113c c859 bdbc 1e98 5f3c
00000350: 8c09 ecbb 7a21 0dbd 62d4 99bd 8ae2 e0bb
00000360: 0d42 c53c b0d7 633c 9fcc 823c 2a8a 93bb
00000370: 2b88 63bc c22f 953c 83cf 38bc 24f2 8c3c
00000380: 890a 503c dbb1 a1bb a70f 543c 2dff 5c3d
00000390: 02cc acbb 358a 4bbd 1afb bb39 9a36 14bc
000003a0: a482 bb3c 6774 743c befc 453d aec1 82bb
000003b0: 00cf 133c aeb1 9f3c 8733 cf3c a265 c6bc
000003c0: 15d5 8e39 37fe 9cbc bf96 5a3b 305b 243b
000003d0: f445 313d 4c05 f63c 2a1f a8bc 06a5 30bd
000003e0: a792 1a3a a97a 593d dfb7 4ebd 5dc1 0e3c
000003f0: 3c79 843c 3953 bf3c 679a eaba fc13 c2ba
0.0013519691 0.036039006 0.011225456 0.02756871 0.025820656 0.0036356198 -0.004466533 -0.02176696
-0.030895663 -0.0026020496 -0.0011504561 0.04326128 0.0075991503 0.0295183 0.02474674 -0.03777208
0.034381464 0.026659803 0.014003318 0.025593407 0.043784466 -0.013285828 -0.033841584 -0.01614433
-0.0047455975 -0.034537785 0.005062743 -0.063898355 0.0054630227 0.028883593 0.006646245 0.0025036724
0.005901874 0.02865216 -0.0022594521 -0.0074031097 -0.0035320097 -0.015589443 -0.00013241933 -0.012865223
0.01458685 0.013139656 -0.011671153 -0.004158761 0.022212984 0.046688866 -0.0049347 -0.021501763
0.011571934 -0.042547747 0.004856033 0.037221223 0.022093263 0.011832538 0.04822674 -0.005249686
-0.03425016 -0.010428388 -0.024893666 -0.06445884 0.012686325 0.028220398 -0.008941512 -0.006590247
-0.015233564 0.019008677 0.027045347 0.018796818 -0.00030346157 0.017960625 0.0067445366 0.03667924
0.0076508354 0.031620458 0.052792758 -0.020967843 -0.044804607 -0.044386808 0.054328337 0.053938743
-0.038118478 -0.02990895 -0.037893474 -0.01069324 0.022919796 -0.008280095 -0.021614257 -0.008183736
0.012484488 -0.0080523705 0.022249999 0.0017375364 0.014770101 0.02125342 0.023486419 0.0040314877
-0.03516834 -0.036884323 -0.038501292 -0.0077696545 -0.01939081 -0.015802668 -0.0072766105 -0.051727712
0.007944646 -0.011769939 -0.008059136 0.030817462 -0.024725603 0.044990245 -0.0068638814 0.027681746
-0.006481998 -0.00882958 -0.013384137 -0.016198492 0.04034886 -0.022775821 -0.019497493 -0.04565944
0.054774396 -0.023793733 0.031590816 0.023887089 0.0047828313 0.009167186 -0.022573689 -0.02969838
0.002794065 0.006486971 -0.034341365 0.0050627934 0.048512436 0.036095858 0.039342355 0.05422091
-0.017037654 -0.027320608 0.03411302 -0.020641277 -0.026205122 0.0058485814 -0.043049708 -0.060965884
-0.03179321 -0.03907302 0.0055584395 -0.0033273099 -1.5834681e-05 0.00036036078 0.024228564 0.014143512
0.009966354 -0.027445944 -0.0234754 -0.007904539 0.027141 0.007410475 0.037894435 -0.05137411
-0.04877744 -0.047724247 0.039910454 -0.028688611 0.016486093 -0.0029209098 0.012135229 -0.0112532405
0.041259054 0.024905719 -0.028852502 0.014898556 0.0523211 0.0012656361 0.023248842 0.012213497
0.005216731 -0.037356887 0.011958939 -0.03371873 -0.057248484 -0.011251901 -0.022576628 0.03944426
-0.009277092 0.024828421 0.022503091 -0.022758044 0.025541235 0.020856416 0.03423833 0.028694393
0.018879073 -0.028524233 0.0052898307 0.04128314 -0.04824645 -0.012742137 0.027253889 0.010907267
0.031992953 0.006701726 0.011922915 -0.03515936 0.032812875 -0.01661383 0.000940929 -0.0335648
0.0018656421 0.008897768 -0.0231141 0.013647107 -0.0072032865 -0.034455754 -0.07511212 -0.006862943
0.024079347 0.013906404 0.015966712 -0.0045025544 -0.013887445 0.01821125 -0.011279943 0.017205305
0.012697824 -0.004934532 0.012943185 0.053954292 -0.005273343 -0.04969235 0.00035854505 -0.009046221
0.022889443 0.014920331 0.048336737 -0.0039903736 0.009021521 0.019493904 0.025293125 -0.024218384
0.0002724311 -0.019164188 0.0033354012 0.0025078766 0.043279603 0.030031823 -0.020522673 -0.04312613
0.00058964867 0.053095493 -0.050468322 0.008713094 0.01617109 0.023355113 -0.0017898799 -0.0014806981

action_model._continuous_distribution.mu.bias f4 [2]
00000000: c49b 273a 990e b7bb
0.00063937553 -0.005586457

exp_avg f4 [128, 6]
00000000: 2022 87ba 0fae 4238 3274 8eb9 5817 a1ba
00000010: 0fae 4238 15cd d6b9 4d4c 86b8 770a e736
00000020: a600 bd37 8357 8fb8 690a e736 d64e 1137
00000030: f0ba 8cb6 bbde 1ab6 505b 9937 61cd 8db7
00000040: bbde 1ab6 9031 4437 e279 1039 14e8 24b8
00000050: d093 73b6 00c9 66b8 12e8 24b8 5fe4 10b9
00000060: 1580 f236 1854 57b5 c0c6 1f38 289a 8436
00000070: 1854 57b5 fb68 1f38 e826 46b8 d0ed 3936
00000080: 709f 08b9 d003 7938 e0ed 3936 ee2c 16b9
00000090: 358e 9c39 349f e1b7 f28c 23b8 b656 7038
000000a0: 349f e1b7 f566 90b9 9cf6 ef39 9cdc 3bb8
000000b0: a240 30b9 7a32 fb39 9cdc 3bb8 fc73 8bb9
000000c0: 8aa9 433a 41c3 8cb8 cd55 bb38 451c 233a
000000d0: 41c3 8cb8 5e22 77b9 dc30 17ba 2cf0 7137
000000e0: 7c3a 02b8 8ae9 21ba 24f0 7137 f54a 3cb9
000000f0: 064a b739 60fc cab6 e421 b438 16d9 403a
00000100: 60fc cab6 f05d 3738 749c 1db8 f05e c536
00000110: 9ccd 19b8 f0d6 ccb7 e45e c536 ca5a 5ab8
00000120: 24ec 4939 a7f2 88b7 4c1a 1c37 e454 a338
00000130: a7f2 88b7 986c e537 4436 2aba 00f6 4235
00000140: dc87 5bb9 4c39 78ba 00ef 4235 7033 7f39
00000150: 5072 6139 f854 f536 58ae 96b8 89b7 c839
00000160: f854 f536 8e39 00b9 cd4b c737 504a 5237
00000170: 9e73 0e39 2012 0a39 604a 5237 fc06 2939
00000180: 1444 5eb9 f5e7 c937 d0c6 e8b8 4e9f 48b9
00000190: f5e7 c937 6043 f8b8 4a92 8338 7df5 87b7
000001a0: ee68 0539 625a 4a38 7ef5 87b7 94f6 f138
000001b0: fca3 263a 6b63 4eb8 c008 fb36 ba9a 113a
000001c0: 6b63 4eb8 f812 45b8 ff8c 9b39 3ecc b9b7
000001d0: b4e0 1139 09f0 8039 3ccc b9b7 7872 45b7
000001e0: 0931 93b8 b94c 4737 48c4 e6b8 80da 37b8
000001f0: b94c 4737 6f72 eab8 175a d738 5a51 fab6
00000200: ca8c 9eb6 ce0d 1a39 5951 fab6 fc47 95b8
00000210: 18da fd37 8ee8 9437 a444 5839 0693 6b39
00000220: 8ee8 9437 1866 6639 c2db 45b9 df95 aa37
00000230: 8cb9 d2b8 80f3 1eb9 e195 aa37 622f 0bb9
00000240: c6a0 2438 de98 8d36 a4b0 d2b8 1d4c 11b9
00000250: de98 8d36 f1a5 a238 3d24 b6b7 f0b6 b9b4
00000260: 5e30 3b38 5607 15b7 30b7 b9b4 2777 4438
00000270: c2ff f1b8 c97d c337 5ecc 89b8 50c3 7ab7
00000280: c97d c337 20f6 0db9 3709 4b39 995f e2b7
00000290: 9e5e 7ab9 c45a 4739 965f e2b7 ddb8 a0b9
000002a0: d8ee 06b8 9265 89b7 d42b 64b9 4257 8fb8
000002b0: 9265 89b7 01e8 29b9 e8fb 9638 742a 5fb7
000002c0: 4e0c 38b9 40d5 eeb7 8c2a 5fb7 763b 8ab8
000002d0: 5a87 f039 34b1 35b8 dcb3 d338 e998 a739
000002e0: 34b1 35b8 7ed7 15b9 4041 ec37 3a01 12b7
000002f0: 06e8 8438 2044 f4b8 3a01 12b7 bf43 ac38
00000300: 200c 9937 bb4f 1338 6a3e 8939 bf73 e439
00000310: bb4f 1338 1118 8b39 35ad 4739 8b51 9cb7
00000320: 9a79 b138 606f c938 9051 9cb7 6c74 2538
00000330: b121 ea38 02b6 15b7 7689 8ab6 572e 0a38
00000340: 02b6 15b7 721d e5b8 68c1 3db9 3f50 8137
00000350: 95d5 0e38 7b11 8eb9 4650 8137 1cd9 6338
00000360: c633 5fba fe76 ed37 a0a4 49b8 97b4 8aba
00000370: fe76 ed37 b8d5 14b9 b807 83b9 e402 c236
00000380: 5ad3 28b9 c756 9bb9 e402 c236 5a34 2eb9
00000390: aa65 3938 bf14 c7b6 6b50 fc37 0b95 0138
000003a0: bf14 c7b6 672c 2c38 a449 7739 7f2d 9435
000003b0: b4a4 8b39 7a58 d739 fc2d 9435 3ce7 5339
000003c0: 5c36 c7b9 a7d7 1938 68f5 1ab9 c4c1 29b9
000003d0: a7d7 1938 1757 83b8 42e6 61b9 d0f1 7837
000003e0: e079 a3b6 1aca 9db9 def1 7837 d4f7 8c38
000003f0: 88a6 c9b8 2625 4b37 529a 05b8 fb1c 9fb8
-0.0010309853 4.641531e-05 -0.00027170923 -0.0012290282 4.641531e-05 -0.0004097006 -6.40383e-05 6.8855547e-06
2.2530858e-05 -6.835072e-05 6.8855484e-06 8.661029e-06 -4.1940875e-06 -2.3077434e-06 1.8281542e-05 -1.6904147e-05
-2.3077434e-06 1.169405e-05 0.00013778315 -3.9316787e-05 -3.629586e-06 -5.502347e-05 -3.931678e-05 -0.00013817985
7.2270727e-06 -8.0216114e-07 3.8093654e-05 3.9518527e-06 -8.0216114e-07 3.8006325e-05 -4.7243113e-05 2.7705573e-06
-0.00013029366 5.9369777e-05 2.770561e-06 -0.00014321852 0.0002986059 -2.6896225e-05 -3.8993494e-05 5.7301215e-05
-2.6896225e-05 -0.0002754253 0.0004576937 -4.4789733e-05 -0.00016808746 0.0004791206 -4.4789733e-05 -0.0002659856
0.0007463923 -6.712089e-05 8.9328365e-05 0.0006222169 -6.712089e-05 -0.00023568558 -0.00057674735 1.4420639e-05
-3.1048883e-05 -0.00061764626 1.44206315e-05 -0.00017957001 0.00034959632 -6.0494494e-06 8.5893815e-05 0.0007356567
-6.0494494e-06 4.3718086e-05 -3.7577425e-05 5.8821097e-06 -3.666953e-05 -2.4418783e-05 5.8821042e-06 -5.2059804e-05
0.00019256823 -1.6325457e-05 9.304447e-06 7.788258e-05 -1.6325457e-05 2.7349495e-05 -0.00064930716 7.262861e-07
-0.00020936079 -0.0009468987 7.261842e-07 0.00024337857 0.00021500257 7.3114606e-06 -7.1850314e-05 0.00038283717
7.3114606e-06 -0.00012228472 2.3757946e-05 1.2534278e-05 0.00013585246 0.00013167458 1.2534292e-05 0.00016119698
-0.00021196931 2.406908e-05 -0.00011099654 -0.00019132832 2.406908e-05 -0.00011838111 6.273815e-05 -1.6207568e-05
0.00012722958 4.824473e-05 -1.620757e-05 0.00011537704 0.0006356833 -4.9206817e-05 7.4814016e-06 0.0005554367
-4.9206817e-05 -4.6986126e-05 0.00029668954 -2.2148826e-05 0.00013911986 0.00024592903 -2.2148823e-05 -1.1768767e-05
-7.01864e-05 1.1879188e-05 -0.00011003815 -4.3834094e-05 1.1879188e-05 -0.000111793044 0.000102687794 -7.460051e-06
-4.725157e-06 0.00014691727 -7.4600507e-06 -7.118282e-05 3.0261508e-05 1.7751267e-05 0.00020624936 0.00022466117
1.7751267e-05 0.00021972542 -0.0001886925 2.0335368e-05 -0.00010048141 -0.00015158765 2.0335372e-05 -0.00013273724
3.925038e-05 4.2199235e-06 -0.00010046482 -0.00013856632 4.2199235e-06 7.755671e-05 -2.1712965e-05 -3.459204e-07
4.462932e-05 -8.8828e-06 -3.4592222e-07 4.684101e-05 -0.00011539414 2.3304385e-05 -6.5707354e-05 -1.4946636e-05
2.3304385e-05 -0.00013538497 0.00019363021 -2.6985816e-05 -0.00023877106 0.00019011932 -2.698581e-05 -0.00030655312
-3.217053e-05 -1.637897e-05 -0.00021760102 -6.8350244e-05 -1.637897e-05 -0.00016203524 7.1994786e-05 -1.330172e-05
-0.00017552191 -2.8471113e-05 -1.3301742e-05 -6.591428e-05 0.00045877212 -4.3318796e-05 0.000100947655 0.0003196665
-4.3318796e-05 -0.00014290024 2.8163777e-05 -8.702564e-06 6.337468e-05 -0.00011647516 -8.702564e-06 8.214218e-05
1.8244667e-05 3.5121786e-05 0.00026177178 0.00043573786 3.5121786e-05 0.00026530077 0.00019042644 -1.863462e-05
8.462668e-05 9.605172e-05 -1.863463e-05 3.9447492e-05 0.00011164265 -8.923469e-06 -4.128723e-06 3.294492e-05
-8.923469e-06 -0.000109250555 -0.00018096494 1.5415366e-05 3.4054352e-05 -0.00027097375 1.5415379e-05 5.4323216e-05
-0.000851449 2.8308012e-05 -4.8075453e-05 -0.0010582384 2.8308012e-05 -0.00014193996 -0.00024992018 5.781987e-06
-0.00016100463 -0.00029628558 5.781987e-06 -0.00016613436 4.420212e-05 -5.9330773e-06 3.0078189e-05 3.0894804e-05
-5.9330773e-06 4.104935e-05 0.00023583189 1.10401e-06 0.0002663486 0.00041073916 1.1040242e-06 0.0002020867
-0.0003799674 3.6678884e-05 -0.00014778005 -0.00016189279 3.6678884e-05 -6.2627885e-05 -0.0002154345 1.4838253e-05
-4.8719667e-06 -0.0003009595 1.4838266e-05 6.721882e-05 -9.615446e-05 1.2108392e-05 -3.1853393e-05 -7.587109e-05

exp_avg_sq f4 [128, 6]
00000000: f352 9d36 06b3 f532 3747 1235 06f4 ce36
00000010: 06b3 f532 ffc2 6e35 1581 ab32 27e7 342f
00000020: 6620 4931 57af b032 26e7 342f bc15 9431
00000030: 33a6 8032 c1dd 132f 926f 2131 939c 9532
00000040: c1dd 132f a490 8931 8d7a c536 362e fc32
00000050: d66c 0935 59ba 0937 392e fc32 6ea9 1435
00000060: e97b a432 9d3d 512f ad32 6831 c5f6 1b33
00000070: 9d3d 512f 7996 c531 2ad4 b336 b1cd 0333
00000080: cea4 f334 9197 ee36 b0cd 0333 e279 2f35
00000090: 3bb3 fc33 4145 5e30 a116 0c32 d59b 8e33
000000a0: 4145 5e30 c9f3 2a33 c90c 7135 5c72 dd31
000000b0: b1c8 3c34 92ed 9e35 5972 dd31 d903 aa34
000000c0: aade 4536 ec8b 7e32 d129 4134 7985 8436
000000d0: ec8b 7e32 be55 8c34 2e86 1d36 68f2 6d32
000000e0: b1ef 4534 26e9 2a36 66f2 6d32 4f33 a734
000000f0: 3b74 8136 e112 ce32 8ad9 d034 d9d9 c736
00000100: e112 ce32 e479 5c35 eb9d 4534 b90b da30
00000110: 2b5c 6733 9e52 c034 b60b da30 5a94 b533
00000120: 6242 4036 7de0 7e32 50e2 6b34 0b42 8036
00000130: 7de0 7e32 6851 9034 3c50 cf37 c78b 0534
00000140: a980 dc35 bac4 0a38 c68b 0534 1cf6 0f36
00000150: 4130 a035 bb1b 0532 28a2 b334 f919 de35
00000160: bb1b 0532 164c ea34 f4d4 6336 a2ad db32
00000170: 5ccb 5535 bc63 b336 a4ad db32 c63d 9935
00000180: f602 0133 3efa 2d30 156e 8f32 c7b2 d232
00000190: 3efa 2d30 15c0 fe32 d4ef 8233 ead9 ae30
000001a0: 48bb 1433 24a5 6133 ecd9 ae30 4e75 9a33
000001b0: 3135 4337 bda7 9133 4878 9035 8736 8437
000001c0: bda7 9133 a385 e035 ecb9 4f36 3076 9b32
000001d0: f1cf 9134 3d52 8036 3176 9b32 06a0 db34
000001e0: 69da 9a32 6cd2 7830 2bd9 f132 71a1 a332
000001f0: 6cd2 7830 b338 5d33 ca6d a933 843c bf30
00000200: f03d e532 aea1 d834 833c bf30 707d a333
00000210: e0ff 2436 8a51 5232 7613 9c34 f048 4436
00000220: 8a51 5232 ad84 a234 c531 4f33 8286 b830
00000230: a5f4 4a33 1585 1734 8586 b830 1043 9c33
00000240: 21ff b033 94a7 5c30 d4cf 9932 f52e 9b33
00000250: 94a7 5c30 f2f9 1b33 e382 b431 c251 802e
00000260: b417 4230 4640 6a31 c251 802e cff0 b730
00000270: a0f9 c234 08ac 8831 1202 5b34 9cc5 3335
00000280: 08ac 8831 9030 8534 dd0e 9a35 5fd1 fd31
00000290: 5720 6c34 f554 b035 5fd1 fd31 5f5f 9b34
000002a0: d412 f635 4f83 1632 5d51 9e34 9853 0e36
000002b0: 4f83 1632 0604 aa34 eed6 7536 0710 a932
000002c0: e77e 0935 333c 9d36 0910 a932 9136 1235
000002d0: e541 6936 18cc b832 c0a6 d434 0b33 8636
000002e0: 18cc b832 03e2 0735 5771 2e36 7bf5 8832
000002f0: f7fe c134 dc8f 6836 7bf5 8832 61df ff34
00000300: 790e 6f37 13d8 9433 4f33 ec35 baf8 9137
00000310: 13d8 9433 1b8a d535 12fa 7536 9508 b532
00000320: 26b1 a434 3082 9f36 9708 b532 1e21 ea34
00000330: 8fe6 b332 c6c7 0e2f 26a4 fa30 a434 c532
00000340: c6c7 0e2f ca5d d331 4e2f 0f35 ed9a 9e31
00000350: 1828 8034 74af 0535 ed9a 9e31 e6f6 6734
00000360: 7b16 2036 5777 8b32 9163 d334 0d23 3636
00000370: 5777 8b32 3fca 3235 20c6 2c36 dd3d af32
00000380: a954 0435 c6f2 8536 da3d af32 f165 5035
00000390: 514c 1e32 9ada 7830 6e8e e032 02b4 0333
000003a0: 9ada 7830 f506 6333 d97b b136 807b d632
000003b0: 3cde 0935 5faf d736 807b d632 0f69 0535
000003c0: 2a0b 3a37 03c9 8333 b173 9735 f4d2 7637
000003d0: 03c9 8333 3a24 ab35 3dff a335 8bb7 1732
000003e0: c31c fd34 8206 a835 8cb7 1732 b43c f034
000003f0: b45f d432 13a9 912f 003b bf31 3618 1233
4.688621e-06 2.8603164e-08 5.449287e-07 6.1676865e-06 2.8603164e-08 8.8945666e-07 1.996572e-08 1.6453026e-10
2.9267766e-09 2.0568832e-08 1.6453025e-10 4.309838e-09 1.497674e-08 1.3448355e-10 2.3492004e-09 1.7417085e-08
1.3448355e-10 4.0036685e-09 5.8853243e-06 2.9357675e-08 5.1194854e-07 8.209224e-06 2.935768e-08 5.538085e-07
1.914846e-08 1.9030329e-10 3.378925e-09 3.6313185e-08 1.9030329e-10 5.7505614e-09 5.359315e-06 3.068789e-08
4.5382188e-07 7.1105974e-06 3.0687886e-08 6.5369943e-07 1.1767266e-07 8.0861545e-10 8.154218e-09 6.640736e-08
8.0861545e-10 3.980293e-08 8.97981e-07 6.4449477e-09 1.7581876e-07 1.1841059e-06 6.4449464e-09 3.1667767e-07
2.9484895e-06 1.481656e-08 1.7989738e-07 3.949445e-06 1.481656e-08 2.6139418e-07 2.3472926e-06 1.3850332e-08
1.8434254e-07 2.5467684e-06 1.3850331e-08 3.1143506e-07 3.8580306e-06 2.3990141e-08 3.89013e-07 5.956023e-06
2.3990141e-08 8.213376e-07 1.8404505e-07 1.5864919e-09 5.3867705e-08 3.58229e-07 1.5864916e-09 8.455454e-08
2.864887e-06 1.4835789e-08 2.1968413e-07 3.8223857e-06 1.4835789e-08 2.688132e-07 2.4713685e-05 1.2437441e-07
1.6428722e-06 3.308498e-05 1.243744e-07 2.1451915e-06 1.1934973e-06 7.747924e-09 3.3459332e-07 1.6547848e-06
7.747924e-09 4.3641256e-07 3.394959e-06 2.5573915e-08 7.964461e-07 5.3462263e-06 2.5573918e-08 1.1417367e-06
3.0037846e-08 6.329265e-10 1.669745e-08 2.4528516e-08 6.329265e-10 2.965684e-08 6.097221e-08 1.2722101e-09
3.4629267e-08 5.253709e-08 1.2722103e-09 7.1925214e-08 1.163529e-05 6.7826e-08 1.0763843e-06 1.5761017e-05
6.7826e-08 1.6728194e-06 3.0953624e-06 1.809812e-08 2.7159652e-07 3.824271e-06 1.8098122e-08 4.090836e-07
1.8027281e-08 9.05209e-10 2.815485e-08 1.9049113e-08 9.05209e-10 5.150714e-08 7.889646e-08 1.3914279e-09
2.6687275e-08 4.0350773e-07 1.3914278e-09 7.613096e-08 2.4586843e-06 1.2242149e-08 2.9071424e-07 2.9248731e-06
1.2242149e-08 3.0271386e-07 4.824121e-08 1.3425991e-09 4.7254293e-08 1.4111386e-07 1.3425995e-09 7.276515e-08
8.242046e-08 8.0273677e-10 1.7906054e-08 7.2262914e-08 8.0273677e-10 3.6316074e-08 5.2535696e-09 5.835289e-11
7.0610473e-10 3.4088017e-09 5.835289e-11 1.3383444e-09 3.6316942e-07 3.9776786e-09 2.0396718e-07 6.6970256e-07
3.9776786e-09 2.4808514e-07 1.147822e-06 7.387072e-09 2.1990978e-07 1.3137748e-06 7.387072e-09 2.894039e-07
1.8333908e-06 8.761005e-09 2.9488993e-07 2.1208307e-06 8.761005e-09 3.1667895e-07 3.663295e-06 1.9681478e-08
5.1221144e-07 4.6859727e-06 1.9681481e-08 5.4468643e-07 3.4758061e-06 2.151323e-08 3.9609404e-07 3.9994534e-06
2.151323e-08 5.062031e-07 2.5993993e-06 1.5944115e-08 3.6134563e-07 3.4654431e-06 1.5944115e-08 4.765998e-07
1.424888e-05 6.931091e-08 1.7598303e-06 1.740117e-05 6.931091e-08 1.5909931e-06 3.6653405e-06 2.1075076e-08
3.0676273e-07 4.753725e-06 2.107508e-08 4.3609992e-07 2.0943189e-08 1.2985799e-10 1.8236548e-09 2.2957757e-08
1.2985799e-10 6.151571e-09 5.334049e-07 4.6160182e-09 2.387103e-07 4.980168e-07 4.6160182e-09 2.1603373e-07
2.3854943e-06 1.6236e-08 3.9374257e-07 2.7140516e-06 1.6236e-08 6.6604474e-07 2.5745321e-06 2.0400813e-08
4.929703e-07 3.9919714e-06 2.0400808e-08 7.763438e-07 9.214163e-09 9.0532526e-10 2.6141802e-08 3.066453e-08
9.0532526e-10 5.2858883e-08 5.289429e-06 2.496904e-08 5.135987e-07 6.427915e-06 2.496904e-08 4.969924e-07
1.1089063e-05 6.136727e-08 1.1284047e-06 1.4711859e-05 6.136727e-08 1.2751036e-06 1.221873e-06 8.83109e-09
4.714585e-07 1.2518869e-06 8.8310905e-09 4.474765e-07 2.4723569e-08 2.649548e-10 5.565539e-09 3.4015294e-08

exp_avg f4 [128]
00000000: 03ae c238 780a 6737 bdde 9ab6 0ae8 a4b8
00000010: f253 d7b5 30ee b936 359f 61b8 94dc bbb8
00000020: 3ec3 0cb9 30f0 f137 30fc 4ab7 005f 4537
00000030: d4f2 08b8 00f3 c235 6854 7537 5e4a d237
00000040: f8e7 4938 7ef5 07b8 9a63 ceb8 30cc 39b8
00000050: ba4c c737 5b51 7ab7 8ee8 1438 e295 2a38
00000060: d298 0d37 10b7 39b5 c17d 4338 915f 62b8
00000070: 8065 09b8 a42a dfb7 31b1 b5b8 2a01 92b7
00000080: d64f 9338 7651 1cb8 feb5 95b7 4650 0138
00000090: 1277 6d38 ef02 4237 c614 47b7 932d 1436
000000a0: 9bd7 9938 c3f1 f837 2625 cb37 7410 9238
000000b0: d6af 9eb6 6054 dc36 b074 ff37 4039 9eb7
000000c0: 2800 1d38 1ef4 9d35 ddc6 6138 0918 38b8
000000d0: 00b8 e7b1 31c2 0f38 489d 8937 778c e538
000000e0: 4b84 1b38 caeb b637 e803 3eb8 bb71 9938
000000f0: 12a5 1e37 419f b038 3ebf 1538 901d ad36
00000100: da22 d5b8 b8d4 ca38 ddab 02b8 0ac9 b537
00000110: a6ae 41b7 6192 1fb8 b4c0 d134 9008 bd37
00000120: 801f aab7 58bd 8937 0090 3e35 294e 9637
00000130: 4027 fd36 b62b d437 9138 3bb9 98ea 9bb7
00000140: 28ac 11b8 be41 34b8 22ec 2839 4242 e4b7
00000150: 3300 0139 404e 2fb7 a860 b838 c0ed d1b8
00000160: 64aa 9cb6 a819 66b9 447f efb8 3aaf 04b9
00000170: ce43 2339 1e1f de37 54e8 e6b8 86c1 14b8
00000180: 8a3a cdb7 b6fa 9db8 c2ef 5e38 87ca 5eb9
00000190: c12a 16b7 f3b9 1d38 f6fa 0a38 a5a0 9db8
000001a0: 60e7 4737 d008 83b6 2770 2a38 a4ef b438
000001b0: fcb8 04b9 8253 2d38 0dd3 9cb7 4e13 3c38
000001c0: 2c60 fcb7 aa68 fcb7 3216 32b8 e219 a738
000001d0: 0f03 03b8 70e8 1537 ea93 ce38 1e09 1738
000001e0: dc68 8237 7a9d e035 5464 5bb8 92df b937
000001f0: 124a 0ab8 e48f 3238 0fa9 38b7 042d 09b6
9.283053e-05 1.377111e-05 -4.615488e-06 -7.86335e-05 -1.604318e-06 5.5411583e-06 -5.3792453e-05 -8.957941e-05
-0.00013424174 2.8841285e-05 -1.2098855e-05 1.1764234e-05 -3.2651078e-05 1.4524849e-06 1.462279e-05 2.506858e-05
4.8138172e-05 -3.241514e-05 -9.841398e-05 -4.42976e-05 2.3758377e-05 -1.4920103e-05 3.5502533e-05 4.0670748e-05
8.439836e-06 -6.918426e-07 4.660874e-05 -5.3971602e-05 -3.2757875e-05 -2.6603528e-05 -8.663757e-05 -1.7405098e-05
7.024377e-05 -3.7269165e-05 -1.784693e-05 3.0830757e-05 5.6616096e-05 1.1563984e-05 -1.1866161e-05 2.2080246e-06
7.335768e-05 2.9676483e-05 2.4216784e-05 6.964887e-05 -4.729237e-06 6.5663335e-06 3.0452706e-05 -1.8861727e-05
3.7431862e-05 1.1768459e-06 5.3829386e-05 -4.3891403e-05 -6.743903e-09 3.427471e-05 1.6404912e-05 0.000109457345
3.7078087e-05 2.1805889e-05 -4.5303168e-05 7.3167925e-05 9.455967e-06 8.421997e-05 3.5702476e-05 5.1592433e-06
-0.00010163123 9.6717326e-05 -3.1154475e-05 2.1670498e-05 -1.154436e-05 -3.804488e-05 3.9069494e-07 2.2534543e-05
-2.0280248e-05 1.6419843e-05 7.0990063e-07 1.791779e-05 7.544557e-06 2.5292724e-05 -0.00017854782 -1.8586681e-05
-3.4731027e-05 -4.297657e-05 0.00016109695 -2.7210572e-05 0.00012302473 -1.0449032e-05 8.791807e-05 -0.00010010181
-4.6689984e-06 -0.00021944067 -0.00011420113 -0.00012653778 0.0001557015 2.6478952e-05 -0.00011010529 -3.5466182e-05
-2.4465164e-05 -7.533042e-05 5.3152216e-05 -0.00021247017 -8.950651e-06 3.7604896e-05 3.313549e-05 -7.516266e-05
1.19151955e-05 -3.90513e-06 4.063561e-05 8.6277054e-05 -0.00012657413 4.1324187e-05 -1.8694927e-05 4.484067e-05
-3.0085524e-05 -3.0089479e-05 -4.2459178e-05 7.9680016e-05 -3.1235682e-05 8.935211e-06 9.8503966e-05 3.6009696e-05
1.5546037e-05 1.6735132e-06 -5.2307107e-05 2.2157827e-05 -3.2970747e-05 4.2572516e-05 -1.1006617e-05 -2.0440793e-06

exp_avg_sq f4 [128]
00000000: 06b3 f533 28e7 3430 c2dd 1330 362e fc33
00000010: 9f3d 5130 b1cd 0334 4345 5e31 5a72 dd32
00000020: ee8b 7e33 6cf2 6d33 de12 ce33 b70b da31
00000030: 7ce0 7e33 c78b 0535 bc1b 0533 a1ad db33
00000040: 3ffa 2d31 e7d9 ae31 bba7 9134 2f76 9b33
00000050: 66d2 7831 893c bf31 8751 5233 8886 b831
00000060: 99a7 5c31 c251 802f 0aac 8832 60d1 fd32
00000070: 4f83 1633 0810 a933 15cc b833 79f5 8833
00000080: 13d8 9434 9608 b533 c5c7 0e30 ec9a 9e32
00000090: 5677 8b33 db3d af33 9bda 7831 837b d633
000000a0: 02c9 8334 8ab7 1733 13a9 9130 0e21 8533
000000b0: d647 1630 5c45 4c33 4fe2 2133 6d93 6532
000000c0: 9531 2531 3559 c22e 9cb9 2533 a27b 1332
000000d0: e03a 2c34 6b4a c730 cdde 5631 6eaf 1434
000000e0: 318e 7e31 acce 1830 a624 d630 235c e233
000000f0: d293 a530 19b7 2032 100d 8234 46d1 0532
00000100: 3a37 3934 16f1 1434 2ff5 1d33 7ded c933
00000110: b7fa 5831 1c2f 3a33 d62d 832e 3445 8432
00000120: b40b fe33 f5dd bf32 f32d ad33 2c87 e232
00000130: 6e03 1733 7b4d 2b33 ebc3 b934 288d 6533
00000140: 70d8 5231 cc97 7033 ca4d 2434 1f21 5734
00000150: c9ea ba33 d948 1b30 2a50 b434 7b07 1134
00000160: 163a 9932 6663 9d34 a156 8234 b666 4134
00000170: e765 4a34 90b0 da31 c457 0434 48a9 4931
00000180: 065c 1b33 8f12 3b31 bde2 5232 5021 7134
00000190: 3dfa 2630 64b1 6434 3268 ab32 d1ab 5033
000001a0: 26f6 1734 94d4 4932 dd32 3233 81c6 2a34
000001b0: 7953 5534 3f71 e931 3f49 6633 c601 0532
000001c0: 3aed 6435 a8f2 1a33 8dc8 5831 1b20 7834
000001d0: 5332 7a34 470d 9231 6a4a 3a34 86c6 6b33
000001e0: 8f59 3c33 a5b6 be2e da23 cb33 f852 eb31
000001f0: 0d94 ae32 2bc9 0833 1f36 ec2f ad26 2431
1.1441266e-07 6.581211e-10 5.3793425e-10 1.174307e-07 7.6121326e-10 1.2275156e-07 3.2344623e-09 2.5779787e-08
5.926625e-08 5.5401344e-08 9.5960544e-08 6.345967e-09 5.934315e-08 4.9749764e-07 3.09917e-08 1.0229565e-07
2.5317062e-09 5.088839e-09 2.7130395e-07 7.2392474e-08 3.6208347e-09 5.5657137e-09 4.8968584e-08 5.3703992e-09
3.2109482e-09 2.3341157e-10 1.5910718e-08 2.954829e-08 3.504402e-08 7.872592e-08 8.60529e-08 6.377645e-08
2.7724363e-07 8.430031e-08 5.194319e-10 1.8464071e-08 6.494399e-08 8.160324e-08 3.6213013e-09 9.987618e-08
2.4546904e-07 3.5324355e-08 1.0598192e-09 6.199308e-08 5.4671767e-10 4.7560533e-08 3.769156e-08 1.3363075e-08
2.4038844e-09 8.837945e-11 3.8585867e-08 8.584637e-09 1.6040167e-07 1.4500307e-09 3.1267746e-09 1.3847395e-07
3.7042691e-09 5.5590976e-10 1.5580965e-09 1.0540705e-07 1.2047343e-09 9.354857e-09 2.422389e-07 7.789202e-09
1.7249559e-07 1.387128e-07 3.6777404e-08 9.402991e-08 3.1574652e-09 4.3349345e-08 5.9653324e-11 1.5398292e-08
1.18299255e-07 2.233626e-08 8.0642984e-08 2.6371332e-08 3.5160546e-08 3.9884508e-08 3.4601484e-07 5.34466e-08
3.0682052e-09 5.6017413e-08 1.530199e-07 2.0035485e-07 8.704007e-08 5.6492194e-10 3.358594e-07 1.3506899e-07
1.7837959e-08 2.931585e-07 2.4277418e-07 1.8011892e-07 1.8849788e-07 6.364708e-09 1.2325387e-07 2.9345575e-09
3.6172445e-08 2.722263e-09 1.2275163e-08 2.2456993e-07 6.074606e-10 2.1298689e-07 1.9954403e-08 4.858504e-08
1.4152519e-07 1.17480745e-08 4.1490114e-08 1.5904699e-07 1.9867538e-07 6.794067e-09 5.3617665e-08 7.742022e-09
8.528183e-07 3.6076614e-08 3.1546137e-09 2.310848e-07 2.3301372e-07 4.2506687e-09 1.7349672e-07 5.4895757e-08
4.3853614e-08 8.672644e-11 9.4594455e-08 6.8488326e-09 2.0323592e-08 3.184793e-08 4.2966605e-10 2.3887126e-09
